client/backend/wri-w2wh-back/python_scripts/training/KRS/inflow_cnn_date_bestmodel.pth (torch, 49694 bytes, 39 tensors)

month_emb.weight f4 [12, 32]
-1.1275141 -0.78884494 -0.021073671 1.2052171 1.0356776 -0.8988861 -2.4644778 1.1304623
0.88973135 -0.37337363 -0.61451083 -0.4220362 0.49527362 1.0857615 0.8463363 0.5320081
-0.7491867 -0.8293991 2.2868156 1.7057966 0.9146863 -1.780418 -1.175982 -0.26319525
-1.2643812 0.31762198 -0.51954377 -0.7477249 0.070035115 -0.11159484 1.5825946 0.8402892
-0.8011477 -0.4372383 0.7222432 -2.5127654 0.10002072 0.1691261 -1.1384938 2.132471
-0.0056418744 -0.20098002 0.059622157 0.40065363 0.6182458 0.40167904 0.7142659 -0.21538748
-1.0669382 -1.2968211 -0.9024186 -0.12206958 -0.34071627 0.8728854 -1.306506 0.97963804
-0.315512 -1.0814614 0.21576047 1.2430986 -0.016344273 0.96844643 -0.72863466 -0.51868796
1.1232893 2.2542217 1.1463139 0.009818745 0.39528948 1.8489267 0.7755486 1.5163184
-0.54409575 0.7395934 2.3133907 0.02190975 0.35507625 0.0076363776 1.3992169 0.13880736
-1.3090919 -0.44596258 -1.9247074 1.1977346 -0.17514198 0.64551 1.2614948 1.6637357
0.83087885 -0.48240042 -0.19045147 1.2134581 -0.17007531 -0.44316626 -0.14138041 0.87819684
0.84942853 -0.834682 -0.245238 -0.27381697 -0.42267355 -0.09925324 1.2772274 -0.2060963
-2.190456 1.5008857 -0.4481335 0.34410924 0.17976019 -2.1164477 -0.5207824 -0.7967915
0.6095007 -0.6715739 0.05509089 2.252821 0.9103736 -0.22202896 -1.7536606 0.3150741
0.07991276 -1.2256302 -0.58991396 1.0225552 -0.45164526 -1.1341219 -0.5249683 0.50627303
-0.59042495 -0.14196622 -1.5944446 -1.161247 -0.03814579 0.09606015 1.3079863 1.991409
-1.7705297 0.042942263 1.3744508 -0.15927517 0.3966069 -1.0605799 0.666024 -1.5090265
-0.30525637 -2.387251 0.43460664 1.8653549 0.44971472 -2.0057616 0.54309857 0.16453543
2.0017195 -2.7961683 0.68542135 -0.010405297 1.5408373 0.40084973 -0.556811 0.022181274
-0.5679191 -0.5539179 -0.4585911 0.06835115 -0.35117018 -0.2424771 1.6834327 1.6690263
-1.0259333 1.1754985 -0.4376388 -1.423721 0.2793383 1.3097074 -0.705535 1.7069501
0.9951043 -0.10965101 -0.95595515 0.59383166 2.119767 1.4429934 -0.5274986 1.304629
-0.20839846 0.41111717 -0.3751786 -1.4619747 -1.186242 -1.4077512 0.5656554 0.52196234
0.16447458 -0.76480323 0.14958085 0.7981658 -0.3166201 0.23928674 0.78729236 -1.7887192
0.38408163 1.3070697 -0.23121737 0.7384981 0.12849315 -0.08893437 -0.06719073 0.34019879
-0.3119167 0.34058747 1.1496418 0.20978516 -0.020066053 -1.7259907 -1.5323808 1.336242
-0.42967024 -0.43018898 1.9127933 0.47376764 1.3326348 0.04819393 -0.13503645 -0.70069003
1.4640313 -1.057901 0.91670614 -0.27242306 0.22901456 -0.9704306 0.8362047 -1.5743325
0.3044268 -0.67456234 0.27994582 -0.075700596 -1.4450006 -0.9178037 0.91365683 -0.0004211997
0.7285196 0.32656083 -0.55565274 0.8034651 -0.1308798 0.9880596 1.317617 -0.48146275
-0.064736284 -0.39345667 1.5162517 0.2204715 0.9968513 -0.4635388 -1.0984105 -0.31390122
00000000: 6252 90bf bef1 49bf b1a2 acbc 8e44 9a3f
00000010: 1591 843f 661d 66bf 01ba 1dc0 fdb2 903f
00000020: 6fc5 633f d42a bfbe 9550 1dbf 2115 d8be
00000030: 8194 fd3e 3cfa 8a3f 7fa9 583f af31 083f
00000040: b3ca 3fbf 8053 54bf 305b 1240 8b57 da3f
00000050: e228 6a3f bde4 e3bf 9486 96bf 87c1 86be
00000060: 3ed7 a1bf 599f a23e d200 05bf e66a 3fbf
00000070: 926e 8f3d d68b e4bd 7692 ca3f 311d 573f
00000080: 0418 4dbf b3dd dfbe eee4 383f 26d1 20c0
00000090: aad7 cc3d 642f 2d3e 2aba 91bf 687a 0840
000000a0: 79df b8bb b5cd 4dbe 5d36 743d 7922 cd3e
000000b0: 5b45 1e3f e0a8 cd3e 21da 363f 898e 5cbe
000000c0: 6e91 88bf 3cfe a5bf e804 67bf 9eff f9bd
000000d0: 5d72 aebe 6b75 5f3f 973b a7bf 8fc9 7a3f
000000e0: ca8a a1be 546d 8abf 50f0 5c3e db1d 9f3f
000000f0: 6de4 85bc 1bec 773f cd87 3abf bcc8 04bf
00000100: f2c7 8f3f 2b45 1040 6aba 923f cdde 203c
00000110: 6263 ca3e a1a9 ec3f 5a8a 463f b916 c23f
00000120: dc49 0bbf fe55 3d3f 980e 1440 137c b33c
00000130: 8ecc b53e 943a fa3b 8a19 b33f 8423 0e3e
00000140: 5390 a7bf 3555 e4be d05c f6bf 5e4f 993f
00000150: 6b58 33be 2540 253f a978 a13f 4bf5 d43f
00000160: 7ab4 543f 30fd f6be b605 43be 9852 9b3f
00000170: 3928 2ebe b0e6 e2be 07c6 10be 82d1 603f
00000180: 2674 593f b8ad 55bf ac1f 7bbe bd31 8cbe
00000190: ab68 d8be 4845 cbbd 307c a33f e90a 53be
000001a0: 6e30 0cc0 061d c03f c171 e5be 162f b03e
000001b0: 0e13 383e e173 07c0 ff51 05bf 87fa 4bbf
000001c0: 3d08 1c3f 44ec 2bbf fca6 613d 382e 1040
000001d0: 3f0e 693f 8f5b 63be f377 e0bf 6451 a13e
000001e0: 4da9 a33d 73e1 9cbf 9a04 17bf 17e3 823f
000001f0: 0c3e e7be e82a 91bf 5364 06bf 1c9b 013f
00000200: 1726 17bf 985f 11be c316 ccbf bea3 94bf
00000210: c33e 1cbd 2fbb c43d 186c a73f 7de6 fe3f
00000220: b8a0 e2bf 3ae4 2f3d 01ee af3f 0819 23be
00000230: 0f10 cb3e 15c1 87bf 8d80 2a3f c827 c1bf
00000240: 904a 9cbe b8c8 18c0 c384 de3e f3c3 ee3f
00000250: 0241 e63e 665e 00c0 8208 0b3f fa7b 283e
00000260: 2c1c 0040 6cf4 32c0 c677 2f3f fb7a 2abc
00000270: 283a c53f 2d3c cd3e 2a8b 0ebf 81b5 b53c
00000280: 2563 11bf 90cd 0dbf 74cc eabe b0fb 8b3d
00000290: 94cc b3be eb4b 78be b97a d73f a7a2 d53f
000002a0: c851 83bf bc76 963f 3112 e0be 7d3c b6bf
000002b0: 6e05 8f3e 7ea4 a73f f19d 34bf 577d da3f
000002c0: 28bf 7e3f b590 e0bd 7ab9 74bf 5a05 183f
000002d0: 43aa 0740 02b4 b83f 260a 07bf 15fe a63f
000002e0: 6866 55be f37d d23e 6917 c0be fd21 bbbf
000002f0: c7d6 97bf 3131 b4bf cbce 103f 539f 053f
00000300: 066c 283e 25ca 43bf b92b 193e 9854 4c3f
00000310: 081c a2be 9507 753e fe8b 493f c0f4 e4bf
00000320: 59a6 c43e 0f4e a73f 3fc4 6cbe 360e 3d3f
00000330: b593 033e 3923 b6bd 4b9b 89bd 892e ae3e
00000340: 8cb3 9fbe 7b61 ae3e 7627 933f ecd1 563e
00000350: 9061 a4bc 43ed dcbf 0e25 c4bf fa09 ab3f
00000360: bdfd dbbe bb41 dcbe 69d6 f43f ac91 f23e
00000370: c793 aa3f 0067 453d ff46 0abe 6c60 33bf
00000380: 6165 bb3f 4d69 87bf 41ad 6a3f 097b 8bbe
00000390: cb82 6a3e 246e 78bf 8311 563f ba83 c9bf
000003a0: d4dd 9b3e 1eb0 2cbf 0f55 8f3e ea08 9bbd
000003b0: c8f5 b8bf 2ff5 6abf 6ae5 693f 77d4 dcb9
000003c0: 4380 3a3f fb32 a73e 423f 0ebf e4af 4d3f
000003d0: 5b05 06be 79f1 7c3f ada7 a83f 4982 f6be
000003e0: 7594 84bd 2773 c9be 8914 c23f 48c3 613e
000003f0: a631 7f3f f554 edbe b798 8cbf a9b7 a0be

date_emb.weight f4 [31, 32]
-0.124926046 0.5866508 1.0531076 -0.14922553 0.65047246 1.7267708 0.71910685 -0.35883737
-0.6932867 0.6841073 -0.62729144 -0.12297717 0.6474795 -1.5770953 -0.14522271 0.6705305
0.610242 -0.6872412 -0.856551 0.078859694 0.06973036 -2.7535152 -1.1778792 1.0034759
-0.4749039 -2.8456564 0.6962655 1.2251606 0.38369 -0.22671737 0.24648528 0.880477
1.1565198 1.8754455 1.2284454 -0.47502533 0.32133704 0.12656365 1.2204442 1.352013
-0.97085524 0.04342245 -0.6021051 0.25569946 0.105403095 -0.40337947 -0.71283114 -0.41531932
1.2824184 0.85397756 -0.22517383 2.6082807 1.485522 -1.471956 1.1047719 -0.7398678
2.859307 -2.6687222 -1.2024819 0.38190013 1.4216355 -0.6873044 0.01173868 0.28315014
-1.2451677 1.0190444 -0.47147095 -0.95417356 -1.6728563 0.25239328 -0.3858331 1.5441681
0.0341546 -0.29513738 0.1848373 1.1958857 0.9323248 -0.17499225 1.1783879 0.9613973
0.15274282 0.46474278 0.14825006 -1.6733044 1.5427364 0.35145906 -1.0756872 0.6451491
0.6541468 1.1553451 0.45411393 0.923248 -1.0035224 0.9516873 -0.93028647 -0.5930404
-0.13855198 0.068841144 0.75729 0.18107685 0.228042 0.23693587 0.37864533 -0.60060185
0.64512867 0.9043428 0.32694033 -0.28135422 -0.08457099 -1.2387587 -0.7506407 0.33365908
1.3285393 -0.6276349 -1.3959969 1.164098 1.6558114 -3.5798995 -0.57855964 2.522727
1.6830975 -0.42070195 -0.93040746 -0.2306336 0.7328881 0.73842335 0.2901117 -0.78837496
1.4125656 -0.18179949 -1.0660616 0.2216002 0.30854556 -0.057827283 0.85570514 -1.5127957
0.5203136 -0.32947522 0.07921955 -0.13477291 0.1471974 0.6670514 -0.7472382 -0.8546598
-1.5198448 0.05389551 0.10962305 -0.24467485 0.32399052 -0.6613375 0.57883835 0.24701041
1.5075163 -0.22857851 0.6999787 0.8351335 -0.103821196 -0.088796735 -0.4889863 -0.8315897
-1.8344257 0.472289 -0.13920203 -1.04395 1.0887262 0.5028512 0.20583205 -1.5323093
-1.5182319 -2.0254054 0.27519256 -0.764097 -0.8388837 1.0947504 -0.023529084 -0.8486444
-1.0158833 0.78277165 -1.0694529 -1.2135261 -0.04597235 0.38755712 -1.155611 -0.3140782
0.44312298 -0.588564 0.9689641 -1.1412269 0.18520069 -0.43321463 0.8080907 0.6698221
-0.99440306 0.1046954 -1.8751134 0.24332984 0.78422207 0.5147043 1.2855585 0.93034005
0.7385341 1.1456147 1.3656172 -1.0850574 -0.8610596 0.06952858 -1.0796976 0.12981465
-0.042148754 -1.5727103 -0.6855467 -0.039357062 -0.12413121 1.7511379 -1.4882333 -0.70299107
0.76585805 -0.3632991 0.5423758 1.0054547 0.18118934 -1.8695092 0.08837811 -0.07396205
-0.27952883 0.86872256 1.1491002 0.6421969 -1.142173 -0.5287954 0.23789486 1.3733037
-0.61545354 0.7167545 -0.76768327 0.33028722 -0.3146624 -0.01566564 -0.58602613 -1.0908732
-0.33071315 0.144494 -0.5377523 0.6096618 0.41090086 0.1679783 0.42769393 -0.33578795
-1.5611418 0.5206008 -1.0005934 -0.12727338 0.21751575 0.8753932 0.9821192 -0.17675649
00000000: 3ad9 ffbd bf2e 163f 3bcc 863f 94ce 18be
00000010: 5d85 263f d306 dd3f 6317 383f 88b9 b7be
00000020: 3d7b 31bf a821 2f3f 2c96 20bf 74db fbbd
00000030: 37c1 253f 42de c9bf 43b5 14be e3a7 2b3f
00000040: d238 1c3f 0aef 2fbf ed46 5bbf 3181 a13d
00000050: cace 8e3d 9839 30c0 bfc4 96bf e671 803f
00000060: 9b26 f3be 3c1f 36c0 753e 323f 10d2 9c3f
00000070: 0473 c43e 9928 68be a366 7c3e f166 613f
00000080: d708 943f 990e f03f b33d 9d3f 8536 f3be
00000090: 4a86 a43e e799 013e 8437 9c3f c30e ad3f
000000a0: f889 78bf bddb 313d 8f23 1abf 0aeb 823e
000000b0: 94dd d73d c187 cebe 1a7c 36bf bca4 d4be
000000c0: 4926 a43f 469e 5a3f f893 66be 12ee 2640
000000d0: 9625 be3f 0e69 bcbf 2a69 8d3f fa67 3dbf
000000e0: e3fe 3640 58cc 2ac0 edea 99bf 6a88 c33e
000000f0: 27f8 b53f 2ef3 2fbf 9853 403c 0ef9 903e
00000100: a861 9fbf 0c70 823f a464 f1be b844 74bf
00000110: 2820 d6bf b139 813e eb8b c5be 4da7 c53f
00000120: b2e5 0b3d 3f1c 97be fd45 3d3e c812 993f
00000130: d7ac 6e3f 2b31 33be 6ad5 963f 221e 763f
00000140: 9d68 1c3e c4f2 ed3e ddce 173e d72e d6bf
00000150: 6378 c53f 71f2 b33e 1eb0 89bf 7e28 253f
00000160: 2a76 273f 59e2 933f 9f81 e83e fb59 6c3f
00000170: 6c73 80bf c7a1 733f 4127 6ebf 7fd1 17bf
00000180: 92e0 0dbe 96fc 8c3d c2dd 413f 366c 393e
00000190: d883 693e 519f 723e cddd c13e 0bc1 19bf
000001a0: 2727 253f 0283 673f b964 a73e a90d 90be
000001b0: 8e33 adbd a58f 9ebf fd29 40bf 5dd5 aa3e
000001c0: 930d aa3f aeac 20bf 07b0 b2bf 2a01 953f
000001d0: a1f1 d33f 131d 65c0 7c1c 14bf 5c74 2140
000001e0: bd6f d73f 3f66 d7be 2f2f 6ebf 372b 6cbe
000001f0: 8e9e 3b3f 5009 3d3f 8589 943e f1d2 49bf
00000200: f3ce b43f a529 3abe b574 88bf 2aeb 623e
00000210: aff9 9d3e 4ddc 6cbd 7e0f 5b3f 4aa3 c1bf
00000220: 4633 053f fab0 a8be dc3d a23d e901 0abe
00000230: eaba 163e e1c3 2a3f 014b 3fbf fcca 5abf
00000240: 468a c2bf 8ac1 5c3d 0d82 e03d 0b8c 7abe
00000250: 16e2 a53e 6a4d 29bf c02e 143f 4cf0 7c3e
00000260: 4bf6 c03f 7c10 6abe ce31 333f 4fcb 553f
00000270: 35a0 d4bd 10db b5bd 6a5c fabe 10e3 54bf
00000280: 76ce eabf ddcf f13e fa8a 0ebe 27a0 85bf
00000290: 615b 8b3f dbba 003f a3c5 523e b622 c4bf
000002a0: 6c55 c2bf 3ea0 01c0 0ae6 8c3e dc9b 43bf
000002b0: 15c1 56bf c820 8c3f 11c0 c0bc c240 59bf
000002c0: 7708 82bf b963 483f d5e3 88bf d354 9bbf
000002d0: 814d 3cbd e36d c63e 10eb 93bf dcce a0be
000002e0: 04e1 e23e 21ac 16bf 080e 783f b913 92bf
000002f0: 40a5 3d3e 4fce ddbe 08df 4e3f 7679 2b3f
00000300: 3391 7ebf 8b6a d63d b703 f0bf 752b 793e
00000310: c7c2 483f a9c3 033f 2e8d a43f c42a 6e3f
00000320: 9210 3d3f 81a3 923f 8bcc ae3f 29e3 8abf
00000330: 676e 5cbf 0065 8e3d 8833 8abf 22ee 043e
00000340: 2ca4 2cbd 924e c9bf fd7f 2fbf df34 21bd
00000350: 8138 febd 4925 e03f 6e7e bebf 39f7 33bf
00000360: 460f 443f 5702 babe 24d9 0a3f bdb2 803f
00000370: b389 393e 144c efbf 95ff b43d 6a79 97bd
00000380: 671e 8fbe 9a64 5e3f b715 933f 0467 243f
00000390: ba32 92bf 235f 07bf b69a 733e 6ac8 af3f
000003a0: 5d8e 1dbf 397d 373f e486 44bf 681b a93e
000003b0: 6e1b a1be 3a55 80bc cf05 16bf bca1 8bbf
000003c0: 3c53 a9be 3cf6 133e 22aa 09bf cc12 1c3f
000003d0: 9961 d23e 8102 2c3e b3fa da3e 66ec abbe
000003e0: 7fd3 c7bf 1846 053f 7213 80bf f453 02be
000003f0: 73bc 5e3e c519 603f 2a6c 7b3f a7ff 34be

season_emb.weight f4 [3, 32]
-1.6694698 1.2243634 -0.5337149 1.1846067 0.33123806 1.6377122 -0.17531174 -0.98295456
0.41699728 -0.61671495 -0.38656616 0.645876 -0.6734206 -1.3155452 -0.021492938 2.4698498
-0.024747625 -0.7310537 -0.64935404 -0.17668755 -2.0536213 -0.3588315 0.8814223 -0.64937514
-0.35801098 0.40866554 0.46649066 -1.6955491 -1.0851853 -0.76699364 1.1702272 0.36119086
-0.5376171 0.07854801 -0.07310848 -0.020182641 -1.0251598 2.2541974 0.41453028 0.8113126
-2.4368668 -0.49904746 0.4439375 -1.5247632 -2.616656 -0.45265904 -0.9177174 -0.27150017
0.7935182 -1.0060071 -0.71614194 0.17039542 0.39334658 0.63554305 -1.2858108 1.6555234
-0.7736953 -1.3945371 -0.6572499 0.29853362 -1.3425231 0.049033467 -0.08225128 -1.880236
1.7185657 0.914704 -1.3548764 1.530064 0.8589556 0.4503933 -1.15783 0.1989723
0.25444415 -0.76014286 2.4338603 0.56998384 0.44825894 1.966911 -0.111837044 0.68460035
-1.0851288 0.9840495 -2.5496132 -0.70010287 1.1737002 -0.6053823 1.1786875 0.012954631
0.6050591 0.33792615 1.8951399 0.01553736 -1.0273695 -1.2558349 2.0527098 -0.18620422
00000000: 30b1 d5bf f1b7 9c3f 8aa1 08bf 31a1 973f
00000010: 0998 a93e 8ea0 d13f ec84 33be e9a2 7bbf
00000020: ab80 d53e 08e1 1dbf 00ec c5be 2158 253f
00000030: 4b65 2cbf c963 a8bf f511 b0bc 0512 1e40
00000040: 88bb cabc 5626 3bbf 113c 26bf 95ed 34be
00000050: 886e 03c0 c3b8 b7be e4a4 613f 733d 26bf
00000060: 374d b7be 9c3c d13e ddd7 ee3e c107 d9bf
00000070: 5ae7 8abf b259 44bf 01ca 953f 02ee b83e
00000080: 46a1 09bf c7dd a03d e6b9 95bd 1156 a5bc
00000090: 7038 83bf c544 1040 503d d43e 2fb2 4f3f
000000a0: a0f5 1bc0 2683 ffbe c74b e33e 712b c3bf
000000b0: 4b77 27c0 edc2 e7be 87ef 6abf 1202 8bbe
000000c0: 0224 4b3f d7c4 80bf 1455 37bf 237c 2e3e
000000d0: b964 c93e f3b2 223f 7395 a4bf 31e8 d33f
000000e0: e510 46bf 3180 b2bf 8841 28bf 66d9 983e
000000f0: ccd7 abbf 51d7 483d 5c73 a8bd 93ab f0bf
00000100: f6f9 db3f 0b2a 6a3f 976c adbf 23d9 c33f
00000110: 84e4 5b3f f399 e63e c633 94bf 65bf 4b3e
00000120: 8146 823e b998 42bf 5ec4 1b40 76ea 113f
00000130: 3282 e53e bdc3 fb3f d20a e5bd f841 2f3f
00000140: 80e5 8abf abea 7b3f dd2c 23c0 f139 33bf
00000150: cf3b 963f 56fa 1abf 3bdf 963f a93f 543c
00000160: 27e5 1a3f a804 ad3e f293 f23f 6990 7e3c
00000170: d880 83bf 33bf a0bf 995f 0340 52ac 3ebe

prev_data_layer.0.weight f4 [16, 2]
0.44169408 -2.8858995 -0.87739146 -0.87962633 0.17389958 -0.7079575 -1.0527979 0.37730417
0.12137649 -1.6476566 -1.5989131 1.6120164 -0.008836147 -3.298272 -0.8295785 -1.2963483
-0.4477519 0.18768813 0.17570859 -0.4435544 -0.47011924 1.0914067 0.31683335 0.64140946
-0.51147884 1.3381944 0.17796764 1.0148468 -0.9612218 -0.5858579 0.7956792 0.13122247
00000000: ba25 e23e 94b2 38c0 ba9c 60bf 312f 61bf
00000010: bb12 323e b43c 35bf 15c2 86bf 032e c13e
00000020: 3d94 f83d 69e6 d2bf 2fa9 ccbf 8e56 ce3f
00000030: 7dc5 10bc e316 53c0 425f 54bf beee a5bf
00000040: bd3f e5be 5131 403e f4ec 333e 9019 e3be
00000050: 78b3 f0be 37b3 8b3f fb37 a23e 6933 243f
00000060: 47f0 02bf f449 ab3f 263d 363e 80e6 813f
00000070: a212 76bf c9fa 15bf a2b1 4b3f 2f5f 063e

prev_data_layer.0.bias f4 [16]
0.20930417 0.077416725 -0.3144273 -0.11601242 0.28621116 -0.19366422 1.0969751 0.016826492
-0.2060801 -0.062264755 0.23364031 -0.66809213 -0.068262346 0.41212353 -0.2528104 0.19872807
00000000: d553 563e a98c 9e3d 9dfc a0be eb97 edbd
00000010: 458a 923e ea4f 46be ae69 8c3f b6d7 893c
00000020: a906 53be 5409 7fbd 683f 6f3e 1608 2bbf
00000030: 21cd 8bbd db01 d33e 5d70 81be 5f7f 4b3e

prev_data_layer.2.weight f4 [32, 16]
-0.20030627 0.39677083 0.09877583 0.20534809 -1.1728277 -1.2474545 0.39963654 -0.5441355
0.33629194 -0.24455245 -1.3295263 -1.3083187 0.08489707 -1.1950461 -1.2206743 1.031762
-0.09533109 0.78769565 2.899246 -0.8213945 -2.1297536 0.5498436 0.48760366 -2.4365351
-0.23924564 1.1350743 1.2043284 1.001108 1.0527667 0.05624766 -1.6626945 0.41847804
-0.7738158 -0.27825367 -0.49296272 -1.6693078 -1.6859548 -0.53033715 1.1732513 1.3978187
0.4209824 -1.633961 0.57185537 1.4993637 -0.5885374 2.319384 -0.763685 -0.5645839
-0.616144 0.0049099466 0.48366386 0.14668736 1.3736544 0.6056824 -0.7405904 0.7345614
-0.56107146 1.1751144 -1.7044723 -0.3127834 -0.59617233 1.1612155 0.6640455 0.72385883
0.015517804 0.7094595 -1.0262592 1.0794617 -0.60277075 -0.6646188 0.12201738 -0.024895655
1.2021768 -0.9239646 -0.98006505 -0.9747144 0.77202255 -2.5205827 0.06326006 -1.1746008
0.32069358 -0.6316536 0.49799103 -0.4045117 -0.6231883 0.17570871 2.4252787 -0.4163543
-1.4437486 0.95310515 0.15758565 0.05605367 -0.736451 -1.4555852 -0.27861342 -1.6535008
1.638797 0.35913455 1.0507998 -0.24680717 0.8897946 1.4846042 -1.6593901 1.594628
1.5693636 -0.030371115 -1.5423113 0.29275867 -1.2441994 -0.8375583 -0.012058515 -0.43570185
2.3657532 1.0680902 0.28448018 -1.0756269 1.3445661 -0.037743554 0.4793438 0.08135657
-0.5553709 0.34625515 -0.2634404 0.2926995 1.3931313 0.06760634 -0.7901364 -0.7597929
-0.019678785 -1.3711448 0.610366 0.89471436 0.30197138 0.6508795 -0.111940704 0.83425975
1.0578336 0.052977346 0.13012815 1.27651 0.8648812 -0.09341658 -1.0000393 -2.256769
-0.6528931 0.96216434 -0.27481496 0.8984447 -1.5507294 1.4999714 0.15868382 -0.2702293
-0.6393853 -0.3457962 -0.07037566 0.96220857 0.64346606 0.041900877 0.61039597 -0.30263963
-1.3539267 -0.55246127 -2.0906868 1.4613 0.736276 0.42971778 -0.8221987 -0.39147517
2.4996092 0.204776 -0.10268499 1.3399383 -1.369535 -0.9073447 0.16840903 -0.67030907
0.77583116 1.2314483 -0.22750247 -1.3911576 1.0036097 -1.6080457 0.81174695 0.0712589
-2.3164093 1.727011 -0.4263639 -1.5330237 1.6329837 0.8976655 -1.3071189 0.56005514
-0.031583097 -0.76364887 -0.055441312 0.6852299 0.4726894 -0.13591291 0.33614093 -0.66883224
-1.0082653 -0.18361072 -0.78142947 -0.8436374 -0.6295113 0.45184776 -1.5796994 -0.07948204
0.8357344 -0.8256092 0.90814734 -0.76357716 1.257555 -0.46613398 1.03478 0.7249226
1.8309953 1.7487358 -0.86016756 -0.5587629 -1.3692924 -0.80911565 0.14364211 -1.0250474
1.2200162 -1.6685088 0.49095315 0.97229475 1.091206 -0.20739202 0.8999176 -0.48652413
-0.5953463 -1.0122986 0.03943754 -0.5175658 0.1417752 1.2698642 -1.7130367 1.1221722
-0.65342087 0.7249607 -0.7384729 0.36468494 -1.2593989 -1.7702477 -1.6178607 -1.0942571
-1.3566844 0.2547323 0.20881113 -0.43233657 -0.48376563 -0.1041118 1.507689 0.017433144
00000000: 161d 4dbe 8c25 cb3e fb4a ca3d c546 523e
00000010: 381f 96bf 97ac 9fbf 299d cc3e 774c 0bbf
00000020: 752e ac3e f56b 7abe eb2d aabf fd76 a7bf
00000030: 84de ad3d 45f7 98bf 0e3f 9cbf c710 843f
00000040: f23c c3bd 6ca6 493f 3f8d 3940 e946 52bf
00000050: e24d 08c0 8dc2 0c3f 30a7 f93e 31f0 1bc0
00000060: cffc 74be 1d4a 913f 6f27 9a3f 4f24 803f
00000070: 0fc1 863f f263 663d 2cd3 d4bf c142 d63e
00000080: cb18 46bf 4477 8ebe 9c65 fcbe e1ab d5bf
00000090: 5ecd d7bf 2dc4 07bf 192d 963f b9eb b23f
000000a0: 018b d73e a225 d1bf 1d65 123f 26eb bf3f
000000b0: 63aa 16bf ca70 1440 dc80 43bf 9288 10bf
000000c0: 9dbb 1dbf 9ee3 a03b caa2 f73e 3635 163e
000000d0: e8d3 af3f 000e 1b3f 5597 3dbf 370c 3c3f
000000e0: 61a2 0fbf 266a 963f 262c dabf 2525 a0be
000000f0: c09e 18bf b6a2 943f e3fe 293f d04e 393f
00000100: 633e 7e3c 239f 353f 765c 83bf cd2b 8a3f
00000110: 2f4f 1abf 7524 2abf 40e4 f93d f9f1 cbbc
00000120: eee0 993f f288 6cbf 8be5 7abf e286 79bf
00000130: 45a3 453f 3a51 21c0 7e8e 813d 5259 96bf
00000140: f331 a43e 0db4 21bf aef8 fe3e 281c cfbe
00000150: 4589 1fbf fcec 333e c437 1b40 642c d5be
00000160: c1cc b8bf b3fe 733f 225e 213e 8898 653d
00000170: 0e88 3cbf 9e50 babf 6ba6 8ebe eaa5 d3bf
00000180: 1ac4 d13f 7ce0 b73e 9c80 863f 05bb 7cbe
00000190: 94c9 633f 8307 be3f e566 d4bf c51c cc3f
000001a0: e8e0 c83f d8cc f8bc 756a c5bf 77e4 953e
000001b0: ed41 9fbf 396a 56bf 1491 45bc 5014 dfbe
000001c0: 8068 1740 2eb7 883f 63a7 913e 24ae 89bf
000001d0: be1a ac3f fc98 1abd 8d6c f53e 469e a63d
000001e0: ca2c 0ebf 5b48 b13e a9e1 86be b5dc 953e
000001f0: 2052 b23f 3175 8a3d 6146 4abf ca81 42bf
00000200: 6735 a1bc ac81 afbf f240 1c3f 000c 653f
00000210: fe9b 9a3e 0aa0 263f 2b41 e5bd 0c92 553f
00000220: 1767 873f c6fe 583d 5040 053e ae64 a33f
00000230: db68 5d3f 3151 bfbd 4a01 80bf e76e 10c0
00000240: 0124 27bf 6750 763f 8cb4 8cbe 7900 663f
00000250: 4d7e c6bf 10ff bf3f 037e 223e 7f5b 8abe
00000260: c1ae 23bf 330c b1be 1d21 90bd 4d53 763f
00000270: 31ba 243f 41a0 2b3d e942 1c3f 95f3 9abe
00000280: 784d adbf 1a6e 0dbf d0cd 05c0 e10b bb3f
00000290: 957c 3c3f f803 dc3e 9d7b 52bf 6f6f c8be
000002a0: 99f9 1f40 cdb0 513e 824c d2bd 1983 ab3f
000002b0: ec4c afbf be47 68bf 6b73 2c3e 6099 2bbf
000002c0: df9c 463f 19a0 9d3f 68f6 68be 7411 b2bf
000002d0: 4876 803f 71d4 cdbf a6ce 4f3f 30f0 913d
000002e0: 0d40 14c0 b20e dd3f 5e4c dabe 1f3a c4bf
000002f0: 9c05 d13f 68cd 653f ac4f a7bf c65f 0f3f
00000300: 475d 01bd 7e7e 43bf 6e16 63bd 3a6b 2f3f
00000310: 5804 f23e c12c 0bbe aa1a ac3e 9738 2bbf
00000320: d60e 81bf 7304 3cbe c30b 48bf 9ff8 57bf
00000330: a727 21bf 9758 e73e 9733 cabf 7bc7 a2bd
00000340: b1f2 553f 205b 53bf 587c 683f cb79 43bf
00000350: 90f7 a03f 1da9 eebe ac73 843f 8794 393f
00000360: 0e5e ea3f 93d6 df3f f133 5cbf 160b 0fbf
00000370: f944 afbf 3422 4fbf eb16 133e c134 83bf
00000380: 7e29 9c3f b291 d5bf 365e fb3e 4fe8 783f
00000390: a3ac 8b3f 935e 54be 0061 663f b119 f9be
000003a0: 9d68 18bf 0093 81bf 4289 213d 317f 04bf
000003b0: 852d 113e e98a a23f c944 dbbf 57a3 8f3f
000003c0: 9746 27bf 0697 393f 8f0c 3dbf fcb7 ba3e
000003d0: fc33 a1bf 7a97 e2bf 0f16 cfbf 9e10 8cbf
000003e0: d6a7 adbf 466c 823e 96d2 553e 385b ddbe
000003f0: 21b0 f7be 9138 d5bd f4fb c03f f4cf 8e3c

prev_data_layer.2.bias f4 [32]
0.092851445 0.34635806 0.00912187 -0.40164763 -0.060204577 0.4401093 -0.5803911 0.36999905
-0.19071281 -0.47029305 -0.27436867 0.16866219 0.10806408 0.71589404 0.6024357 0.6947131
-0.21642181 0.10857807 -0.09721622 -0.16181913 -0.35403255 0.4119878 0.16257988 -0.03044749
0.09059186 0.2205472 -0.013210024 0.48438403 0.6338419 -0.44146886 -0.0721735 -0.58486587
00000000: e628 be3d d855 b13e e573 153c c2a4 cdbe
00000010: 1399 76bd 0256 e13e 8394 14bf 8470 bd3e
00000020: 384a 43be 40ca f0be 0d7a 8cbe c8b5 2c3e
00000030: b350 dd3d d544 373f 3a39 1a3f b8d8 313f
00000040: ae9d 5dbe 2e5e de3d 4c19 c7bd eab3 25be
00000050: c143 b5be 11f0 d23e 577b 263e 046d f9bc
00000060: 3a88 b93d 20d7 613e db6e 58bc 2f01 f83e
00000070: 7643 223f 3508 e2be b3cf 93bd c5b9 15bf

conv_1.weight f4 [12, 6, 3, 3]
0.45420268 -0.3193552 -0.20376113 0.30144316 -0.18472946 -0.07212803 -0.298222 0.30588406
0.1522823 -0.69014585 0.59351003 0.6060179 -0.49303776 -0.34419215 -0.25682512 0.43398052
-0.35946482 -0.8298725 0.052339945 0.09720681 0.0736691 0.0057126083 -0.037767265 -0.12193309
-0.041497827 -0.20379364 -0.0026622224 -0.319158 -0.11398951 0.004740576 -0.19341198 -0.38622236
-0.3548891 0.20751552 -0.12798546 -0.0010060131 0.13161224 0.12260686 0.008956636 0.04678556
-0.007007564 -0.0041242167 -0.040155258 -0.10515581 0.15952004 -0.13156292 -0.14212903 0.15737873
-0.031585585 0.0723112 -0.1954268 0.0757624 0.35733402 -0.11690109 0.12412345 -0.13898017
0.06875625 0.004660365 0.06215848 -0.5077083 -0.42158318 0.0077732336 -0.3521259 -0.37472433
0.42159647 0.71196723 0.033390813 -0.16217305 0.17088644 -0.4760908 -0.05201987 -0.57386756
-0.18238267 0.122221805 0.0015663867 0.028001921 -0.40888557 0.17531535 -0.038253352 -0.26189017
-0.22444767 -0.38563335 -0.05028028 -0.22205377 -0.17962262 0.19548315 0.24813345 0.032079637
-0.3712464 0.024649283 0.32867068 0.046553645 0.11234713 -0.025529118 -0.2727096 0.02642626
0.07181099 0.004824442 -0.029411156 0.17865674 0.054261744 0.09628715 -0.09432536 0.10445924
-0.15960549 0.057796583 0.14363126 -0.096385255 -0.14463393 0.39839658 0.16193497 0.35136393
-0.39541644 -0.22405906 0.1649388 -0.49628022 0.24700831 -0.020067448 -0.18699114 -0.09233467
0.046916343 0.61336744 0.39395338 0.35633352 0.17839241 0.13018797 0.17414586 -0.23591618
0.073605575 0.03932026 0.04723542 -0.18965039 -0.16456398 -0.15054645 -0.09642738 -0.2558763
-0.030405931 0.09900765 -0.056695327 0.05855083 0.2875992 0.401306 0.055875067 0.25798005
0.10526972 0.05161133 0.032538917 0.09762081 -0.16586551 -0.08904055 -0.20678423 -0.01660234
-0.051973555 -0.18433875 -0.07067493 -0.0060610203 -0.009805085 -0.03197907 0.09222208 0.07570784
-0.11611331 -0.1462563 -0.16270731 -0.048935354 0.14206968 0.1905962 -0.44678465 0.35937268
0.1741922 -0.06661472 -0.31546053 0.21959278 0.4649842 -0.07416647 -0.7542877 -0.0030096686
0.195812 0.19634116 -0.648003 -0.18118435 0.2119162 0.00093820994 -0.0021950898 -0.21276572
0.2958745 -0.24953446 0.12765239 -0.15386233 -0.118190885 -0.23146072 -0.44637957 0.26289842
-0.36696753 -0.0437666 -0.54233146 0.033381306 -0.45451215 -0.03712786 0.042796686 0.15175329
0.031266324 -0.0007701434 0.07575233 -0.05525624 0.058744892 -0.10308021 0.087852955 0.010331265
-0.13541026 0.26699844 0.040667593 -0.07569142 -0.015795307 0.099957645 0.095142886 0.05104611
-0.5552521 -0.14642033 0.23172641 0.2797233 0.25359118 -0.12252862 0.49052346 0.262778
-0.19554214 0.7455976 0.015300102 -0.24291769 -0.48378757 0.14849068 0.73882496 -0.6128885
0.22928217 0.5950936 -0.030153079 0.05845548 0.084814996 0.11488808 0.10293872 0.22494097
-0.07222845 0.10450175 0.14372504 0.46527982 0.47701928 0.4620914 -0.057192016 0.087669685
-0.067450546 -0.07823446 -0.121772654 -0.3405305 0.023748575 0.031651095 0.08228671 -0.06674519
00000000: 418d e83e 8682 a3be c2a6 50be c256 9a3e
00000010: b829 3dbe dcb7 93bd 8eb0 98be d69c 9c3e
00000020: e4ef 1b3e 66ad 30bf 46f0 173f fd23 1b3f
00000030: 726f fcbe f439 b0be 957e 83be b232 de3e
00000040: c60b b8be 8672 54bf 6962 563d 5d14 c73d
00000050: d3df 963d d530 bb3b d9b1 1abd 0eb8 f9bd
00000060: a0f9 29bd 48af 50be ae78 2ebb ad68 a3be
00000070: 5573 e9bd d556 9b3b ca0d 46be f0be c5be
00000080: 06b4 b5be f37e 543e 9f0e 03be 33dc 83ba
00000090: 5cc5 063e 4e19 fb3d dbbe 123c 37a2 3f3d
000000a0: b59f e5bb 7024 87bb d779 24bd ee5b d7bd
000000b0: 3959 233e 6eb8 06be 468a 11be e427 213e
000000c0: e35f 01bd e517 943d f71d 48be 5129 9b3d
000000d0: 7cf4 b63e d769 efbd 6f34 fe3d d150 0ebe
000000e0: 14d0 8c3d fab5 983b e499 7e3d 2cf9 01bf
000000f0: c0d9 d7be 9cb6 fe3b d949 b4be dedb bfbe
00000100: 7edb d73e 7c43 363f cec4 083d b110 26be
00000110: dbfc 2e3e 2cc2 f3be ca12 55bd fce8 12bf
00000120: 86c2 3abe 6d4f fa3d 374f cd3a 4964 e53c
00000130: 7359 d1be de85 333e 8caf 1cbd 7816 86be
00000140: 9cd5 65be bc71 c5be b2f2 4dbd 1062 63be
00000150: feee 37be bc2c 483e b216 7e3e f065 033d
00000160: 0214 bebe 4bed c93c 8647 a83e 09af 3e3d
00000170: 4116 e63d 7122 d1bc 98a0 8bbe e27b d83c
00000180: a411 933d 5a16 9e3b aaef f0bc cbf1 363e
00000190: 9041 5e3d 3332 c53d a82d c1bd baee d53d
000001a0: 9f6f 23be 1cbc 6c3d 1314 133e a265 c5bd
000001b0: eb1a 14be a3fa cb3e 48d2 253e f9e5 b33e
000001c0: 0674 cabe bd6f 65be b7e5 283e 7118 febe
000001d0: bfef 7c3e 7d64 a4bc 9b7a 3fbe f619 bdbd
000001e0: 5a2b 403d a605 1d3f 42b4 c93e 5971 b63e
000001f0: 80ac 363e ff4f 053e 4b53 323e 0394 71be
00000200: 85be 963d 480e 213d ee79 413d b633 42be
00000210: 7683 28be d928 1abe b87b c5bd 3802 83be
00000220: dc15 f9bc 86c4 ca3d 5c39 68bd ffd2 6f3d
00000230: 3440 933e fb77 cd3e 41dd 643d f615 843e
00000240: a797 d73d 6766 533d 8747 053d 6bed c73d
00000250: a6d8 29be e45a b6bd 3fbf 53be a101 88bc
00000260: 39e2 54bd 4cc3 3cbe 05be 90bd 869b c6bb
00000270: 82a5 20bc 7cfc 02bd eede bc3d b60c 9b3d
00000280: d1cc edbd 36c4 15be bf9c 26be 7070 48bd
00000290: b77a 113e a62b 433e f5c0 e4be b2ff b73e
000002a0: 715f 323e 4c6d 88bd 0b84 a1be eedc 603e
000002b0: 6912 ee3e 97e4 97bd 0019 41bf dc3d 45bb
000002c0: f182 483e a80d 493e 86e3 25bf 6488 39be
000002d0: 8f00 593e 34f2 753a 7fdb 0fbb 42df 59be
000002e0: dd7c 973e f685 7fbe 4fb7 023e 168e 1dbe
000002f0: 100e f2bd 0a04 6dbe dd8b e4be 9f9a 863e
00000300: 2be3 bbbe 9b44 33bd 3cd6 0abf d6ba 083d
00000310: d1b5 e8be 6213 18bd 944b 2f3d 3765 1b3e
00000320: 1e11 003d 73e3 49ba 0a24 9b3d 5e54 62bd
00000330: 7c9e 703d b81b d3bd 40ec b33d 7744 293c
00000340: fda8 0abe 05b4 883e 1093 263d 1a04 9bbd
00000350: 2965 81bc 98b6 cc3d 46da c23d ba15 513d
00000360: 0025 0ebf 36ef 15be b049 6d3e e437 8f3e
00000370: b4d6 813e 49f0 fabd e425 fb3e d78a 863e
00000380: 333c 48be 7cdf 3e3f 47ad 7a3c 6abf 78be
00000390: 01b3 f7be f10d 183e a223 3d3f 43e6 1cbf
000003a0: f2c8 6a3e 0e58 183f 9703 f7bc 036f 6f3d
000003b0: 7cb3 ad3d 714a eb3d 89d1 d23d ed56 663e
000003c0: 82ec 93bd 0305 d63d a82c 133e 2839 ee3e
000003d0: df3b f43e 3e97 ec3e 2d42 6abd 2a8c b33d
000003e0: 8323 8abd 6339 a0bd f163 f9bd 045a aebe
000003f0: 5f8c c23c 94a4 013d ef85 a83d b4b1 88bd

conv_1.bias f4 [12]
0.08829126 0.099328205 0.1954533 0.22044538 -0.09645561 -0.26501727 0.26218927 -0.20224732
0.11154343 -0.029794792 0.27839628 0.44641694
00000000: 0cd2 b43d 966c cb3d e924 483e 6fbc 613e
00000010: 858a c5bd 58b0 87be ac3d 863e ec19 4fbe
00000020: e270 e43d 3514 f4bc f589 8e3e c390 e43e

res_layer_1.0.weight f4 [12]
1.5015452 0.87151974 1.0000536 0.92658585 1.13237 1.1121333 1.1920938 1.3501651
1.3918151 1.1756175 0.9214083 1.4016802
00000000: a232 c03f eb1b 5f3f c201 803f bb34 6d3f
00000010: 80f1 903f 625a 8e3f 8896 983f 36d2 ac3f
00000020: ff26 b23f a27a 963f 6ae1 6b3f 426a b33f

res_layer_1.0.bias f4 [12]
0.019121882 -0.06239746 -0.009126527 -0.44975418 -0.060618993 -0.44069394 -0.14217402 -0.01993087
0.059314102 -0.50498366 0.06638958 -0.3563365
00000000: 7ea5 9c3c 7b94 7fbd 6e87 15bc 2e46 e6be
00000010: 9f4b 78bd a3a2 e1be 1196 11be 1046 a3bc
00000020: 58f3 723d 9c46 01bf 43f7 873d bd71 b6be

res_layer_1.0.running_mean f4 [12]
0.033460695 -3.5980926 -2.421072 -0.38530684 5.738575 1.8067203 -1.7210802 -0.49895093
4.5125604 -2.393721 5.5605016 2.9503467
00000000: 150e 093d 2647 66c0 d8f2 1ac0 f046 c5be
00000010: 68a2 b740 9c42 e73f 5b4c dcbf 7f76 ffbe
00000020: e566 9040 ba32 19c0 a1ef b140 7bd2 3c40

res_layer_1.0.running_var f4 [12]
54820.82 95514.7 50496.625 51349.82 49701.24 84519.125 48854.195 32668.97
89221.336 50926.69 74667.41 71455.25
00000000: d224 5647 5a8d ba47 a040 4547 d295 4847
00000010: 3d25 4247 9013 a547 32d6 3e47 f139 ff46
00000020: ab42 ae47 b1ee 4647 b4d5 9147 a08f 8b47

res_layer_1.2.weight f4 [12, 12, 3, 3]
-0.182111 -0.08349583 0.15744029 -0.35642922 -0.6016531 -0.43948606 -0.04959882 -0.22610427
-0.1708354 -0.05657746 -0.18580925 0.10787351 -0.13854325 -0.11867521 -0.018634237 0.00435173
0.057943627 0.0321764 -0.12586553 -0.09764738 -0.08133189 -0.24593914 -0.30131063 -0.37381086
-0.09963207 -0.048067696 -0.103015244 -0.13216315 0.047666207 0.10679626 -0.17466073 -0.09122002
-0.15388606 0.06422505 -0.10832487 -0.06785208 -0.17054628 -0.15007402 -0.1275986 -0.026845539
0.009230083 -0.14606512 -0.21005337 -0.2611735 0.05914123 -0.3708309 -0.24186976 -0.24417593
-0.1885887 -0.057163246 -0.12766428 -0.1224275 0.00015958954 -0.110588595 -0.028474027 0.07644838
-0.05145624 0.0026355507 -0.22973181 -0.037574857 -0.46043706 -0.25882074 -0.1667993 0.031032769
-0.23497078 -0.34637055 -0.34909245 -0.34146816 -0.28150335 -0.1148258 -0.16216084 -0.07633826
-0.42562976 -0.4463005 -0.37300247 -0.10239919 0.005849776 -0.11399158 0.0028653129 -0.084664784
-0.18761855 -0.05754824 -0.08447507 -0.13115974 -0.21559371 -0.24711119 -0.12141868 -0.1949212
-0.032380868 -0.19157931 0.033986084 -0.0046592173 -0.0044198562 -0.12993374 -0.119416624 -0.28896707
-0.14508748 -0.11396216 -0.17204015 -0.26846167 -0.28337434 -0.2846402 -0.54145527 -0.5595113
-0.15512854 0.0012089338 0.008883986 -0.09429639 -0.060908757 0.15106979 -0.07867337 0.07886526
0.09831122 0.119466335 0.37371793 0.32526645 0.107326984 0.15892561 0.12518914 0.17554441
0.21099643 0.36351705 0.109725535 0.05442884 0.02940872 0.08106808 0.20204513 0.4207977
0.16990484 0.10179921 0.11243321 0.08702094 -0.0441766 -0.06458147 0.10980234 -0.17247258
-0.22077593 -0.18039234 0.08953488 0.17142063 0.17886902 0.083172575 0.14680831 0.31239718
0.04343766 -0.058227602 0.04863307 0.09334587 0.09882664 0.04036623 0.27574536 0.28773326
0.20363006 0.2027804 0.18489659 0.35813427 0.06221502 0.10102254 -0.079074256 0.24312635
0.24695216 -0.019604126 -0.034698468 -0.064724244 -0.006604049 0.038535994 0.2042429 0.27219203
0.3241995 0.25352642 0.2893286 0.40417463 0.38280743 0.20982566 0.1583568 0.021119397
-0.007513844 0.2477251 0.053600457 0.04748885 0.2695405 0.2823884 0.30862844 0.21057916
0.17188318 -0.05375413 0.17450605 0.22789507 -0.022331102 0.048681326 0.1703912 0.25567132
-0.04699399 -0.01878155 0.1513266 0.38058448 0.10934801 0.19837388 -0.087026305 -0.2782754
-0.076027036 -0.02924316 0.14790905 -0.12725843 0.15571938 0.14649862 -0.0005433736 -0.03358828
0.071789965 0.16689298 -0.007953452 0.04130764 0.2788879 0.14572147 0.13389096 0.25314245
-0.10784329 0.0028937396 -0.1888169 -0.20589633 -0.6385271 -0.22706077 -0.13784981 -0.19831139
0.18273409 0.029714437 -0.10255079 0.06102389 0.14259869 0.19605094 -0.041216835 0.1907237
0.075968355 0.019927498 -0.07644895 -0.22425221 -0.2837076 -0.03136588 -0.17875785 -0.37663433
-0.22762737 -0.2366857 0.06910199 -0.07695272 0.28535262 -0.28898546 0.100944504 -0.28383672
0.112533815 0.041899223 0.087524496 0.07656515 -0.13536486 -0.47318515 0.062700056 -0.09859589
00000000: 4e7b 3abe ddff aabd 0738 213e e47d b6be
00000010: f005 1abf 5104 e1be 2228 4bbd e187 67be
00000020: 7aef 2ebe c4bd 67bd c844 3ebe c9ec dc3d
00000030: 48de 0dbe fd0b f3bd d4a6 98bc f598 8e3b
00000040: 4c56 6d3d 67cb 033d e5e2 00be 59fb c7bd
00000050: 5591 a6bd 78d7 7bbe 6345 9abe 2364 bfbe
00000060: e60b ccbd a2e2 44bd a8f9 d2bd c755 07be
00000070: a43d 433d ffb7 da3d 43da 32be 90d1 babd
00000080: 4f94 1dbe 6c88 833d 6ed9 ddbd 08f6 8abd
00000090: afa3 2ebe 01ad 19be 35a9 02be 2deb dbbc
000000a0: c639 173c 1892 15be 3b18 57be 88b8 85be
000000b0: 133e 723d 8cdd bdbe b5ac 77be 4109 7abe
000000c0: 651d 41be 0224 6abd 6dba 02be 45bb fabd
000000d0: 7e57 2739 467c e2bd 5d42 e9bc f890 9c3d
000000e0: c7c3 52bd 34b9 2c3b d13e 6bbe 18e8 19bd
000000f0: 68be ebbe 2784 84be 70cd 2abe 6f38 fe3c
00000100: 2e9c 70be 7b57 b1be 3fbc b2be ead4 aebe
00000110: 3521 90be ca29 ebbd 7e0d 26be 3c57 9cbd
00000120: 25ec d9be 8081 e4be 2efa bebe abb6 d1bd
00000130: 7aaf bf3b 6b74 e9bd f9c7 3b3b bb64 adbd
00000140: 141f 40be b4b7 6bbd 4401 adbd bd4e 06be
00000150: 99c4 5cbe b70a 7dbe 5baa f8bd 6c99 47be
00000160: cda1 04bd 5e2d 44be fe34 0b3d 59ac 98bb
00000170: 71d4 90bb 5a0d 05be b490 f4bd 7ef3 93be
00000180: d091 14be fe64 e9bd 4b2b 30be cf73 89be
00000190: 7116 91be 5cbc 91be d09c 0abf 223c 0fbf
000001a0: 04da 1ebe 1675 9e3a 238e 113c 771e c1bd
000001b0: 767b 79bd 0ab2 1a3e 811f a1bd 1c84 a13d
000001c0: 6557 c93d c4aa f43d f557 bf3e 5389 a63e
000001d0: 40ce db3d 65bd 223e 9531 003e eac1 333e
000001e0: 730f 583e e81e ba3e c8b7 e03d c6f0 5e3d
000001f0: 8eea f03c 0607 a63d ebe4 4e3e cc72 d73e
00000200: 89fb 2d3e 1b7c d03d 6243 e63d 0938 b23d
00000210: 86f2 34bd 4a43 84bd 0de0 e03d a79c 30be
00000220: 1613 62be c5b8 38be 105e b73d e488 2f3e
00000230: 7129 373e 6256 aa3d eb54 163e 86f2 9f3e
00000240: b0eb 313d 1180 6ebd 7833 473d 1f2c bf3d
00000250: 9f65 ca3d 0f57 253d 7f2e 8d3e c651 933e
00000260: 6684 503e aaa5 4f3e 8855 3d3e 605d b73e
00000270: 2dd5 7e3d e8e4 ce3d aff1 a1bd 1df6 783e
00000280: 07e1 7c3e d598 a0bc fb1f 0ebd 258e 84bd
00000290: c766 d8bb ebd7 1d3d 0d25 513e c15c 8b3e
000002a0: 7afd a53e 37ce 813e e122 943e faef ce3e
000002b0: 56ff c33e 8adc 563e 4928 223e 9602 ad3c
000002c0: b136 f6bb a6ab 7d3e 278c 5b3d ab83 423d
000002d0: 3601 8a3e 3695 903e 8c04 9e3e 10a2 573e
000002e0: 2502 303e 4a2d 5cbd b7b1 323e 535d 693e
000002f0: b7ef b6bc 1266 473d 087b 2e3e 5ae7 823e
00000300: c57c 40bd c4db 99bc 5cf5 1a3e f8db c23e
00000310: d9f1 df3d 8622 4b3e d93a b2bd 1d7a 8ebe
00000320: 10b4 9bbd 5a8f efbc 7875 173e 0950 02be
00000330: e774 1f3e bc03 163e 2f71 0eba dd93 09bd
00000340: 9e06 933d fee5 2a3e 324f 02bc 3332 293d
00000350: 65ca 8e3e 0238 153e b61a 093e e39b 813e
00000360: f1dc dcbd e5a4 3d3b 3859 41be 7dd6 52be
00000370: 8376 23bf 9e82 68be 8028 0dbe 2412 4bbe
00000380: a51e 3b3e b16b f33c 2606 d2bd 30f4 793d
00000390: 6405 123e 94c1 483e fcd2 28bd 134d 433e
000003a0: 4c95 9b3d fe3e a33c 4491 9cbd 5fa2 65be
000003b0: 1f42 91be 8279 00bd 4c0c 37be 37d6 c0be
000003c0: 2617 69be bc5d 72be 5885 8d3d 6399 9dbd
000003d0: bd19 923e e7f5 93be febb ce3d 0c53 91be
000003e0: 2178 e63d 859e 2b3d 0b40 b33d 30ce 9c3d
000003f0: 169d 0abe 5345 f2be e368 803d a4ec c9bd

res_layer_1.2.bias f4 [12]
-0.38714322 -0.35876766 0.22828786 0.08830995 -0.22904626 -0.07824259 0.00887493 0.37589303
0.06777833 -0.008169657 0.21120901 0.37222698
00000000: a337 c6be 65b0 b7be 4bc4 693e d9db b43d
00000010: 1a8b 6abe a73d a0bd 2868 113c 0d75 c03e
00000020: 5dcf 8a3d 06da 05bc 2d47 583e 8994 be3e

res_layer_1.3.weight f4 [12]
1.3315473 1.1747061 1.0963002 0.88275325 0.83910656 1.2381808 1.1495441 1.7516376
1.0182443 1.141105 0.88605183 1.302635
00000000: 2470 aa3f c55c 963f 9153 8c3f 1efc 613f
00000010: b0cf 563f b57c 9e3f 4324 933f a935 e03f
00000020: d455 823f bb0f 923f 4bd4 623f bebc a63f

res_layer_1.3.bias f4 [12]
0.17942363 -0.22052628 -0.0017160343 -0.16772927 -0.41452423 -0.064359576 0.08258783 -0.21582912
0.11994324 0.07742281 -0.3859251 0.041590642
00000000: d4ba 373e a4d1 61be 8eec e0ba 39c1 2bbe
00000010: 853c d4be f4ce 83bd cf23 a93d 4f02 5dbe
00000020: cda4 f53d da8f 9e3d fa97 c5be f35a 2a3d

res_layer_1.3.running_mean f4 [12]
1.324638 -1.8710641 1.2503058 0.47637936 0.0865173 -1.5713359 1.5496212 -1.9760207
0.2640006 1.7170936 0.06141092 2.2059586
00000000: bd8d a93f 077f efbf 050a a03f ffe7 f33e
00000010: fb2f b13d 8921 c9bf fd59 c63f 3fee fcbf
00000020: 162b 873e b9c9 db3f 048a 7b3d 6d2e 0d40

res_layer_1.3.running_var f4 [12]
23.08165 10.076757 16.770744 10.268984 11.243758 10.376512 14.640764 18.976261
14.480441 18.001371 11.604082 21.97411
00000000: 38a7 b841 663a 2141 7c2a 8641 c24d 2441
00000010: 6fe6 3341 3106 2641 9240 6a41 62cf 9741
00000020: e3af 6741 cf02 9041 52aa 3941 faca af41

res_layer_1.5.weight f4 [12, 12, 3, 3]
0.04525008 0.09257205 0.3067465 0.010242043 0.05666573 -0.107914984 0.3338406 0.3088087
-0.017278338 -0.18759151 -0.21172725 -0.24611488 -0.28705087 -0.29783097 -0.3456335 -0.05229613
-0.03672997 0.03114359 -0.07614621 0.027075911 -0.2532695 0.19607386 -0.09575163 0.0008592266
0.0032963683 0.07078391 0.2163774 -0.029462028 -0.006737322 0.017208887 -0.205074 -0.043413825
-0.17953552 0.06776616 0.20919701 0.2188013 0.19918893 0.06694364 0.056877546 0.11013533
-0.018436398 -0.26806837 0.23244984 -0.070144385 -0.25900152 -0.31385267 -0.3042883 0.023425912
-0.298903 -0.45495984 -0.037681077 -0.045405105 -0.22621055 -0.19790743 0.03308057 -0.2055126
-0.2577936 0.36319444 0.14144629 0.2592416 -0.062796816 0.039737053 0.3635268 -0.30539194
-0.31875587 -0.13373205 -0.70242965 -0.50173426 -0.2850943 -0.31481802 -0.32080945 -0.65743166
-0.09632295 0.056777664 0.013030377 -0.12391072 -0.15404429 -0.06465519 0.20235707 -0.107815996
-0.25438783 0.009499938 0.18148488 0.2536201 0.07598336 0.10868701 -0.1891084 0.1600492
0.1914099 0.03099929 -0.07348086 0.05695819 -0.11869129 -0.052966338 0.026809981 0.062960096
0.063529864 -0.23040664 -0.070777476 0.06900929 0.07397832 0.34083495 0.014201413 -0.004210128
0.049701963 0.4189531 0.3462704 0.09744824 0.03279597 -0.20946567 -0.051589232 -0.15977818
0.18100974 0.47147623 0.08861482 0.40726805 0.555314 -0.11078574 -0.1465366 -0.07380858
-0.7015111 -0.7173665 -0.6420778 -0.40757287 -0.33600438 -0.1128345 0.15494718 -0.19432569
-0.17442818 -0.18517973 0.08842818 -0.22770517 -0.2510061 0.4336118 0.23329288 0.13119605
-0.05324658 0.07837188 -0.20855266 -0.17981847 0.110602394 0.09460137 0.30060077 0.08836986
-0.119991645 -0.15455398 0.14145228 0.2789513 -0.36298513 -0.1432078 -0.12841956 -0.1251614
-0.18452245 -0.31609797 0.017445479 -0.30989853 -0.5120944 -0.34126902 -0.25282702 -0.25228697
-0.5076703 0.011028423 -0.021674039 0.02332464 0.3723289 0.59460557 0.32807067 0.29073757
-0.043278575 0.22189246 0.10443525 -0.7793695 -0.58520263 -0.7278036 -0.66795844 -0.9252532
-0.5790491 -0.53057927 -0.67740905 -0.7389476 -0.09873645 -0.19632909 -0.3742937 -0.06365177
0.19824404 0.24792431 -0.05124462 -0.013179769 0.26055753 0.19128501 -0.19093244 -0.22611739
0.007606298 0.031045614 0.12969337 0.12144075 0.36888146 0.3810304 -0.5658136 0.17284389
-0.102598116 -0.2236116 -0.5860658 -0.061226647 0.066421725 -0.34627998 -0.14459784 0.05555837
0.07364233 0.16898875 -0.2665722 -0.2744427 0.19725722 0.3647991 0.41337213 0.54897344
-0.11497273 -0.117357366 -0.1533973 0.123775996 0.094125554 0.36336327 0.09068844 0.25654915
0.14336571 -0.015874587 -0.17527144 0.01795396 -0.14626308 -0.057704955 -0.09278412 -0.30009636
-0.2584159 -0.24376233 -0.11509087 0.0013276695 -0.074432775 0.2195359 -0.13410547 -0.08925166
0.28748116 -0.1272526 0.1906294 -0.22533229 -0.18516035 0.017184615 0.16019893 0.066740796
0.11260997 0.18636107 -0.034568153 -0.15773101 -0.04723468 -0.25485143 0.05430519 -0.30404392
00000000: 2658 393d 6a96 bd3d e10d 9d3e 3ece 273c
00000010: 531a 683d 8802 ddbd 28ed aa3e 2d1c 9e3e
00000020: 4d8b 8dbc fd17 40be 07cf 58be 8a05 7cbe
00000030: 55f8 92be 4d7d 98be e0f6 b0be 7834 56bd
00000040: 2a72 16bd d820 ff3c 8bf2 9bbd 4dce dd3c
00000050: 8aac 81be 96c7 483e 6e19 c4bd b93d 613a
00000060: e207 583b 28f7 903d 0a92 5d3e 5a5a f1bc
00000070: c1c4 dcbb a7f9 8c3c ebfe 51be b2d2 31bd
00000080: 29d8 37be fcc8 8a3d be37 563e 730d 603e
00000090: 2ff8 4b3e bf19 893d 6ef8 683d a28e e13d
000000a0: ee07 97bc 4240 89be 5507 6e3e dca7 8fbd
000000b0: d99b 84be 4cb1 a0be adcb 9bbe b3e7 bf3c
000000c0: d009 99be 7ff0 e8be 7957 1abd b4fa 39bd
000000d0: bda3 67be 3fa8 4abe 7e7f 073d e571 52be
000000e0: 86fd 83be 9ff4 b93e 4cd7 103e 51bb 843e
000000f0: 9e9b 80bd 52c3 223d 2f20 ba3e 555c 9cbe
00000100: f833 a3be 0ef1 08be 6ed2 33bf a871 00bf
00000110: e1f7 91be d42f a1be 2341 a4be 714d 28bf
00000120: f844 c5bd b28f 683d 5d7d 553c e7c4 fdbd
00000130: c9bd 1dbe f169 84bd b136 4f3e a2ce dcbd
00000140: 1f3f 82be a1a5 1b3c 2cd7 393e 7eda 813e
00000150: 2a9d 9b3d 4c97 de3d a2a5 41be f0e3 233e
00000160: f500 443e 39f2 fd3c 227d 96bd fe4c 693d
00000170: 6b14 f3bd 3bf3 58bd 9ba0 db3c 39f1 803d
00000180: f21b 823d b8ef 6bbe c8f3 90bd be54 8d3d
00000190: f281 973d eb81 ae3e 0bad 683c 1df5 89bb
000001a0: 4994 4b3d 0581 d63e 5b4a b13e f192 c73d
000001b0: 1155 063d 2b7e 56be 3b4f 53bd e49c 23be
000001c0: 9e5a 393e 5565 f13e b07b b53d 7085 d03e
000001d0: 0f29 0e3f a2e3 e2bd b10d 16be f428 97bd
000001e0: 3b96 33bf 55a5 37bf 365f 24bf 64ad d0be
000001f0: c408 acbe c615 e7bd 79aa 1e3e 50fd 46be
00000200: 4d9d 32be c19f 3dbe d519 b53d 8b2b 69be
00000210: df83 80be 5e02 de3e 54e4 6e3e 4258 063e
00000220: 1619 5abd 7081 a03d d48e 55be 5522 38be
00000230: 8283 e23d 5dbe c13d 58e8 993e 42fb b43d
00000240: 2ebe f5bd 6643 1ebe ded8 103e b4d2 8e3e
00000250: 30d9 b9be 11a5 12be 6b80 03be 4f2a 00be
00000260: 74f3 3cbe 98d7 a1be d2e9 8e3c 05ab 9ebe
00000270: 9e18 03bf d0ba aebe 8b72 81be c22b 81be
00000280: aef6 01bf 8fb0 343c c18d b1bc 5113 bf3c
00000290: e5a1 be3e 1238 183f e1f8 a73e 8edb 943e
000002a0: e044 31bd c737 633e 26e2 d53d c284 47bf
000002b0: d7cf 15bf 5651 3abf 53ff 2abf 65dd 6cbf
000002c0: 903c 14bf 0bd4 07bf ae6a 2dbf ab2b 3dbf
000002d0: 5636 cabd 7e0a 49be 6da3 bfbe dc5b 82bd
000002e0: 7c00 4b3e dfdf 7d3e e1e5 51bd f5ef 57bc
000002f0: cc67 853e 38e0 433e cb83 43be 518b 67be
00000300: 413e f93b 5f53 fe3c 57ce 043e eeb5 f83d
00000310: 08de bc3e 6b16 c33e 29d9 10bf fdfd 303e
00000320: f61e d2bd 70fa 64be 6908 16bf cbc8 7abd
00000330: 1d08 883d 9c4b b1be 7511 14be 2c91 633d
00000340: cad1 963d 630b 2d3e 277c 88be c183 8cbe
00000350: ccfd 493e f3c6 ba3e 83a5 d33e 8689 0c3f
00000360: d376 ebbd 0f59 f0bd 2f14 1dbe 457e fd3d
00000370: e6c4 c03d c00a ba3e dcba b93d 695a 833e
00000380: 76ce 123e 6c0b 82bc 5b7a 33be 2f14 933c
00000390: fdc5 15be 085c 6cbd 9a05 bebd 3ba6 99be
000003a0: 174f 84be d59c 79be c3b4 ebbd 3205 ae3a
000003b0: 3670 98bd 05ce 603e f252 09be 93c9 b6bd
000003c0: bb30 933e 814e 02be 5a34 433e 82bd 66be
000003d0: ad9a 3dbe c0c6 8c3c 300b 243e 66af 883d
000003e0: 0ea0 e63d 70d5 3e3e 5697 0dbd 3d84 21be
000003f0: 2779 41bd e37b 82be 1e6f 5e3d a5ab 9bbe

res_layer_1.5.bias f4 [12]
-0.0008442994 0.10834272 0.2519679 0.113071576 -0.15564711 -0.17776819 0.16471095 -0.12790664
-0.009598697 -0.0043895915 0.10812557 0.36235806
00000000: f953 5dba cae2 dd3d f001 813e 1292 e73d
00000010: f561 1fbe dd08 36be fda9 283e f5f9 02be
00000020: da43 1dbc 90d6 8fbb f070 dd3d ff86 b93e

hidden_layer_1.0.weight f4 [6, 12, 3, 3]
0.070385285 -0.010243833 0.011313793 -0.3095272 0.101117454 -0.15402174 -0.04000111 0.10129461
-0.099381045 0.11905443 0.018899713 0.010382736 -0.10886696 0.24771518 0.012324923 -0.09488409
-0.032273367 0.00069243484 0.071561866 0.07797758 0.108446784 -0.0153008355 0.1291259 0.015220506
-0.014042975 -0.09997428 -0.08754311 0.12068735 -0.06710178 -0.0069790636 -0.05586659 0.092701115
-0.10970829 0.19685319 -0.036162604 -0.13390934 -0.15975024 0.03944061 0.025231645 -0.08601209
-0.058632612 0.07600264 0.06359875 -0.024610048 0.2860624 0.15889016 -0.24738976 0.057376966
-0.11432623 0.2574154 0.12196477 0.12204695 0.19327854 -0.05222177 -0.036568176 -0.05728505
0.07563445 0.10888644 -0.0071452986 -0.114651814 0.07321229 -0.1781892 -0.03179126 0.08251354
-0.020154094 0.09270201 0.096956156 -0.12131751 0.052709445 -0.19689697 0.09715228 -0.002587465
0.03825013 -0.16414368 -0.10894969 -0.08929259 0.2954547 -0.038778376 0.01507628 0.21409081
0.26474643 -0.0094917035 0.03927212 0.1514842 0.01966494 -0.14056693 0.06546154 -0.0084259985
-0.064303294 -0.039010774 0.0037095624 -0.16007318 -0.031934854 -0.28173035 0.118820205 -0.2525363
-0.06902273 0.18652007 0.008870582 -0.08544913 0.106444515 -0.038610827 0.0004177276 -0.0051280153
-0.36779872 0.054135513 -0.07896306 0.27517608 -0.0013224069 0.14394926 0.019193424 -0.06355892
-0.01791151 -0.14208546 0.21104427 0.19877854 -0.0526882 -0.1624799 -0.11226306 0.00701697
0.029889304 0.15774135 0.045470312 0.14795601 0.124672815 0.31433553 -0.1734118 0.031673953
-0.08408171 -0.13916308 -0.055105984 0.076941304 0.052863363 0.022625338 0.02680196 -0.1083634
0.13792902 -0.09624677 0.16284496 -0.062634595 0.059128925 0.12451926 0.23114097 -0.08962743
-0.20711376 -0.11045026 -0.103612766 0.08449532 -0.11579549 0.035641953 -0.1084665 -0.12629713
0.12843104 -0.28107682 0.06033211 -0.23813517 0.16713618 0.029169982 0.15237387 0.04482143
0.37430352 0.025625402 0.041756637 0.037840918 0.109701 -0.06896776 0.03144159 0.12265829
-0.12752773 -0.1731012 -0.1658057 0.025854046 -0.02264296 -0.0062263813 -0.016746605 -0.10755297
0.09486125 0.0062604556 0.08843719 -0.106478244 -0.20652281 -0.1222991 -0.11462611 -0.07823251
-0.051120043 -0.025394361 -0.0653758 0.28328133 0.086719796 -0.057384126 0.13478018 0.29143593
0.051671956 -0.029287295 -0.04605817 0.15186708 0.056713697 0.021466937 0.022760445 0.13103841
-0.13217881 0.021639723 -0.11336836 -0.14605255 0.021215871 0.20692599 0.019861264 0.14181763
-0.16980772 -0.06552349 -0.06995177 0.051990483 -0.08773897 0.06214003 0.035074506 0.059367936
0.12818009 -0.016916186 0.004293969 -0.058895607 0.2946114 0.015876094 -0.08993364 0.17893733
0.023811629 -0.13566409 -0.068155825 0.09904442 0.19412358 0.14912027 0.094448365 -0.19838005
0.32111096 -0.11505813 -0.13879533 0.038073942 -0.028230444 0.045527484 0.17421994 0.17060947
0.18145484 -0.083361015 0.003302215 0.1072394 0.01794587 0.0274619 -0.03848526 0.21356569
-0.09453551 0.09409979 -0.13751438 0.15880947 -0.006046994 0.19592021 -0.021695947 -0.007841948
00000000: 2926 903d c0d5 27bc 7d5d 393c 597a 9ebe
00000010: ab16 cf3d e0b7 1dbe 34d8 23bd 8c73 cf3d
00000020: 4a88 cbbd cfd2 f33d 92d3 9a3c 5a1c 2a3c
00000030: a4f5 debd 0ca9 7d3e 79ee 493c 9752 c2bd
00000040: 1431 04bd 8484 353a 078f 923d b6b2 9f3d
00000050: 5919 de3d 5bb0 7abc 9439 043e 6e5f 793c
00000060: 8214 66bc 51bf ccbd cd49 b3bd ee2a f73d
00000070: a86c 89bd a1b0 e4bb 5ed4 64bd 15da bd3d
00000080: bdae e0bd e293 493e 3d1f 14bd 881f 09be
00000090: 9195 23be 7a8c 213d 98b2 ce3c 1b27 b0bd
000000a0: c028 70bd 46a7 9b3d 1040 823d 039b c9bc
000000b0: c576 923e 1ab4 223e be53 7dbe 1c04 6b3d
000000c0: df23 eabd f4cb 833e aac8 f93d c0f3 f93d
000000d0: cfea 453e 7fe6 55bd 83c8 15bd bba3 6abd
000000e0: 3ce6 9a3d dbff de3d 1c23 eabb 92ce eabd
000000f0: 53f0 953d 3b77 36be 8d37 02bd dcfc a83d
00000100: 331a a5bc 8dda bd3d f390 c63d 5175 f8bd
00000110: dce5 573d 5c9f 49be c6f7 c63d 7692 29bb
00000120: 2bac 1c3d 4815 28be 0421 dfbd 09df b6bd
00000130: d745 973e 13d6 1ebd 8002 773c 9f3a 5b3e
00000140: d88c 873e 1783 1bbc cddb 203d ad1e 1b3e
00000150: 5e18 a13c c7f0 0fbe b310 863d 330d 0abc
00000160: 72b1 83bd c3c9 1fbd 211c 733b 39ea 23be
00000170: 1fce 02bd f63e 90be 0258 f33d 704c 81be
00000180: ca5b 8dbd 1eff 3e3e eb55 113c f4ff aebd
00000190: 95ff d93d 6326 1ebd 7302 db39 e908 a8bb
000001a0: 1d50 bcbe 33bd 5d3d 63b7 a1bd e1e3 8c3e
000001b0: 9d54 adba 6f67 133e 873b 9d3c 2e2b 82bd
000001c0: 29bb 92bc da7e 11be fd1b 583e 9a8c 4b3e
000001d0: 95cf 57bd 2261 26be 2dea e5bd 9cee e53b
000001e0: 6ada f43c f386 213e 143f 3a3d c881 173e
000001f0: 7654 ff3d 96f0 a03e dd92 31be 8cbc 013d
00000200: 0833 acbd c480 0ebe d0b6 61bd 6793 9d3d
00000210: 4187 583d c658 b93c c98f db3c a1ed ddbd
00000220: 443d 0d3e 071d c5bd d4c0 263e 9146 80bd
00000230: 2c31 723d f403 ff3d 38b0 6c3e 968e b7bd
00000240: a115 54be bf33 e2bd ee32 d4bd e20b ad3d
00000250: 3026 edbd 4cfd 113d af23 debd 0954 01be
00000260: 6d83 033e 4de9 8fbe cd1e 773d b5d9 73be
00000270: bf25 2b3e e3f5 ee3c e507 1c3e ad96 373d
00000280: b6a4 bf3e 5dec d13c 0209 2b3d 14ff 1a3d
00000290: ebaa e03d f83e 8dbd e6c8 003d 4534 fb3d
000002a0: a196 02be 7141 31be f8c8 29be ddcb d33c
000002b0: bb7d b9bc ac06 ccbb 2d30 89bc bb44 dcbd
000002c0: 9d46 c23d 8224 cd3b 8f1e b53d 4411 dabd
000002d0: b77a 53be f377 fabd 18c1 eabd 5e38 a0bd
000002e0: 4063 51bd d607 d0bc bfe3 85bd 400a 913e
000002f0: 269a b13d 9e0b 6bbd d103 0a3e 1737 953e
00000300: f9a5 533d e9eb efbc 7ea7 3cbd 0b83 1b3e
00000310: 9f4c 683d 6edb af3c 1d74 ba3c ef2e 063e
00000320: e259 07be ca45 b13c ac2d e8bd cd8e 15be
00000330: e8cc ad3c 68e4 533e 17b4 a23c a438 113e
00000340: 13e2 2dbe 2e31 86bd e042 8fbd f9f3 543d
00000350: 7db0 b3bd 8b86 7e3d 49aa 0f3d cb2b 733d
00000360: a441 033e d093 8abc 6cb4 8c3b 853c 71bd
00000370: 4ed7 963e 950e 823c 212f b8bd 593b 373e
00000380: 9b10 c33c 87eb 0abe 4895 8bbd cdd7 ca3d
00000390: 55c8 463e fcb2 183e 256e c13d 2424 4bbe
000003a0: a868 a43e 99a3 ebbd 5d20 0ebe 6cf3 1b3d
000003b0: 8843 e7bc 077b 3a3d b666 323e 40b4 2e3e
000003c0: 4ccf 393e 2eb9 aabd f969 583b 55a0 db3d
000003d0: 3803 933c c7f7 e03c b8a2 1dbd f7b0 5a3e
000003e0: d59b c1bd 64b7 c03d 92d0 0cbe f39e 223e
000003f0: dd25 c6bb 4f9f 483e b3bb b1bc 847b 00bc
