client/backend/wri-w2wh-back/python_scripts/training/KRS/inflow_cnn_date.pth (torch, 49694 bytes, 39 tensors)

month_emb.weight f4 [12, 32]
00000000: 64f7 01c0 42c1 d4bf fdbc 3abf 5421 a13f
00000010: 15fa bd3e e9aa e6bf 5b32 17c0 b4ad 633f
00000020: 39d6 3d3f 9703 a43e b4a2 b33c 4993 163d
00000030: 2be8 ecbd ce0a 863f a5ab d33e 7527 143f
00000040: 6269 76bf 4252 b5bf b6bd b23f 0db4 903f
00000050: 5980 393f dfae 41bf b599 86bf 4ff7 bc3e
00000060: 096e 02bf 2318 233f 9e58 6bbe c875 a93c
00000070: 183d e5bd 30f9 19bb 6fd1 623f fd81 a23f
00000080: a909 bfbf cba5 b1be 3c67 3f3f a960 23c0
00000090: 9d45 f43e 0a5f edbe e55a d5bf d7ee 4c40
000000a0: dfff 4f3f fd61 50bd 7efb e7bd 31f5 143f
000000b0: 3d83 313f 5e25 293e 3a2e 9d3f 6a9d 80be
000000c0: c91a bdbf 179a dfbf 4236 b1be a2c5 0ebe
000000d0: 5482 4bbf 777b 003f d3d6 8dbf b10d 533f
000000e0: 9a53 d0be d199 40bf e799 d43e 0ea0 993f
000000f0: d42f 41be c263 5d3f 5bb0 22bf 6eba c3bc
00000100: bec0 bb3f 1d26 3f40 0b9f f43f 9320 37bf
00000110: 212e 60be 5ddc e03f db5d f73e 0f95 bd3f
00000120: b049 8fbe 7ee6 3d3f 0833 1140 6009 883d
00000130: 8cdc f73e b0dc c83d 42c9 c43f 1555 7a3d
00000140: bfe2 babf 9ed4 56bf 588d aebf 3f97 423f
00000150: 6aa6 f8be f4b4 3e3f d55c 9a3f 9825 ce3f
00000160: 45fc 903f c1c2 31bf f549 7dbf 1f47 0240
00000170: 7454 863e a2e5 a2be 10f8 843e ec09 6c3f
00000180: fa51 da3e 7c2a 0dbf 9064 d93d 43bf 80be
00000190: cf70 f63d e126 74be 70dd ad3f d916 0abf
000001a0: 9b99 1cc0 720e e03f aa89 dfbe ccf9 1f3f
000001b0: 513b 803e 1a5c 2cc0 8b82 e23d ca00 a5bf
000001c0: 67cb 1d3e 2336 57bf d657 3f3e fa8a 2140
000001d0: a9ba a93f 96bf 58bd c8fc e5bf 1bb4 7d3e
000001e0: 003b 753f 57d7 dabf 71e5 1bbf 02a3 be3f
000001f0: 548d aabe 67f7 e0bf b06b 89bf 3bb3 0f40
00000200: d7e8 a6be 2b9e 51bf 6c83 7cbf 30bd dabf
00000210: 7abc 06bf 2248 f8be 591c d13f 6dd4 ea3f
00000220: bf94 03c0 8467 d3bc ac62 b73f 364f 933e
00000230: 1832 603f cec7 99bf 1280 803f 3b98 fbbf
00000240: 14ca 30be b8a0 0ec0 ff92 1bbe 2817 1040
00000250: 5022 a33f 6ede 0cc0 d33c 543f 9748 283f
00000260: c766 0e40 58dd 4fc0 ae09 5b3f 4732 35bc
00000270: 9283 c03f fb25 113f 444b 38bf 092c 233e
00000280: 0d38 d9be f065 26bf 9b7f e8be 2e44 803e
00000290: 6f30 7ebe 0e12 81be eae8 df3f a7cf 0140
000002a0: bb05 aebf fa56 553f 37be f2be 2a5d a5bf
000002b0: 06b5 b83e 675f aa3f 032f 2ebf 18f2 e23f
000002c0: 50aa 663f 8333 48bd fb07 85bf b8ed 1f3f
000002d0: 39e5 0640 a630 a13f 6a89 d7be be0a a53f
000002e0: 98a1 b8be 8a1c 063f dc39 b9be 4215 babf
000002f0: 8052 84bf 612c a0bf 916f ef3d ad28 e43d
00000300: ef8d ab3e 8392 12bf 7e08 503d 3e07 563f
00000310: 7de6 a6be c983 d53d 2415 3c3f 64f0 ccbf
00000320: 20cd 503e 62ae a63f 5838 47be b18c 353f
00000330: feaa 53be 1ce1 9bbc 9df0 53be 5050 c73e
00000340: d074 fbbe 183a d33e f0cb 8e3f 574b 713e
00000350: 28ae 8f3e 5e8a c8bf 1603 abbf fd63 a03f
00000360: 7377 5dbf be50 463d c702 a63f f628 793e
00000370: 2458 0b3f 0d61 eb3d 5f0f fabe 2667 e0bd
00000380: f2a9 903f 13d3 82bf 391a 7a3f bb4f 9dbe
00000390: 84d5 b33e 54da 36bf bc79 b93f 1d49 b7bf
000003a0: 4baf 813e 0547 45bf 844f 683e 7463 9bbe
000003b0: a8dc d7bf 20f5 62bf 835c 653f b1b8 c63d
000003c0: 5c2a 823f 804d 113f 51a9 13bf 30c8 583f
000003d0: f748 7abe 676b 503f 582a a23f 8832 fbbe
000003e0: d4ce c13d 9233 f2be 5e64 bb3f da0c 863e
000003f0: 5a38 733f cf90 3b3e f5d9 34bf 6ade 91bd
-2.0307245 -1.6621478 -0.72944623 1.2588296 0.3710486 -1.8020908 -2.3624485 0.88936925
0.74155 0.3203399 0.021928169 0.036761556 -0.1156772 1.0472047 0.41341892 0.57872707
-0.9625455 -1.4165728 1.3964145 1.1304947 0.7246147 -0.7565746 -1.0515658 0.3690743
-0.5094915 0.63708705 -0.22983024 0.020686045 -0.11193293 -0.0023494475 0.8860082 1.2695919
-1.4924823 -0.34696802 0.747669 -2.5527747 0.4770936 -0.46361572 -1.6668364 3.2020776
0.81249803 -0.0508747 -0.11327265 0.5818663 0.6934088 0.1651816 1.2279732 -0.25120097
-1.4773799 -1.74689 -0.34611708 -0.13942578 -0.7949574 0.5018839 -1.1081184 0.82442766
-0.40688783 -0.75234705 0.41523668 1.200197 -0.18865901 0.86480343 -0.6355035 -0.023892608
1.4668195 2.9867013 1.9111036 -0.7153408 -0.21892597 1.756725 0.48313794 1.4811114
-0.27985907 0.7417983 2.2687397 0.06642413 0.4841045 0.09807718 1.5373919 0.061116297
-1.4600447 -0.8391818 -1.3636885 0.76012033 -0.48564464 0.7449486 1.205958 1.6105223
1.1326987 -0.69437796 -0.98940974 2.035591 0.26236308 -0.3181582 0.25970507 0.9220264
0.42640668 -0.5514295 0.10614884 -0.2514592 0.12033235 -0.23842956 1.3583202 -0.5394111
-2.4468753 1.7504408 -0.43659717 0.62490535 0.25045255 -2.6931214 0.11060055 -1.2890866
0.15409623 -0.8406698 0.1868585 2.5241075 1.3260089 -0.052917086 -1.7967768 0.24775736
0.9579315 -1.7096967 -0.60896975 1.4893496 -0.3331095 -1.7575501 -1.0735989 2.2453144
-0.32599518 -0.8188197 -0.98638034 -1.7088985 -0.5263134 -0.48492533 1.6336776 1.8346077
-2.0559537 -0.025806196 1.4326987 0.2877137 0.87576437 -1.20141 1.0039084 -1.9655832
-0.17264587 -2.2285595 -0.15192793 2.2514133 1.2744846 -2.201076 0.8290531 0.65735763
2.225023 -3.2478848 0.85561645 -0.01105935 1.5040152 0.5669858 -0.71989846 0.15934767
-0.42425576 -0.64999294 -0.45409855 0.25052017 -0.24823163 -0.25209087 1.7492955 2.028299
-1.3595499 0.8333584 -0.47410747 -1.2919056 0.3607561 1.3310364 -0.68040484 1.7730131
0.90103626 -0.04887725 -1.039306 0.62472105 2.1077406 1.2592971 -0.42097026 1.2893903
-0.36060786 0.523873 -0.36176956 -1.4537737 -1.0337677 -1.2513543 0.116912015 0.11140571
0.33506724 -0.5725481 0.05078935 0.836048 -0.32597724 0.10425527 0.7346976 -1.6010861
0.20390749 1.3021967 -0.19455087 0.70917803 -0.20670697 -0.019028239 -0.20697255 0.3892846
-0.49112558 0.4125526 1.1155987 0.23563896 0.28062558 -1.5667226 -1.3360317 1.2530514
-0.8651039 0.048416846 1.2969598 0.24332032 0.54431367 0.1149312 -0.48839852 -0.10957174
1.1301863 -1.0220665 0.9769626 -0.30724892 0.35123837 -0.7142689 1.4490275 -1.4319187
0.2532905 -0.7706149 0.22686583 -0.30349314 -1.6864214 -0.8865528 0.89594287 0.09703196
1.0169177 0.5675888 -0.5768023 0.8468046 -0.24441896 0.8141388 1.2669172 -0.4906199
0.094632775 -0.4730497 1.4640005 0.2618168 0.9500786 0.18316959 -0.70645076 -0.071225

date_emb.weight f4 [31, 32]
00000000: ffda 303f 985e 143f 43b0 623f 0e9e d9be
00000010: df12 1a3f 4fff fe3f 456a 223f 896b e2be
00000020: 2031 46bf 5e70 943f b5f2 cfbe 18c1 c3be
00000030: f410 7b3e c822 a8bf 2f53 f9be 2143 4b3f
00000040: 71b8 c03e df80 24bf 3b46 adbf d8c8 a33e
00000050: 33ff a9be ce2f 38c0 c715 a3bf c1ad 9f3f
00000060: 9434 fdbe f4b5 38c0 637e 5f3f e050 b03f
00000070: 2ee7 803e c13f cabe ab33 9c3e e4fb 2c3f
00000080: a693 9d3f 91ba e43f 1581 753f 48ad 83bd
00000090: 2d4f 0cbf 91d2 ac3d 4bd0 0d3f 3d45 ef3f
000000a0: 422f 81bf 7335 ef3e 788c 34bf 10d9 28bf
000000b0: eab0 cb3e 1e5c 86bf 3534 99bf f439 a53e
000000c0: bf27 bc3f 71ef b63f 4f1b cabe c220 2940
000000d0: 0bdb b23f 18a6 9bbf e60e 883f 28ce 87bf
000000e0: dd63 2540 66fb 1dc0 4681 90bf 0677 bf3e
000000f0: 2bf3 433f a442 5bbf 6a02 4a3e 5f53 d83e
00000100: 20d2 a0bf 3778 123f 9412 fdbe a3a7 30bf
00000110: 43d1 babf 2336 00be 74d9 babe 374d d93f
00000120: fbde 863e b1f8 f4bd 2764 f83e 41a6 a63f
00000130: b887 6a3f 49ab 04bd 47e1 82be aaad 9d3f
00000140: 0966 61be bf6c 1bbf da58 a0bf de51 06bf
00000150: 9a67 1f3f bb41 babe 7699 8ebf 4348 a03f
00000160: 0118 c63f e80e a33e 42b5 71be 2a29 e23f
00000170: 6d2b adbf 9fa7 8bb9 2321 1bbe fb3d 2ebf
00000180: ba4e 8f3e af55 1f3e 6a00 3a3b 27da 4a3e
00000190: b58e 233e fd49 b73d fdd9 023f f127 47bf
000001a0: 5406 1f3f d2a1 673f eb63 f73e 1682 febd
000001b0: 9bdb 0bbe 83b1 68bf d589 80bf 162c bd3e
000001c0: 95be 9f3f 01e7 7fbf d4c3 bbbf 3fe5 9c3f
000001d0: 320f df3f 3730 6fc0 7964 13be 1a1f 0240
000001e0: 0164 0a40 3a54 34bf c6ef 4fbf 2392 efbd
000001f0: ef4f 283f c73b 81bd aae1 583f a5ad 05bf
00000200: fdda ee3f fa26 aebd 885b d0bf 3f52 2e3f
00000210: 9d61 0c3e e14f e83e 5955 2c3f bb05 d0bf
00000220: 2308 8a3e e51d b9be f59d 2e3c 6c41 19bd
00000230: 03d3 a33e 9ad3 953e 6d09 b8bf 3bea 3cbe
00000240: 7253 c4bf 9bf1 113e 74c1 37bf 8fed 78be
00000250: b7ae 073f f2f9 01bf 88af 8f3e b5b5 063f
00000260: 7d14 1140 0ea6 7dbf 4109 083f 86dc 973f
00000270: c4f8 75bd c198 bbbf e9b6 1f3f 45ff f7bf
00000280: 5284 dcbf a878 39be e23d 813e 9fbf 95bf
00000290: c554 5e3f 8e1a 923c 32dd 773f cf8f 87bf
000002a0: 45f3 82bf 9529 11c0 a526 e73d e06e 31bf
000002b0: 562a 31bf 3248 0d3f b8be 6fbf 0a2b 84be
000002c0: 256e 94bf a41e 1c3f cb2e babf d57f 87bf
000002d0: a214 273f 6451 a0bd aee1 86bf 38ac a93d
000002e0: 7de3 8e3f 0838 80bf 8843 ee3e c1c6 ffbe
000002f0: 70a9 16be e056 cabf 7a4a b73f 2963 763e
00000300: b29f b1be 5d54 9a3c 41b6 afbf 60b9 ea3e
00000310: 9ce1 3b3f 4b07 6e3e 4115 9f3f 3690 9c3f
00000320: 47d1 763e 1774 883f 1fe9 2c3f e203 01bf
00000330: 5da8 a1bf 341d 053f ac56 60bf 4b3d 2dbf
00000340: 217f 7e3e e43a e1bf 3579 62bf cd21 783d
00000350: 0fc0 e23e 5ca1 cc3f 5f9c 00c0 9822 9fbe
00000360: f985 aa3f 43db 5bbf 6be0 443f 3dd6 8c3f
00000370: 39be 34be 3ca7 1bc0 382c 403f 8d44 d5be
00000380: ba14 10bf 3924 7c3f d510 b93f b0ea c53e
00000390: 224f 05c0 b4fb 2bbf 4bdb 893f 9a12 9f3f
000003a0: 8bbd 90bf 08bb 9f3e 7063 b6bf f3a7 823f
000003b0: 629b e4be 70a1 ddbd 1555 59bf 7140 6ebf
000003c0: abbe 80bf 7617 be3e 6046 ecbd 6aa0 d33d
000003d0: e265 c13f 79ae 34bd 0d3e d0be 3969 9abd
000003e0: 6411 4bbf e36b a1bc 3444 b3bf 2c25 b33e
000003f0: b738 043f 0a1c 173e bcdf 833f e5d4 94be
0.6908416 0.5795684 0.88550204 -0.425034 0.60185045 1.9921664 0.63443404 -0.44222668
-0.7741871 1.1596792 -0.40614858 -0.38233256 0.24518186 -1.3135614 -0.48696277 0.79399306
0.37640718 -0.6425914 -1.3537058 0.3198917 -0.33202514 -2.8779178 -1.2741021 1.24749
-0.49454176 -2.8861055 0.87302226 1.3774681 0.25176376 -0.39501765 0.3050817 0.67571855
1.2310684 1.7869436 0.9590009 -0.06429535 -0.5480831 0.084386 0.55395955 1.8693005
-1.0092547 0.46720466 -0.7052684 -0.6595621 0.39783412 -1.0496862 -1.1969057 0.32270777
1.469963 1.4291822 -0.3947396 2.6426244 1.3973097 -1.2160063 1.0629547 -1.0609789
2.5842202 -2.4684691 -1.1289451 0.37395495 0.7654292 -0.8564856 0.19727483 0.42251107
-1.2564125 0.57214683 -0.49428236 -0.69005793 -1.4595112 -0.12520652 -0.3649403 1.6976689
0.26341996 -0.119614966 0.4851391 1.3019487 0.9161334 -0.032389913 -0.25562498 1.2318623
-0.2201158 -0.6071281 -1.2527115 -0.5246867 0.6226746 -0.36378273 -1.1140583 1.2522053
1.5476075 0.3184731 -0.236043 1.7668812 -1.3528877 -0.00026637033 -0.1514936 -0.68063325
0.2798975 0.1556003 0.0028381594 0.19809781 0.15972407 0.08949659 0.51113874 -0.7779532
0.6211903 0.90481293 0.4831842 -0.12427156 -0.13657992 -0.9089586 -1.0042063 0.36947697
1.2480036 -0.9996186 -1.4669137 1.225746 1.7426512 -3.7373178 -0.14393796 2.0331483
2.1623538 -0.7044102 -0.8122524 -0.11697795 0.6574697 -0.0631023 0.84719336 -0.52218086
1.866058 -0.08503528 -1.6277933 0.6809425 0.13709112 0.45373443 0.6731773 -1.6251749
0.26959333 -0.3615562 0.010657777 -0.037415907 0.31996927 0.29263002 -1.4377877 -0.18448727
-1.5337965 0.14252321 -0.7177956 -0.24309371 0.5300097 -0.5077201 0.28063607 0.5262101
2.2668755 -0.99081504 0.5313912 1.1864173 -0.060051695 -1.4655992 0.62388474 -1.9374777
-1.7227881 -0.18112433 0.25242525 -1.1699103 0.868481 0.017834928 0.9682189 -1.0590762
-1.023049 -2.268163 0.11286668 -0.69309807 -0.69205225 0.55188286 -0.9365039 -0.25814086
-1.1596113 0.60984254 -1.454553 -1.0585886 0.6526586 -0.07828024 -1.0537622 0.08284801
1.1163174 -1.0017099 0.46535897 -0.49956325 -0.14713073 -1.5807762 1.4319603 0.24061264
-0.3469215 0.018839056 -1.3727494 0.45844555 0.7339113 0.2324497 1.2428361 1.223151
0.2410327 1.0660428 0.67543215 -0.5039655 -1.2629505 0.51997685 -0.8763225 -0.6767165
0.24853183 -1.7596097 -0.884662 0.06057911 0.44287154 1.5986743 -2.0095441 -0.3108108
1.3322135 -0.8588144 0.76904935 1.100288 -0.17650689 -2.4320822 0.7506747 -0.41653863
-0.56281626 0.9849277 1.4458262 0.38655615 -2.082955 -0.67180943 1.0770048 1.2427552
-1.1307844 0.3119738 -1.4249096 1.0207504 -0.44649798 -0.108218074 -0.8489545 -0.9306708
-1.0058187 0.37127274 -0.115368605 0.10333331 1.5109217 -0.044111703 -0.4067234 -0.07539601
-0.7932341 -0.019704765 -1.4005189 0.34989297 0.5164904 0.1475679 1.0302653 -0.29068676

season_emb.weight f4 [3, 32]
00000000: 0f62 e7bf 8ffd b53f f70a f3be ca04 963f
00000010: 42cf d83e f7e0 bf3f 1467 90be 44f8 57bf
00000020: fa41 af3e 57bc 20bf 1765 a5be 5d03 343f
00000030: 97be 52bf ff9c a7bf 0074 15be 2dd6 1740
00000040: 0198 c0bd 3b06 2abf fa79 41bf 79bd a8bd
00000050: 0c06 0fc0 f4ce c0be 7ba0 5c3f 54f2 2bbf
00000060: 6adc aebe 9c09 ed3d 1e61 2a3c b056 b9bf
00000070: bf23 84bf f939 3cbf 9ce9 8a3f 5773 aa3e
00000080: 5dd5 f2be 44e3 293e b9a6 f1bd 3f5b a43d
00000090: 2e49 85bf 95ce c63f 6a9f c13e 632d 783f
000000a0: 95c8 1dc0 c13d 72bd e0d0 d13e e4d9 fcbf
000000b0: ed24 10c0 c740 ccbe 3774 84bf ce38 84be
000000c0: c350 253f 2f26 71bf a7c3 63bf 2645 2b3e
000000d0: 56d7 fd3e 8262 293f 25a8 acbf 67fe e83f
000000e0: 0ab3 17bf 59a5 b9bf 5115 2cbf bbfb 963e
000000f0: 4de5 95bf 9c53 d33d e2eb 9dbe d695 e2bf
00000100: b53f e93f 1177 853f 2905 e5bf fc5e fd3f
00000110: 2cd4 643f bd55 b23e b6d5 b1bf 2248 0d3e
00000120: 552b 033f ffd7 30bf f58f 1c40 483e ea3e
00000130: 9d66 073f 1825 ea3f 873a 0a3e 6a37 023f
00000140: 2f7e 8fbf e5d0 8b3f be26 24c0 1330 5bbf
00000150: 4f09 413f 67cf 11bf 5b2c aa3f de03 ea3d
00000160: f2a3 193f e3d8 f23e eca0 dc3f 774d c53d
00000170: f18f adbf 5e21 96bf 7e7c b73f 555a a83c
-1.80768 1.4218005 -0.47469303 1.1720212 0.42345625 1.4990529 -0.28203642 -0.843632
0.34230024 -0.62787384 -0.32303688 0.7031763 -0.8232207 -1.3094786 -0.14595032 2.3724473
-0.094039924 -0.66415757 -0.75576746 -0.08239264 -2.234744 -0.37657893 0.86182374 -0.6716664
-0.34152538 0.115740985 0.010399131 -1.447958 -1.0323409 -0.7352596 1.0852542 0.33291122
-0.47428408 0.16590601 -0.11799378 0.08025216 -1.0412958 1.5531794 0.37816936 0.96944255
-2.4653676 -0.059140924 0.4097967 -1.9753995 -2.2522538 -0.3989317 -1.0347966 -0.2582459
0.6457636 -0.9419889 -0.88970417 0.16725597 0.4957835 0.66165936 -1.3488814 1.8202637
-0.59257567 -1.4503585 -0.67220026 0.2948893 -1.1710602 0.103186816 -0.30844027 -1.7701976
1.8222567 1.0426961 -1.78922 1.9794612 0.8938625 0.34831038 -1.3893344 0.13797048
0.51237994 -0.69079584 2.4462864 0.45750642 0.5289095 1.829257 0.13498889 0.50865805
-1.1210383 1.0923125 -2.5648646 -0.8562023 0.7540483 -0.56957096 1.3294786 0.11426519
0.60015786 0.47431096 1.723661 0.09633916 -1.3559552 -1.1728933 1.4334867 0.020550886

prev_data_layer.0.weight f4 [16, 2]
00000000: 68c6 c63e bd7d 45c0 a0e3 40bf 3bd9 93bf
00000010: 6c31 3b3e 5b83 4bbf 9cd1 c8bf 752c 103f
00000020: a34d 723d faae cfbf 9fe2 d3bf e035 c23f
00000030: e60a b7bb 6e20 64c0 144e 66bf 06d3 b1bf
00000040: 15d7 35bf f79e 9b3e 2ee1 4a3e 9810 09bf
00000050: 2941 0bbf d225 913f eaf0 943e 8b8e 363f
00000060: 8f48 efbe 446e 9b3f e11a 1e3e 803a 923f
00000070: 6f5b 6cbf a2e3 44bf cd17 4b3f f12d e03c
0.38823247 -3.0857995 -0.7534733 -1.1550668 0.18280572 -0.7949731 -1.5688968 0.56317836
0.05915607 -1.6225274 -1.6553534 1.5172691 -0.005586016 -3.5644794 -0.8996289 -1.3892524
-0.71031314 0.30394718 0.19812462 -0.53540945 -0.543963 1.1339667 0.29090053 0.71311253
-0.46735045 1.2143025 0.15439941 1.1424103 -0.92327017 -0.7690984 0.7933319 0.027365657

prev_data_layer.0.bias f4 [16]
00000000: 6008 153f b8ea a53e 1277 21bf 48c5 8ebf
00000010: 1de6 3f3f 2335 01be d811 9f3f 5f3f b43d
00000020: c727 62bc 5999 8bbe 9988 053f ed5d 32bf
00000030: 6314 54be e19a 353f d5a3 73be 3c2c a43c
0.58215904 0.3240564 -0.6307231 -1.1153955 0.749605 -0.12617926 1.242732 0.088011496
-0.013803429 -0.27265432 0.52161556 -0.6967457 -0.20710902 0.7093945 -0.23792966 0.020040624

prev_data_layer.2.weight f4 [32, 16]
00000000: ff72 c13d 7c38 983e e179 b33e f636 3d3d
00000010: b18b 5abf 840b b4bf f595 453e 2e7b 22bf
00000020: 5f12 343e edcb 3fbd 5e0a c1bf 9068 9ebf
00000030: 9ca2 c4bd b438 a0bf a921 b0bf 5f5a 933f
00000040: 1e2d 86be a2d6 6b3f 347a 3840 7c5e 1fbf
00000050: e0c0 12c0 172f 353e ce9a d53e fe50 16c0
00000060: 4b2d e03b 13ab 903f afb2 553f 5a54 803f
00000070: 5c80 233f a5d4 393d 29b2 b1bf 957a e23e
00000080: 6b2a 373d 005b 07bf 9614 09bf f7ff fbbf
00000090: b152 ffbf 1a87 5dbf 1f3a 6c3f cadc 923f
000000a0: ca5e e63d 951a c8bf f38c 543e 3018 c43f
000000b0: 8d4f 71bf 8bc7 1640 8bcf 81bf ace4 06bf
000000c0: 7a5d 1ebf 520a 853c 4426 153f 6669 dc3e
000000d0: 93fc ae3f 49b4 633f 8673 54bf beac 313f
000000e0: cc18 8ebe 00b4 a03f feb4 e1bf cbe8 90be
000000f0: a915 32bf 5742 963f db49 6a3f 9ac2 483f
00000100: b113 26be 3bc7 2b3f 102b 99bf b5e9 9c3f
00000110: ab5c 48bf 43b2 04bf d423 6cbd 0511 dabc
00000120: 973e ad3f e643 8cbf 4b1e 55bf aab3 4fbf
00000130: b135 6b3f 0a91 16c0 cc2e 303e 7940 a7bf
00000140: 0287 a83d 2c09 22be d2c4 4f3e 7fa2 6a3e
00000150: 4cc3 4bbf 2b9c 463f a531 1340 a79e 1f3d
00000160: 5727 4cbf 2a02 193f 989e 443f ef36 62be
00000170: 8e34 04be 2b36 7bbf c643 fa3e 2422 19c0
00000180: 404d dc3f 55b5 0d3f 8d76 8e3f dbe4 053d
00000190: 1ded 653f 67ad e13f bd96 ffbf 5165 e23f
000001a0: eeae ec3f 9a21 7a3d c7ba a1bf b3ad c83e
000001b0: 6729 77bf 2286 2dbf ee54 483e 6b3b abbe
000001c0: 4c9b 1240 a771 e93e c3c2 613e 4a1c b0bf
000001d0: c3e2 a93f a0a6 9abe ead0 6f3f cfa6 17bf
000001e0: 8180 66bf 1a45 803e e58b babe 2ca6 1d3e
000001f0: ba95 a13f b5f4 06be 36b4 aabf 6eed 60bf
00000200: 90fb 43be 65c6 c9bf f4c5 cd3e 17a2 b13e
00000210: c18a ec3d 86cc a53e 31a7 8fbe 9fcb 233f
00000220: 94c4 1c3f 8f81 2bbe db26 32bd d4e9 963f
00000230: 2dbb 333f e8bc 4ebe 5d43 9bbf 4eb6 0cc0
00000240: 63d0 d2bf 410f 3d3f 9ae4 87bf adca 253e
00000250: d11e e3bf 9c20 a53f 9a0d 85bd fbdd fcbe
00000260: 80af a2bf fc28 0dbf 634e 01bf 2c77 7c3f
00000270: 22a6 783e 2886 c43d 7903 c63e cb3e 9fbe
00000280: 111d 92bf 9f4c aebe 28b8 f1bf d6b4 c63f
00000290: 8280 723f cb39 f93e f036 1cbf a7c8 37be
000002a0: 8a53 2640 6eaa 533e 8334 98bd 0dcd 8f3f
000002b0: 5951 adbf 46a0 8fbf 3bc4 c23e ea47 5dbf
000002c0: 4cd3 453f 838f c63f 468a 5bbe ae09 dbbf
000002d0: 3dd0 503f c6d1 f6bf 547a b43e 9f3d 073f
000002e0: fce5 28c0 a88d de3f d0c0 ecbe d0f0 babf
000002f0: 139b ca3f c75b 793f 1118 9ebf e2b2 173f
00000300: ec1c e13d 80a3 67bf 1924 603d def0 1d3f
00000310: f5d6 283f 6a15 51be 9e86 173f fd50 4abf
00000320: c3cc 89bf 5523 bfbd a988 59bf 9095 93bf
00000330: bfa4 32bf e3a4 acbc fa77 e3bf ac7b 8cbd
00000340: 70ac 6d3f 477f b9bf 372b 7a3f 73e8 66bf
00000350: 90ca b43f 12c3 1abf e1bc b43f 6f1b dd3d
00000360: b6a6 d83f 7517 e43f 86a2 7fbf 2253 1dbf
00000370: 0bfc c0bf e52e 8abf ad68 b4be a3db 83bf
00000380: 0efb 983f ba4a 85bf a8d3 f13e f370 5d3f
00000390: eee8 693f ccc9 e5be 37aa 253e 0c8f 573e
000003a0: 5ec7 3abf ff7c 87bf a727 90be 175c 20bf
000003b0: 28ce 1ebe ec02 913f f854 b1bf 39a6 823f
000003c0: 61fb 37bf 11eb 283f 3b0f 5ebf fd60 993e
000003d0: 7694 a9bf 7ced eabf 6e6c d7bf 7d66 94bf
000003e0: 720d b6bf d932 fb3d 113f ee3d 6046 b3be
000003f0: 99bd 0dbf d3e7 dfbc dfa5 b83f 3aff bf3d
0.09445762 0.29730594 0.35053924 0.046194993 -0.853694 -1.4066014 0.19295485 -0.6346921
0.17585133 -0.04682534 -1.5081289 -1.237566 -0.09601328 -1.2517304 -1.3760272 1.1511954
-0.26206297 0.9212438 2.8824587 -0.62253547 -2.2930222 0.17693745 0.4171967 -2.3486934
0.006841337 1.1302208 0.83475775 1.0025742 0.63867736 0.04536881 -1.3882495 0.44234148
0.044718187 -0.5287323 -0.53547037 -1.9687489 -1.994711 -0.86534274 0.92276186 1.147363
0.11248548 -1.5633112 0.20756893 1.5319881 -0.9426201 2.3559291 -1.0141462 -0.52692676
-0.61861384 0.016240273 0.58261514 0.43049163 1.367083 0.8894697 -0.82988775 0.6940421
-0.27753294 1.2554932 -1.763336 -0.28302607 -0.695643 1.1738995 0.91518945 0.7842194
-0.16218449 0.67100877 -1.1966267 1.2258822 -0.782664 -0.51834506 -0.057651356 -0.026619444
1.3534726 -1.0958221 -0.8324935 -0.8113352 0.918788 -2.3526025 0.17205352 -1.306655
0.08228876 -0.15823811 0.20289925 0.2291355 -0.79594874 0.77582043 2.299905 0.038969662
-0.7974753 0.5976893 0.76804495 -0.22091268 -0.12910673 -0.9812953 0.48879832 -2.3927088
1.7211075 0.55354816 1.1129929 0.032688957 0.8981493 1.7631043 -1.9967877 1.7687169
1.8490884 0.0610672 -1.2635125 0.39195022 -0.9654755 -0.67782795 0.19563648 -0.3344377
2.2907286 0.45594522 0.22046952 -1.3758633 1.3272327 -0.3020525 0.9367815 -0.59238905
-0.9003983 0.2505272 -0.36434856 0.15395421 1.2623818 -0.13179286 -1.3336246 -0.8786229
-0.19138932 -1.576367 0.4019009 0.34693977 0.11549903 0.32382601 -0.28057244 0.63982576
0.61237454 -0.16748641 -0.043494087 1.1790109 0.7020748 -0.2018925 -1.2129933 -2.198627
-1.6469845 0.738514 -1.0616639 0.16190596 -1.774378 1.2900577 -0.06496735 -0.49388108
-1.2709808 -0.5514066 -0.50510234 0.9861934 0.24282125 0.09595901 0.38674524 -0.31102595
-1.141512 -0.34042832 -1.8884325 1.5523937 0.9472734 0.48676905 -0.6102133 -0.17947637
2.5988488 0.20670483 -0.07431891 1.1234452 -1.354045 -1.1220787 0.38040337 -0.8643786
0.7727554 1.5512546 -0.21439466 -1.7112329 0.81567746 -1.9282768 0.3524958 0.528284
-2.6390371 1.738698 -0.46240854 -1.460474 1.5828575 0.97405666 -1.2351094 0.5925733
0.109918445 -0.90483856 0.054721925 0.6169566 0.65953 -0.20418325 0.59189785 -0.7902983
-1.0765613 -0.09332911 -0.8497415 -1.1530018 -0.6978263 -0.021074718 -1.7770989 -0.06859526
0.92841244 -1.4491967 0.9772219 -0.9019844 1.4124317 -0.60453904 1.4120141 0.10796248
1.6925876 1.7819659 -0.99857366 -0.61454976 -1.5076917 -1.0795561 -0.3523611 -1.0301403
1.1951616 -1.041343 0.47231793 0.8650047 0.9137105 -0.4488052 0.16178213 0.21050662
-0.7296046 -1.0585021 -0.28155252 -0.6264052 -0.1550833 1.1329017 -1.3854055 1.0206977
-0.7186795 0.6598368 -0.8674199 0.2995681 -1.3248432 -1.8353724 -1.6829965 -1.1593777
-1.4222853 0.12265558 0.11633123 -0.3501463 -0.5536743 -0.027332222 1.442562 0.093748525

prev_data_layer.2.bias f4 [32]
00000000: 2806 813e 8cfe 923d f7e6 843e f479 2fbf
00000010: f26f 53be 6476 63be c243 5cbf b0ca 3f3f
00000020: 2280 4a3d 938f 7cbe 7005 f9be 873b fa3e
00000030: 1191 343e 7eb3 5a3f 65ec 3a3f e284 423f
00000040: 1762 90bf d602 473d 1f36 a73c 2f73 f7be
00000050: bb41 68be ad4d af3e 9d0e 6a3e eaa8 7bbe
00000060: 7599 163e c66d 113f 53ae 99bd 1d6c d93e
00000070: 93ac 2a3f f51f 18bf f8ae 59bd 8a57 19bf
0.2520001 0.07177457 0.25957462 -0.6854546 -0.20648172 -0.22213131 -0.8604089 0.7491865
0.049438603 -0.24664144 -0.4863696 0.4887354 0.17633463 0.85430133 0.7301696 0.75984013
-1.1279935 0.04858669 0.02041155 -0.48330066 -0.22681324 0.3423895 0.22857137 -0.24576154
0.14706977 0.56808126 -0.07503953 0.42465296 0.6666958 -0.5942376 -0.05314538 -0.598992

conv_1.weight f4 [12, 6, 3, 3]
00000000: 05f9 0cbf a871 96bf 71be 81be 2083 6b3f
00000010: 8bbe 15bf dea4 a33e 66c7 86bf ad2b 673f
00000020: 6310 3ebe 9e4b a0bf 7a08 3f3f c845 ae3f
00000030: 5622 61bf a7c1 7abf 3ebd e4bd fe37 0a3e
00000040: 487d 35be ce8f 89bf b2bd 2d3c 99a5 df3d
00000050: 9bc7 343e 21eb 39bd 090a d9bd 7061 5abe
00000060: 88f9 ecbc 1266 8cbe 9d96 4c3c 4338 40bf
00000070: 554b 1cbf f111 d33e 9d19 813f a5ca 70bf
00000080: 233b a1be 390d db3d 3c75 27bf 4aef b43e
00000090: d106 5e3e e7dd 1c3e 5c8b d53d 9c79 8d3d
000000a0: aa8e 613d cb41 febd e80b 73bd c882 9bbd
000000b0: fe75 993e ea41 63be aa80 e4bd 852b 843e
000000c0: 08be 44be baef 0b3e 1f5c b6be ae3c 4a3d
000000d0: 2ccb e03e 3ad5 5dbd 13de 593e a8f4 aebd
000000e0: b2dc cebc 87dc 67bf 2dee 33bd 567a 26bf
000000f0: e254 7dbf 76dd 9b3c 025a 2fbf 521d 60bf
00000100: 5924 d23e 0e32 693f 6c53 9fbe 3a2c 39bd
00000110: ccdf 233f 543e 16bf cd1b 463f 6b30 55bf
00000120: 3dd8 33be 0549 283e 5345 263d b244 38bd
00000130: d565 06bf dc14 303e 0ea2 98bd 723e afbe
00000140: 8bd3 6abe a0dc 9dbf 1c4c 56bf b3da 7d3e
00000150: b92a 813f 32c2 ac3e 3915 763f c09e 2fbf
00000160: b8c1 323e 0d2b 503f 57e4 083f b15f 1f3e
00000170: a59b 933e 95c8 ffbd 87f6 d5be 17bc b639
00000180: 68e8 9c3d e73c b83d abed 0dbe 4ce7 693e
00000190: 146e 183e f924 293e 5869 f9bd 8456 c23d
000001a0: 84b8 9dbe 282c 073e 5ffb 263e f5d8 1fbe
000001b0: bea2 00be cf32 8c3f 0b4c 26bd 2f35 0e3e
000001c0: 9407 93bf 84f0 613d 65ee 5fbf ff8c aebf
000001d0: 5734 393f 0d45 0bbe 23fd 7cbf df7d f2be
000001e0: 1b4d 7abe 5e28 aa3f 53a5 e43e be4e 1ebd
000001f0: ec76 0a3f be45 bd3e a52c 233e 29d0 23be
00000200: 5fa2 a93d d5f4 6abd 0f5a d4bc ad16 9bbe
00000210: 6bfc 20be 32f9 0dbe 951a 1abe c65e 70bf
00000220: 854a babe 7bce 23bf f428 1dbf ca7d 0c3f
00000230: 517a 043f 316b 003f 3ff3 ecbd c020 653f
00000240: dfe4 3b3e 7a4b 0e3e 4095 843d 1c69 253e
00000250: ff84 91be 1016 27be 8c3d a9be 658d 7ebc
00000260: 27e3 35be 8832 8fbe e3e2 b7bc 3fd7 dabd
00000270: 37d3 d73d 1846 b7bd 0c8b 833d d24e f8bc
00000280: cbdb 54be 068b 36be 2baf d4bb 2c91 0dbf
00000290: 7080 ddbe 42dd 123f ea71 bebf c392 663f
000002a0: abcd 403e e62c 39bf 5492 15bf 8941 fb3e
000002b0: b907 013f 5a4e 303e 4e1a 98bf 42da 85be
000002c0: 965c f43e be7f e8bc 3ed0 85bf 1d1b 533d
000002d0: 43d5 c23e 4fff 20bd 0e82 a13d ec51 7bbe
000002e0: 0a43 983e eeda e8be 2f79 153e 2546 2abe
000002f0: eb77 b7bd 800a 82bf 28e9 b03d 2414 133e
00000300: a6f8 a7bd e7af abbe 2c18 febe b685 123f
00000310: 91b6 0abf a336 0cbf 03a3 0b3e 394f 8d3e
00000320: bdd3 8f3c d672 85bb fd13 5b3e 5f20 a3be
00000330: d139 093e 0c0f 4abe 890a 813d a353 433e
00000340: 03ab 1fbe 9da1 be3e d5e2 823b b596 bdbd
00000350: 9403 a83c 7690 0f3e e7df 4e3e b2ee b1bc
00000360: 3420 92be 7242 f03d 37d9 f63e 3c08 6abe
00000370: beae 7a3f f7f5 10be acba d73f 085a 083f
00000380: 4ea1 533e c8de bd3f 3855 2c3f 1b18 9fbf
00000390: d5aa 77be 8f63 e03d 337c 5e3f 0275 fbbe
000003a0: ec2b be3e 3fae 223f a103 163e 8f5c b43d
000003b0: 6011 593e 9a1d 103e 0689 073e 9ecf e63e
000003c0: 35a4 d2bd 8f86 4c3e 1cba 323e bf22 243f
000003d0: ea25 b03f 2d85 8d3e 2b07 1bbe b7ce d33d
000003e0: 8efd 593e 7130 d6bd 5924 fc3d 6f9e e3be
000003f0: 26d6 ec3c 4aea 303e 703b ae3d 5225 d4bd
-0.55067474 -1.1753435 -0.25340608 0.91996956 -0.5849387 0.3196172 -1.0529602 0.9030102
-0.18560939 -1.2523077 0.7462231 1.3615046 -0.8794302 -0.9795174 -0.111689076 0.13497922
-0.17723572 -1.0747011 0.010604309 0.10920257 0.17654268 -0.045390252 -0.10597617 -0.21326232
-0.02892758 -0.27421623 0.012487081 -0.7508585 -0.6105245 0.41224626 1.0085942 -0.9405921
-0.3149043 0.106958814 -0.6541326 0.35338813 0.21682288 0.15319024 0.10426971 0.06907961
0.055067696 -0.12414893 -0.059337527 -0.07593304 0.29972833 -0.22193113 -0.11157353 0.25814453
-0.19213116 0.13665667 -0.35617158 0.049374275 0.43905008 -0.054158427 0.21276121 -0.08542758
-0.02525172 -0.90570873 -0.043928314 -0.6503042 -0.98957646 0.0190265 -0.68496716 -0.8754474
0.41043356 0.91092 -0.31118333 -0.045208193 0.6401336 -0.58688855 0.7738617 -0.83277005
-0.17562957 0.16434105 0.040593456 -0.044987388 -0.52499133 0.17195457 -0.074527845 -0.3422733
-0.2293226 -1.2332954 -0.83709884 0.24790458 1.0091163 0.3374191 0.96126133 -0.6860161
0.1745671 0.8131569 0.5347342 0.15563847 0.28829685 -0.1248943 -0.41789648 0.00034853883
0.076615155 0.08995991 -0.13860194 0.22842139 0.14885741 0.1651801 -0.12178296 0.09489158
-0.30804837 0.13200438 0.16306828 -0.15610106 -0.12562081 1.0953006 -0.040599864 0.13887475
-1.1486688 0.055161014 -0.87473136 -1.3636779 0.7234549 -0.1360056 -0.98823756 -0.47361657
-0.24443476 1.3293569 0.44657382 -0.038649313 0.5408771 0.36967272 0.15935 -0.15997376
0.08282923 -0.057362396 -0.02592185 -0.30290738 -0.1572129 -0.13864592 -0.15049203 -0.9389461
-0.3638498 -0.6398694 -0.61390615 0.5487944 0.5174914 0.5016356 -0.11569833 0.895031
0.18349026 0.1389598 0.0647378 0.16153377 -0.2842178 -0.1631701 -0.3305477 -0.015536641
-0.17762433 -0.2796824 -0.022447055 -0.10685586 0.10538333 -0.08948916 0.064230055 -0.030311022
-0.2078697 -0.1782647 -0.006490608 -0.5529964 -0.43262053 0.5736886 -1.4878514 0.9006769
0.18828456 -0.72334135 -0.58426404 0.49073437 0.5040241 0.17217389 -1.1883028 -0.2614308
0.47726887 -0.028381225 -1.0454175 0.05153953 0.3805333 -0.03930598 0.07886134 -0.2454297
0.29738647 -0.4547953 0.14597009 -0.1662832 -0.089584194 -1.0159454 0.08638221 0.14363152
-0.08201723 -0.3353264 -0.49627817 0.57235277 -0.54184824 -0.5477087 0.13636403 0.27599505
0.01755702 -0.0040725274 0.21394344 -0.31860635 0.13400961 -0.19732302 0.063008375 0.19074874
-0.1559258 0.37232676 0.0039943256 -0.09257261 0.020509519 0.14019951 0.202026 -0.021720264
-0.28540194 0.117314234 0.48212597 -0.22854704 0.97922885 -0.14156328 1.6853843 0.53262377
0.20667002 1.4833612 0.67317533 -1.2429231 -0.24186261 0.10956489 0.8690826 -0.49112707
0.37142885 0.6354713 0.14649822 0.08806717 0.21198034 0.14073792 0.13235864 0.45080274
-0.10285226 0.19973205 0.17453808 0.6411552 1.376157 0.27640668 -0.15139453 0.10342162
0.2128813 -0.10458458 0.1231162 -0.44456813 0.028910708 0.17276874 0.085074306 -0.10358681

conv_1.bias f4 [12]
00000000: 4b99 c73d 437b 18bc f3b0 553e 17c2 813e
00000010: 3b2c 4ebe 43fe 34be b175 ac3e 1255 edbe
00000020: 8fd6 663e 9f96 1e3d 8913 c93e ffbd 7c3f
0.09746035 -0.009306732 0.20868282 0.2534339 -0.2013406 -0.17675118 0.3368354 -0.46353966
0.22542785 0.038717862 0.39272717 0.9872741

res_layer_1.0.weight f4 [12]
00000000: a169 bb3f 255a 683f 8a32 863f 954a 173f
00000010: 43f7 a43f 365f 8e3f 78b6 853f a0dc b13f
00000020: ab68 b93f 1faa 8d3f d701 a03f 5c65 963f
1.464161 0.9076255 1.0484173 0.5909818 1.2887958 1.1122806 1.044631 1.3895454
1.4485067 1.1067542 1.2500561 1.1749682

res_layer_1.0.bias f4 [12]
00000000: 769f 8e3e 6b5b 15be 52dd 3dbd 1351 78be
00000010: a9c5 84be 96f0 91be 7eaa cfbd 1599 80be
00000020: 459f 54be 1546 ddbe db0c 96be 6217 71be
0.27856034 -0.14585654 -0.046353646 -0.24249677 -0.25932053 -0.28503865 -0.10139941 -0.25116792
-0.20763882 -0.4321753 -0.29306683 -0.23544076

res_layer_1.0.running_mean f4 [12]
00000000: 5d7c 293f 3f46 a0c0 f6a1 06c0 5874 50c0
00000010: 497b 1441 f8e2 45be 76fe babe 097c 3b3f
00000020: 1411 9140 2457 1fc0 9840 a740 24b1 3940
0.6620539 -5.008575 -2.1036353 -3.257101 9.280099 -0.19324863 -0.36522263 0.7323614
4.5333347 -2.4896936 5.226635 2.9014368

res_layer_1.0.running_var f4 [12]
00000000: c42f a747 61e8 1c48 b849 9f47 54d8 bc47
00000010: 6529 ac47 4377 e247 b454 7f47 63f6 7347
00000020: 5af4 d747 c792 bb47 8906 ce47 bcba c447
85599.53 160673.52 81555.44 96688.66 88146.79 115950.52 65364.703 62454.387
110568.7 96037.555 105485.07 100725.47

res_layer_1.2.weight f4 [12, 12, 3, 3]
00000000: de42 a7be 256a b8bd caae 91bd 2946 9abd
00000010: 6b2a 12bf fe38 18bf ce58 3f3d e3e7 e5be
00000020: f4e9 60be 2888 67bc 4161 88be 5558 cabd
00000030: b049 a8bd e677 303d ed1f 19be d032 783e
00000040: 0b69 b53e eabc ff3d aa35 b8bd db4b 27be
00000050: 3ee2 97be 8afd 58be 4cf4 81be 48e2 ecbe
00000060: 8a11 0fbe 1a00 96bd 3c86 e33c 878e 6fbe
00000070: 8983 1b3e 7f7f 88bd d41f 31be 6774 08be
00000080: 4e3c 0fbe e124 243d 4fda 2abe fa77 0d3e
00000090: c482 2bbd 5906 6ebd 3585 903e a85f 25be
000000a0: 3d8b 5a3e 6f4b 2e3e 917d edbe 631b 4bbe
000000b0: f46c e43d b4ed a7be 6119 3fbd 8023 abbe
000000c0: 152d adbe 5ee8 17be 7928 55be f36b 60be
000000d0: bc09 afbe 7c18 b33c cacc 50bd 05da a33c
000000e0: 317f bcbc 105e 6e3e c2d0 29be 01b5 92bd
000000f0: 6d94 b6be 6792 31be 574f 56be 9e89 413e
00000100: c53c d2be 46d5 52be 9549 eabe 0a57 c6be
00000110: b14e babe eee4 92be bd54 c3bd 3ec9 11be
00000120: 1a93 60be c64f 47be a3d4 80be 54cf 8cbe
00000130: 1297 87bd 9747 4ebe 2b10 03be 58fa 8ebe
00000140: e835 57be 70be 18be 5722 bcbe 6528 79bd
00000150: 139c 39be b714 6abe cad2 283e d5fe 79bd
00000160: 521f db3e bdb8 61be d20e 32bd 9653 933d
00000170: 540c 8c3d 5adc 62be 17cc acbd 8b0d 1abf
00000180: d1b5 7cbe d77e b6be fa41 15be 36e2 11be
00000190: a45b 16be 94b6 dbbe 54fa 08bf 4c34 31bf
000001a0: 7772 94be f6e8 78be 73f2 5abd e150 0a3e
000001b0: efce fc3c f3b3 8b3e 940a e4bc b6d8 ba3d
000001c0: 41da 8b3e 97bc 7e3e c65d bd3e da20 f93e
000001d0: 611c 083e ed47 c93e bf48 893e 3adb 5d3e
000001e0: 21e5 ad3e 0102 c83e 6e9f 763e e110 87bc
000001f0: 5f01 91bd 440b 28be f88b b53e 2da3 f23e
00000200: cfac 893e 160b 6c3e 0a9d 3e3c 1545 f13b
00000210: 7531 1ebd b089 53be d772 8fbd 0651 82be
00000220: 73c3 acbe e743 3fbe f6ba 203e 478c b53c
00000230: e259 7d3e 21fb 403d 538f 4c3d 9822 993d
00000240: bf34 8f3d b04f 64be 2859 ddbd 48c7 0a3e
00000250: dcba 5fbe a67e 2fbe 2591 b03e d1a6 203e
00000260: fedf 103e 57b4 e73e 4392 353e 2a6f e63e
00000270: b31a 9c3d 48a3 3cbe b750 7ebe 0989 af3e
00000280: 51e2 ac3e 5cba 57be 21e2 60be b023 2dbe
00000290: 7386 26be abcb d7bc 85b6 a93d a161 403e
000002a0: 3cbe 393e 6809 503d 5b21 a63e 21ef 253f
000002b0: 7172 1d3e 482d 1ebd 2eeb 463e ec34 4ebe
000002c0: 9833 f1be 7f55 4d3e f4cb 02be 408e 0bbe
000002d0: 4199 643e 78bd e13d 714d 0a3e dc17 8e3e
000002e0: da1b 7a3e 4ba7 413c e17b af3e 1d11 803e
000002f0: 4442 1f3d 898a 803e 24a1 ae3c ebeb a93c
00000300: 7b98 06bc e344 0bbe 5905 373c 0ce0 463e
00000310: 910d a9be b864 12be 86d7 66be b75f efbe
00000320: 5c12 81be a487 b03d 1135 113e 270b e83c
00000330: 371b c23e ecb6 6e3e 0e1d 5d3c 10ed 15be
00000340: 6c23 5abe cc3a 03be 42c5 9dbd 4372 28bc
00000350: f151 8d3e ff50 673e f8e1 4ebe 0de6 103e
00000360: 2e28 de3d 9d69 f0bd fdf3 d6be e8b6 85be
00000370: 9b71 25bf 4807 00be c3d4 e0be f463 b0be
00000380: e5ed 343e 9abd 7c3d 90cf e0bc fcac 8abe
00000390: 04b1 293e 4f4c 193e 9328 3e3e d5c8 c23e
000003a0: 35c1 35bd caa8 dc3e e476 85be 6196 8abe
000003b0: 42cf a6be 36b9 013e a29f 5bbe 9fb6 78be
000003c0: 5f48 31be 05c2 42be d680 a33e a540 b0bd
000003d0: 34fe 773e 8454 eabd 128a b83b c321 a2bd
000003e0: 0269 623e fd9a 533a 1b06 e23d 146f 063d
000003f0: 2988 6dbc 19d9 043e 1def fd3e a8d3 1fbd
-0.32668203 -0.090046205 -0.071134165 -0.07532913 -0.57095975 -0.59461963 0.04671555 -0.44903478
-0.21964246 -0.014131583 -0.266367 -0.09880129 -0.0821718 0.043083094 -0.14953585 0.24238133
0.35431704 0.124872044 -0.089946106 -0.1633753 -0.29664797 -0.21190467 -0.25381696 -0.4626639
-0.13971534 -0.07324238 0.027773969 -0.23394214 0.15186895 -0.06664943 -0.17297298 -0.13325654
-0.13987848 0.040074233 -0.1668484 0.13815299 -0.041872755 -0.058111522 0.2822663 -0.16149771
0.21342178 0.17020963 -0.46384862 -0.19834666 0.11153594 -0.3279854 -0.046655063 -0.33425522
-0.33823457 -0.14834735 -0.2081622 -0.2191618 -0.34187114 0.021862261 -0.050976552 0.02000142
-0.023009868 0.2327807 -0.16583541 -0.0716343 -0.35660115 -0.17341004 -0.20928703 0.18900153
-0.41061988 -0.2058917 -0.45759264 -0.3873828 -0.36388162 -0.28690284 -0.09537647 -0.14236924
-0.21931115 -0.19464025 -0.2516223 -0.2750193 -0.06620611 -0.20144497 -0.12799136 -0.27925372
-0.21016657 -0.14916396 -0.3674495 -0.06082954 -0.18125944 -0.22859465 0.1648666 -0.061034042
0.42797333 -0.22043128 -0.043471165 0.07193677 0.06838289 -0.2215437 -0.084373645 -0.60176915
-0.24678732 -0.35643646 -0.1457595 -0.14246449 -0.14683396 -0.42912734 -0.5350697 -0.69220424
-0.2899358 -0.24307618 -0.053453874 0.13507415 0.030860392 0.27285728 -0.027837075 0.091233656
0.27314952 0.24876629 0.36985606 0.48657876 0.13292076 0.39312688 0.26813313 0.2166566
0.33963874 0.3906403 0.24084255 -0.01648754 -0.0708034 -0.16410547 0.3545835 0.47390118
0.26889655 0.23051104 0.011634121 0.0073629715 -0.038621385 -0.20657992 -0.07004326 -0.2545244
-0.33742866 -0.18678246 0.1569632 0.022161616 0.24741319 0.047114495 0.049941372 0.07477301
0.069924824 -0.22296023 -0.10808021 0.13552582 -0.21848625 -0.17138156 0.34485736 0.15688635
0.14147946 0.45254776 0.17731576 0.45006686 0.0762228 -0.18421662 -0.24835478 0.34284237
0.33766416 -0.21067184 -0.21961261 -0.16908145 -0.16262226 -0.026342234 0.08286766 0.18787242
0.18138975 0.05079022 0.32447323 0.64818007 0.15375687 -0.038617402 0.19425651 -0.20137376
-0.47109675 0.20052145 -0.12773114 -0.13628483 0.22324087 0.110224664 0.13506104 0.27752578
0.24424687 0.011819671 0.342742 0.25013056 0.038881555 0.25105694 0.021317072 0.020742377
-0.008215065 -0.13600497 0.011170709 0.19421405 -0.33018163 -0.14296234 -0.22543153 -0.46752712
-0.2520932 0.086196214 0.141804 0.02832563 0.37911388 0.23311967 0.013495697 -0.14641213
-0.21302575 -0.12815398 -0.077036396 -0.010281148 0.2760158 0.22589491 -0.20203388 0.14150257
0.108475074 -0.11738894 -0.41983023 -0.2611611 -0.64626473 -0.12502778 -0.43912324 -0.34451258
0.17668875 0.061704256 -0.027442724 -0.27085102 0.16571432 0.14970516 0.18570165 0.38043848
-0.04437371 0.43097526 -0.2606727 -0.27067855 -0.3258 0.12668309 -0.21447614 -0.24288414
-0.17312764 -0.19019325 0.31934232 -0.0860608 0.24218065 -0.11441901 0.0056316936 -0.07916596
0.2211037 0.0008072106 0.11036321 0.032820776 -0.014497795 0.12973441 0.4959649 -0.03902021

res_layer_1.2.bias f4 [12]
00000000: 8d46 81be 05de e6be 1dda 7a3e 0272 6f3d
00000010: 7c99 d0bb 60c5 10bd d2f0 133e bd3c e33e
00000020: a2f8 fc3d 314d 91bd b5ac b83e d1a9 f33e
-0.25249138 -0.45091262 0.24497266 0.058458336 -0.006365953 -0.03534448 0.14447334 0.44382277
0.123521104 -0.07094801 0.36069265 0.47590497

res_layer_1.3.weight f4 [12]
00000000: aeac e23f 8ccb b83f e16b 0a40 4d1e cc3f
00000010: 4dd2 b03f e84b d33f d716 da3f 9721 f43f
00000020: e403 de3f e4ae c13f 6584 a23f b477 ea3f
1.7708948 1.4437118 2.1628344 1.5946747 1.3814179 1.650754 1.703822 1.9072751
1.7344937 1.5131497 1.2696654 1.831778

res_layer_1.3.bias f4 [12]
00000000: c708 183e 33f5 84be 7226 1c3e cadf f4bd
00000010: c4f4 fabd 0bd4 c7bd 3e5c d43d a63a 7bbe
00000020: bd9f 2e3e 1607 833d 91b5 bbbe 9a04 bc3c
0.14847098 -0.25968322 0.1524904 -0.11956747 -0.122537166 -0.09757241 0.10369156 -0.24534091
0.17053123 0.06397836 -0.36661962 0.022951413

res_layer_1.3.running_mean f4 [12]
00000000: ccf5 c03f 0a8b f5be c062 213f ffdd 1b3e
00000010: 6c4c f93e cea1 0dbf 7786 d13f 92dd 8f3d
00000020: a59d 4d3f 75a4 d23f db31 0e3f 2da7 f63f
1.5075011 -0.4795764 0.63041306 0.15221404 0.48691118 -0.5532502 1.636916 0.07024683
0.8031867 1.6456438 0.55544823 1.9269768

res_layer_1.3.running_var f4 [12]
00000000: bf12 a741 e541 0b41 c294 5541 e87d 0841
00000010: 2154 1141 c882 2941 b204 9341 81b9 5441
00000020: 6d90 8841 2c31 8041 1a09 2c41 c484 a541
20.884153 8.703588 13.348818 8.530739 9.083039 10.594429 18.377293 13.295289
17.07052 16.02401 10.752222 20.689827

res_layer_1.5.weight f4 [12, 12, 3, 3]
00000000: b679 9f3e 6ff0 6bbd 0a2f 833e e10b 713e
00000010: 72c8 953d 1695 a4bd 76ae 153f 0d49 ff3e
00000020: 38ff 12be 5879 9dbe 7d43 5fbe dbe4 03be
00000030: 198d 25bf e25f c2be a28d 92be 04ce 78be
00000040: c55b 1abe 940d 543d 1f89 e93d f5e1 8e3e
00000050: 86cd 18bf cacc 103f da13 e0be 1471 673d
00000060: c74b 253e baf5 ae3e 9075 df3e 5895 8cbc
00000070: 62b8 17be a494 62be aa9d 45be 0110 423e
00000080: d841 f8be 0b72 c8bd 0371 2f3e c5cf 893e
00000090: 9466 2c3d 25c6 523e c192 e9bc 3a77 043f
000000a0: 2118 d53d f561 0abf f3f6 823e 7773 f0be
000000b0: ae39 7fbe 56e1 04bf cce9 a7be d34e b03e
000000c0: 0a80 3cbf ceda e6be 2b7a 1dbe 5605 20be
000000d0: 0d2d f6be 4081 65be c628 233e b1b8 56be
000000e0: c91a e9be 9f50 3d3f 7e42 0e3e b55b d03e
000000f0: 0f59 303e 005f d1bc c429 0b3f 8e0c e8be
00000100: 15c1 aebe 0f33 c33d 650a 86bf ee03 10bf
00000110: 9b03 67be b615 00bf 954f cebe 9b37 38bf
00000120: 8e3c d5bc 0434 13be 6d47 cdbb a5b4 953d
00000130: b82d 85be 220f 20bd 872f 8a3e 4e9b b7bd
00000140: db83 c2be 4c6f fc3d e850 07bd 10ce 4b3e
00000150: 7f4e 9a3e b987 603e c857 9bbe feb6 b43e
00000160: 6f9b 923e 996e c73d fcda bdbc 4500 033e
00000170: a993 0dbe c305 a6be bc3e 013e 3422 623b
00000180: d77f 563e 73bf bbbe 1209 82bd 891d 893e
00000190: 9b79 33bd 3c05 cd3e c02a 0d3e 9088 a03d
000001a0: 257d c33d eb9b 423f 4a48 2f3f 71bc 91bd
000001b0: b7eb d23d 6261 b5be 2c83 b1be acb0 603c
000001c0: 1c52 b13d 5aae bb3e caae 333d b65a b13e
000001d0: dfe7 033f 7a48 24be 5f9e e13d 8109 3f3a
000001e0: 7554 64bf 3577 3abf 1159 ebbe 77d9 f9be
000001f0: b29e 93be 1797 83bc 6567 ae3e ff13 a4be
00000200: 3585 b3be 6381 05be 1fe3 4ebd 3c15 8fbe
00000210: 2fa4 70be d0ad e03e 341f 59bc 0ff1 e93e
00000220: 91a8 163e c251 96bd 82aa 1cbf b69e 28be
00000230: 54b9 a1bd e65a 173e d456 d73e 6dec 203e
00000240: 67cd d13d 438e 49be 5507 2c3c f852 043f
00000250: a662 c3be c971 55bd f0df 18be efc8 4dbe
00000260: 95d6 06bd c402 e3be e5bc bc3d 4620 74be
00000270: 9fbf 42bf fd83 a7be 7d34 96be fa00 0ebe
00000280: 52db 23bf 8570 9c3d c530 3c3e 05ec 55be
00000290: b6a8 833e 35d9 2c3f 7ab9 7c3e 7f74 f63e
000002a0: d0e5 20be 15bc 8f3e fbd3 c4bc 7294 6abf
000002b0: 8b5a d4be 1248 26bf f442 49bf 84cd 5bbf
000002c0: 549d ccbe 6721 24bf 8415 2ebf 7532 1ebf
000002d0: 499e 56be 94ca 05bf 56a4 e6be 4da4 fa3d
000002e0: 7ee3 923e 6513 cf3d e9e7 2ebe d228 48be
000002f0: c0cd 0b3e f3b3 d93e c9c6 cabe 04bd 03bf
00000300: af8e 6c3c 77de 29bd 34d4 acbc caae c13d
00000310: fed4 c83e 633b b73e 08c9 46bf ca8c cc3e
00000320: 93ba a7be 6c23 64be 45b3 0cbf 6f2d 9a3d
00000330: 4514 533e af0d 01bf dd99 e9bc 3884 e73d
00000340: a634 d6bc d51f 80bd 1dbc 90be 000c debe
00000350: 14b2 de3d a54a 073f 51a7 bf3e 211f 023f
00000360: 9a0c ad3e 7854 1e3d 8bd6 ccbd 6dfa 823e
00000370: 89ea 13be 1845 623f a06d 113d 8748 2a3f
00000380: 0338 d73e e853 1dbe 8d59 87be 1da3 b63d
00000390: 60dd 2dbe 65df 1bbe fdc2 9bbd cf61 2bbf
000003a0: aa54 e1be 2ede 16bf 0264 7c3d 0020 b43e
000003b0: 2df5 19bf 4ac3 3c3f 5436 eebe 4819 05be
000003c0: d03b 463e 239e c6be a00b 783f 4629 87be
000003d0: fc62 973d af47 903c 9a08 ac3e d8b8 233e
000003e0: db3b 8e3e 301b 853d 5568 15bf 2bea 81be
000003f0: 8343 20bc e5aa 3ebe 95c4 17be 80b1 8bbe
0.31147546 -0.057602342 0.25621825 0.23539688 0.073136225 -0.080362484 0.5846933 0.4986042
-0.1435517 -0.3075664 -0.21803088 -0.1288027 -0.6466842 -0.37963778 -0.28623682 -0.24297339
-0.1507407 0.05177076 0.11403107 0.27906767 -0.59688604 0.56562483 -0.43765146 0.056504324
0.16142188 0.3417185 0.4364438 -0.017161056 -0.1481643 -0.22127014 -0.19298425 0.18951418
-0.48487735 -0.09787377 0.17132954 0.26916328 0.042090014 0.20583399 -0.02851236 0.51744425
0.10404993 -0.5405572 0.25579032 -0.46963093 -0.24924347 -0.51906335 -0.3279556 0.34435138
-0.7363287 -0.4508881 -0.15378635 -0.15627035 -0.48081246 -0.22412586 0.15933523 -0.20968892
-0.45528248 0.73951143 0.13892552 0.40694967 0.17221473 -0.025557995 0.54360604 -0.45322078
-0.34131685 0.09531223 -1.0471922 -0.56255996 -0.22559969 -0.5003313 -0.4029509 -0.7195985
-0.026029851 -0.14375311 -0.006264618 0.07309846 -0.26011443 -0.03907693 0.26989385 -0.08965169
-0.37991223 0.12325916 -0.033036143 0.19902825 0.30138013 0.21926774 -0.3034041 0.35295862
0.2863421 0.09737892 -0.023175709 0.12793072 -0.13825859 -0.3242627 0.12621588 0.003450525
0.20947205 -0.36669502 -0.06349386 0.26780346 -0.043817144 0.40043056 0.13785839 0.07838547
0.09545354 0.7601916 0.6846968 -0.071160205 0.10298865 -0.3542586 -0.3467039 0.013713997
0.08658239 0.36656457 0.043867864 0.3463952 0.5152568 -0.16043273 0.11016535 0.0007287488
-0.8919137 -0.72838145 -0.4596639 -0.48798725 -0.28832012 -0.016063256 0.3406326 -0.32046506
-0.35062566 -0.13037638 -0.05050957 -0.27945888 -0.23500131 0.43882608 -0.013252068 0.45691726
0.1471274 -0.07339813 -0.61197674 -0.16466793 -0.07896677 0.14780769 0.42058432 0.1571519
0.102442555 -0.19683175 0.010499795 0.516891 -0.381612 -0.052110467 -0.14929175 -0.20096181
-0.032919485 -0.44338048 0.09215716 -0.23840436 -0.7607364 -0.32717887 -0.2933692 -0.1386756
-0.6400653 0.07638649 0.18377979 -0.20890816 0.25714654 0.6751893 0.24680129 0.48135754
-0.15712667 0.28073183 -0.024026861 -0.9163276 -0.4147533 -0.6495372 -0.7861779 -0.85860467
-0.39963782 -0.6411347 -0.6800158 -0.6179574 -0.20958818 -0.52262235 -0.45047253 0.12238369
0.28689188 0.10111121 -0.17080654 -0.19546822 0.13652706 0.42520103 -0.39604786 -0.5146029
0.014438315 -0.041471925 -0.02109728 0.094571665 0.39225 0.35787496 -0.776505 0.39951164
-0.32759532 -0.22279137 -0.54961044 0.07528197 0.20613201 -0.50411505 -0.02851575 0.113045156
-0.026148152 -0.062560715 -0.2826852 -0.4336853 0.108738095 0.52848274 0.3743234 0.5082875
0.33798677 0.038654774 -0.10001858 0.25581685 -0.14444937 0.8838668 0.035504937 0.6651692
0.4203492 -0.15364039 -0.2643551 0.0891783 -0.16978979 -0.15221937 -0.076055504 -0.6694612
-0.44009906 -0.5893277 0.061618812 0.35180664 -0.60139734 0.7373549 -0.46525824 -0.12997925
0.19358754 -0.38792524 0.9689274 -0.26398677 0.07391927 0.017612306 0.33600312 0.15988481
0.2778004 0.06499326 -0.58362323 -0.25373968 -0.009781721 -0.18619879 -0.14821084 -0.2728386

res_layer_1.5.bias f4 [12]
00000000: f563 083c 5638 99b9 f7c7 873e f290 153e
00000010: 8a64 85be 5c4c b7bd 041a 753e 1b45 c7be
00000020: bc93 d53d 0a53 833d 59cb 633e 2b39 673f
0.008324613 -0.00029224408 0.2651975 0.14606073 -0.26053268 -0.08950111 0.23935705 -0.3891991
0.10428569 0.06412323 0.2224554 0.90321606

hidden_layer_1.0.weight f4 [6, 12, 3, 3]
00000000: 215e 1e3e 4625 293d 9fae 453e f1e1 6abe
00000010: c4e0 3cbb ba09 debd 9492 77bd 3be6 0a3d
00000020: ac8e 80bc 49c8 813d 3f8f bc3c ac34 1ebd
00000030: bd47 0cbe e492 6b3e bddd 0a3e bd41 f5bd
00000040: 7052 fcbd 3cf7 e33d 6e96 813d fed5 273e
00000050: 9d14 013e a1f7 d73d e494 383e 0e47 3abe
00000060: 9358 a9bd c881 59be 3947 aebd a9e4 993e
00000070: 2982 6cbd 9ce6 8a3d e79c 5cbd 2aa9 3e3e
00000080: 2e75 5fbe da4c 7a3e 53d7 03bd 70ee 69be
00000090: 2c3e e5bd 592e 753d 8bf7 2b3e 8a8f 80be
000000a0: c3ce 2b3d df6e 643e f4ff 053d 8017 b53d
000000b0: 7f5f 9b3e d701 873e 96e7 c3be 6923 463d
000000c0: aeed 43be cf30 b83e 2122 48bc 7f65 723e
000000d0: eb66 563e 854e 89b8 51b4 873d 4fa7 f03c
000000e0: 744d d2bb 5df6 4f3e 682d 17bd c8d2 333d
000000f0: f569 253d 624c 0abe 4dcd 73be b55b a43c
00000100: 4e6a 453e 0ddf b0bc 35b0 093d 0271 b6bd
00000110: 0311 2abd de02 e5be 924a c43d 703b fb3b
00000120: e18e acbd 8a9c 89be 4170 27be 407f 1dbe
00000130: f33e 7e3e bbeb 7cbd d3ef 033e 424a aa3e
00000140: 5463 eb3e be59 00be ade3 4d3e b53f 043e
00000150: ef4c 1c3d 1839 3cbe 3314 fa3d 93a9 c9be
00000160: 5173 5bbd 0b54 c63d f7d0 2c3e 3fc3 0bbe
00000170: f149 4d3c 57ef 81be 7554 313e 57cb 52be
00000180: 9a19 fe3d 5e51 013e 2ca9 213e c744 a1bc
00000190: dc74 033e aac3 25bd 25ac 473e 6841 8ebd
000001a0: 5156 06bf 9985 433c c0b8 cabd 39a9 ea3e
000001b0: 7a46 2a3e 6b68 6b3e 350f b2ba dc84 64bd
000001c0: 6d06 e7bd e456 3fbe f0b5 cb3e 77fe ab3e
000001d0: 9c01 ecbb cfcc 95be f8e3 f5bd 0988 1e3e
000001e0: edf7 023e 0118 3a3e c30a a8bc a6e5 023e
000001f0: 9fa0 5f3e 988a 0e3f c41b c4be dc5d e43d
00000200: 2270 dbbd 079b 8ebd 8881 34bd 8c01 603e
00000210: afd8 ab3d 8b8a 253d d161 b8bd 0b0b 3fbd
00000220: 2c43 0d3e df1f 61bd 94cd 173e a544 98bc
00000230: 5f20 d93c 89e1 8e3e e55b a93e fb13 86bd
00000240: dc2c c7be 1700 73be d7c7 93bd 083f fe3c
00000250: 6187 e4bd 8c07 11be 8210 88be 8327 5fbe
00000260: 0280 4c3e c37a 43be 653b 8d3d e61d 8abe
00000270: 5c42 263e 650d c83c 320e 853e 6821 84bc
00000280: d34b 223f e193 013e d761 84bc 8fc0 43bd
00000290: b2db 423e f39d babd 1b06 e43d 6db3 e33d
000002a0: 0354 afbc 62c9 c9be 27c8 8abe 3d59 983e
000002b0: 63b2 aebd 3b8e 9cba 8e9b 92bc 3d88 4bbe
000002c0: 6f30 dc3d b604 5e3c 3590 623d 5c0e 39be
000002d0: 661a 2dbe bfb3 42be 925b 60be fb79 f7bd
000002e0: 873d cbbd 7145 dd39 22f3 b5bd 53c0 283f
000002f0: 9001 703e a26f 3abd 8d86 8e3e 753d d03e
00000300: 7e8b eb3d faf4 b0bd 9576 b1bd 6a92 ce3e
00000310: fcb3 8a3c 4d2c f43c 11fe 103e c50f 893d
00000320: 8799 2dbe 39c2 013e 902b 24be ee11 99be
00000330: 3341 b3bc dda3 ca3e 4a80 8d3d a034 673e
00000340: 9881 38be 6481 08be 958b 2e3d 36a2 0fbd
00000350: bcc1 89be 7423 013e 50f6 173e c3bd 903d
00000360: b8d4 2a3e 7b45 c3bd 4e0e 0b3d 0be0 31bd
00000370: 02c1 c63e fa57 bdbd d85a ff3c d488 743e
00000380: 6e9e cb3c 2181 18be 86c1 ccbd 85b0 753e
00000390: 1693 8f3e 4842 483e af84 243e ec2c 0abe
000003a0: 3c0b c13e de3b 60be 37e2 80be 584c 4f3e
000003b0: 76a7 5b3b 938b 0a3e a4fd 3c3e a6a3 a63e
000003c0: 5689 a93e c018 1dbe f550 a0bc 1bfd 6b3e
000003d0: f763 fc3b aabc f63d 368e 8ebd 53a7 a23e
000003e0: 5118 4bbe d83d 613e dcc7 92be fa8d c43e
000003f0: 24b4 6ebc 0dbb 0e3e cd31 a83c 3daf f5bd
0.15465595 0.041295312 0.19304894 -0.22937752 -0.0028820494 -0.10841699 -0.060442522 0.03391097
-0.015693031 0.063370295 0.023017524 -0.03862445 -0.13699241 0.23005253 0.13561149 -0.11975429
-0.12320411 0.111311406 0.0632752 0.16390225 0.1260552 0.10545278 0.18025547 -0.18191168
-0.08268847 -0.21240914 -0.085096784 0.30057266 -0.057741318 0.067822665 -0.05386057 0.18619218
-0.21822044 0.24443379 -0.03218777 -0.22844863 -0.11193499 0.059858654 0.16793649 -0.25109512
0.04194523 0.22307919 0.0327148 0.08842373 0.30346295 0.2636859 -0.38262624 0.048373614
-0.19133636 0.35974738 -0.012215168 0.2367153 0.20937698 -6.5472945e-05 0.066261895 0.029376654
-0.0064179245 0.20308824 -0.036908537 0.04390219 0.04038425 -0.135057 -0.23808785 0.02006326
0.19278833 -0.021590734 0.03361531 -0.08908273 -0.04152013 -0.4472875 0.09584536 0.0076669976
-0.084256895 -0.26877242 -0.16351415 -0.15380573 0.248287 -0.061748248 0.12884454 0.3325978
0.4597422 -0.12534234 0.20106383 0.12914927 0.038159307 -0.18381155 0.12210884 -0.39387187
-0.05357677 0.09683999 0.16876589 -0.13648699 0.012529836 -0.25377914 0.17317374 -0.2058538
0.12407227 0.12628695 0.1578719 -0.019686116 0.12837547 -0.040469803 0.19499262 -0.06946069
-0.5247546 0.011933708 -0.098985195 0.45832232 0.16628447 0.22989051 -0.0013584854 -0.055790767
-0.112805225 -0.1868549 0.39787245 0.3359258 -0.0072023403 -0.2925782 -0.12006372 0.15481581
0.12789889 0.1817322 -0.020512944 0.12782916 0.21838616 0.5568023 -0.38302433 0.11150715
-0.10714747 -0.06963163 -0.044068843 0.2187559 0.083909385 0.040415328 -0.09003032 -0.04664139
0.13795155 -0.054962035 0.14824516 -0.01858742 0.026504694 0.27906445 0.33077922 -0.0654678
-0.38901412 -0.23730503 -0.07215851 0.031035915 -0.11158634 -0.14163035 -0.26575094 -0.21792416
0.19970706 -0.19089799 0.06896094 -0.26975936 0.16236252 0.02442045 0.25987393 -0.01612921
0.6339695 0.12654068 -0.016159935 -0.04779106 0.1902912 -0.09112158 0.11133977 0.11118207
-0.021402365 -0.39411455 -0.2710583 0.29755583 -0.08530118 -0.0011944243 -0.01789644 -0.1987619
0.107514255 0.013550928 0.055313308 -0.18071884 -0.16904601 -0.1901388 -0.21909931 -0.12083813
-0.09923845 0.00042204143 -0.088842645 0.65918463 0.23438096 -0.045516618 0.2783703 0.40671888
0.115012154 -0.086404756 -0.08665196 0.4034608 0.016931526 0.02980628 0.14159419 0.06692461
-0.16953097 0.12671746 -0.16032243 -0.29896492 -0.021881675 0.39578143 0.06909235 0.22578669
-0.18018186 -0.13330609 0.042613585 -0.035066806 -0.2690562 0.1261118 0.14840055 0.07067444
0.16682708 -0.09534737 0.03394919 -0.043426555 0.38819128 -0.09245296 0.031171247 0.23880321
0.024855819 -0.14893009 -0.09997849 0.23993118 0.28041905 0.19556534 0.1606624 -0.13493699
0.37703884 -0.21897838 -0.25172588 0.20243967 0.0033516563 0.13529806 0.18456131 0.3254673
0.33112592 -0.15341473 -0.019569853 0.23045771 0.0077023464 0.120477036 -0.06960718 0.31768283
-0.19833495 0.21996248 -0.28668106 0.3838957 -0.014569316 0.13938542 0.02053156 -0.11996315

hidden_layer_1.0.bias f4 [6]
00000000: 2de3 053f 9a8a d9bd f560 c93e 3623 09bf
00000010: b42e a2be c67b ca3e
0.5229977 -0.10622139 0.39331785 -0.5356935 -0.31676257 0.39547557
