client/backend/wri-w2wh-back/python_scripts/training/KRS/outflow_model.pth (torch, 76015 bytes, 16 tensors)

month_emb.weight f4 [12, 64]
000000 a1 16 20 bf 43 ca 3f 40 cd c0 ab be 85 ee 84 bf
       -0.6253453 2.99672 -0.33545533 -1.038529
000010 67 55 aa be 02 ce 1f 3f d5 11 05 bf 6f 5e 0e 3f
       -0.33268282 0.6242372 -0.51980335 0.55612844
000020 5a 5b bd bc dd bb 94 bf 47 da 02 be 51 9a 42 40
       -0.023114849 -1.1619831 -0.12778579 3.0406687
000030 9d 09 d2 3e da 29 e5 3d 3e c1 40 3f 9e a5 2f 3f
       0.4102296 0.11189623 0.75294864 0.68612087
000040 13 5e f5 be ce 3c 1c 40 3d dc c9 3e 19 8a a0 3f
       -0.47923335 2.4412112 0.3942584 1.2542144
000050 75 18 b9 bf f0 0b c6 3d 63 90 f1 be 74 5f 85 3e
       -1.4460589 0.09670246 -0.4718047 0.26049387
000060 ac 1f 21 3e bc c2 83 bf a1 ce 95 bd c4 f1 31 be
       0.15734738 -1.0293803 -0.07314802 -0.17377383
000070 e8 77 da 3f bc 8f 9b be 77 a5 e8 be 41 f3 08 bf
       1.7067842 -0.30383098 -0.4543874 -0.53496176
000080 90 20 b2 3e 1a c3 18 c0 2b e2 e0 be c7 ec 24 3f
       0.34790468 -2.386908 -0.43922552 0.64423794
000090 d4 c1 05 3f 23 b7 77 bf a3 bb 6e bd 91 29 50 be
       0.52248883 -0.9676382 -0.058284413 -0.20328356
0000a0 6e fe 2f bf fb a1 39 bf 4e af 0c 3f a3 af e4 3f
       -0.68747604 -0.7251279 0.54954994 1.78661
0000b0 1a b8 3d 3f 9c 75 8c bf 12 77 d4 3f b0 17 6e 3d
       0.7410904 -1.0973392 1.6598837 0.05812806
0000c0 d8 6d b9 be b8 88 ea be e4 d1 84 3f ab 9b cb bf
       -0.36216617 -0.45807433 1.0376554 -1.5906881
0000d0 8a 84 21 c0 cc c9 14 bf 4d 4e 99 3f b0 cf 2e bf
       -2.5237145 -0.5812042 1.197702 -0.68285656
0000e0 81 44 90 3f 9c aa 19 3f 14 00 c4 bf 76 56 53 40
       1.1270906 0.60025954 -1.5312524 3.3021522
0000f0 8e 41 14 bd c7 77 62 bf 55 c0 79 3e a2 80 d7 bd
       -0.03619533 -0.88464016 0.24389775 -0.10522582
000100 42 9b 27 bf 73 49 af be fd 2d 8f bf f0 1e 70 3f
       -0.6547128 -0.34235725 -1.118591 0.93797207
000110 61 d7 93 bf 38 41 7a bf d4 d5 e8 bc 7a 66 09 3e
       -1.1550103 -0.97755766 -0.028422274 0.13417998
000120 bf 50 b3 be b8 18 1b c0 c0 1c 97 be ce b5 f0 bf
       -0.35022542 -2.4233837 -0.29514122 -1.8805482
000130 3b 49 0a 3f ba 6d 21 be ed c7 b5 3f 04 71 c5 3f
       0.5401799 -0.15764514 1.4201638 1.5425115
000140 ef 4d 2e bf 12 53 94 bd 23 9c a5 bf 3f dd 86 be
       -0.6808767 -0.07242407 -1.2938274 -0.26340672
000150 83 07 87 bf 8c 21 e9 bf a8 47 80 bf 9b 01 2f 3e
       -1.0549167 -1.8213363 -1.0021868 0.17090456
000160 f6 40 1a 3f 1f 36 9f bf f7 00 c6 bf 6d 88 e8 bf
       0.6025537 -1.2438391 -1.5469044 -1.8166634
000170 e1 4a 60 be 9e 0b 9f 3f ba 72 ad bd f3 76 c6 bf
       -0.21903564 1.242542 -0.08469148 -1.550505
000180 e2 55 d3 3f b0 42 23 3f cd 85 ce 3f c2 6d dc 3f
       1.6510584 0.6377363 1.6134583 1.7220995
000190 0b c2 41 3f 87 14 3c be 19 01 bb 3e 55 ce ad 3f
       0.7568671 -0.18367206 0.36524275 1.3578593
0001a0 56 02 b8 3d 24 a9 0a bf 62 b5 8e bf 6d 1c c0 3f
       0.089848205 -0.5416434 -1.1149104 1.5008675
0001b0 bb 6f b0 3e 3b 31 fd bf 00 7d bf 3d f5 54 4d bf
       0.34460244 -1.9780649 0.09350014 -0.8020776
0001c0 cd 5a ae bf 94 aa 67 be e1 fd 10 3f 11 a9 de 3e
       -1.362146 -0.22623664 0.5663739 0.43488362
0001d0 50 82 3c 3f 7b aa ba bf be 87 a2 bf 4e df 16 3e
       0.7363634 -1.4583277 -1.2697675 0.14733621
0001e0 14 88 18 c0 1f 4e bc be eb 34 e2 be 64 64 a3 be
       -2.3833055 -0.36778352 -0.44180998 -0.3191253
0001f0 8a 7e 1d 3f 8e 39 25 3f c9 63 e8 bf b0 d9 81 3f
       0.6152121 0.64540946 -1.8155452 1.0144558
000200 fe ea c9 be 20 8a c7 bf 9d 31 e3 bf 48 bd d3 3f
       -0.39437097 -1.5589027 -1.7749516 1.6542139
000210 a9 c1 03 be 7e d4 b1 bf 12 d3 83 3e 41 3b 36 3e
       -0.12866844 -1.3892972 0.2574697 0.17796041
000220 ea b0 04 40 12 e8 05 3f c4 7e 84 bf b5 58 d2 3e
       2.073298 0.52307236 -1.0351186 0.41083303
000230 4c ac e0 3f fe b7 3e 3e 4c ab 4c 40 8a 38 a5 3f
       1.7552581 0.18624875 3.1979551 1.2907879
000240 55 e7 03 c0 f0 1a 73 be 9a f1 1c bf ac 36 55 3f
       -2.0609944 -0.23740745 -0.61306155 0.8328655
000250 06 04 2e c0 2c f0 41 3f f2 cc 0e bc 25 3c 7d 3f
       -2.7189956 0.757571 -0.008715855 0.989199
000260 ef 31 f5 be f4 e0 7e bf 6e 72 a0 bf f1 8d 96 bf
       -0.4788966 -0.99562 -1.2534921 -1.1762067
000270 55 e2 bd 3f 1e fe e3 be ac e2 c0 bf c3 ba 55 3e
       1.4834696 -0.44529814 -1.5069175 0.20872025
000280 0f 5f 3d bf 78 d7 2d 3f cd d6 02 40 d2 99 2e 40
       -0.7397317 0.67906904 2.0443604 2.7281384
000290 92 09 00 3f f1 17 77 bf f0 c3 11 bf 61 f2 83 bf
       0.50014603 -0.96520907 -0.569396 -1.0308343
0002a0 fa 77 71 bf 74 53 71 bf c1 d3 e0 bf c6 57 7c 3f
       -0.94323695 -0.94267964 -1.7564622 0.9857143
0002b0 4b 22 97 be 5a b7 31 bf 7e b0 1e 40 ab cc 21 40
       -0.2951835 -0.694204 2.4795222 2.528117
0002c0 c0 b8 96 be 7a 70 8e bd 2e 9b e3 3f b1 b2 03 c0
       -0.29437828 -0.06955047 1.7781732 -2.0577815
0002d0 89 13 b9 3e 88 0c 5c be f9 07 06 40 77 8a e8 bd
       0.36147717 -0.21489155 2.0942366 -0.11354535
0002e0 f7 8f bf bf 09 58 61 bf f1 0b 96 bf 22 2d f6 3f
       -1.496581 -0.88024956 -1.1722394 1.9232523
0002f0 c5 c6 4c 3e e3 62 5d 3f 38 86 a9 bf 33 94 e8 be
       0.199977 0.86479014 -1.3244085 -0.45425567
000300 4b 02 cc bd d2 0b 17 bf bc d8 50 be 32 15 e0 3f
       -0.09961375 -0.5900241 -0.20395178 1.7506468
000310 5e 8e c1 3f 0f ae 01 c0 aa 21 b1 3f 1f 07 ee 3e
       1.5121572 -2.0262487 1.3838398 0.46489808
000320 09 c2 3c 40 7c 91 c7 3f 4c 59 17 c0 c4 fd 6a bf
       2.949343 1.5591273 -2.3648252 -0.91793466
000330 ee c5 92 3e c8 87 80 3f f0 8e 5b 3e cd b8 47 3f
       0.28666633 1.0041437 0.21441245 0.7801636
000340 7b ea 80 bf d2 40 32 3f ca ec 2b c0 6a 9c 9a 3e
       -1.0071558 0.6963016 -2.6863275 0.3019746
000350 14 32 ba be d5 6a 80 be 52 07 d3 bd 37 45 8d bf
       -0.36366332 -0.25081506 -0.103041306 -1.1036748
000360 27 91 a4 bf 18 d0 ca bc a2 f4 00 3d 42 06 11 c0
       -1.2856797 -0.02475743 0.0314833 -2.266007
000370 67 1b 3d 3e 5d a9 36 bf 1b 12 eb bf 64 18 1a bf
       0.18467484 -0.7135218 -1.83649 -0.6019347
000380 44 3b 9e bf 20 c4 5d bf 62 ab 69 3f e0 13 67 3f
       -1.2361836 -0.8662739 0.91277134 0.902647
000390 26 ad a4 3e 22 01 35 c0 b0 c3 95 3f 97 c0 98 be
       0.32163352 -2.8281941 1.1700344 -0.29834434
0003a0 dc 80 f9 be f0 6c e8 3e 10 3b b0 bf 5c 2d ae 3f
       -0.48731124 0.45395613 -1.3768024 1.3607593
0003b0 e6 9f c7 be 35 5a 64 3f 99 d2 70 3f 85 ac db 3f
       -0.3898918 0.89200145 0.94071347 1.7162024
0003c0 d5 cb 05 bf c9 23 ca bf b4 1c 5f 3c f6 05 ce bf
       -0.5226415 -1.5792171 0.013617683 -1.6095569
0003d0 f0 c9 e7 be e0 27 c6 3f 70 28 f3 3e 59 f0 3d bf
       -0.45271254 1.5480919 0.4749179 -0.74194866
0003e0 06 d9 aa 3e 43 34 37 bf ac 75 3f bf 13 63 5f 3e
       0.333687 -0.7156412 -0.7478893 0.21815138
0003f0 c4 3a d0 3f a0 cc 6d 3f 7e 1c 15 bd fb 7f 07 40
       1.6267934 0.9289036 -0.036404125 2.1171863

date_emb.weight f4 [31, 64]
000000 5f 97 0b 40 b0 f0 a6 bf 54 da 37 bf 25 ae 85 3f
       2.181114 -1.3042202 -0.7181752 1.044377
000010 05 5f d4 3f 10 b9 76 3f 26 da 91 be 38 04 fb bf
       1.6591498 0.9637613 -0.28486747 -1.9610662
000020 7a 1d 70 bf 3d b4 7a 3f 98 09 54 3f 7f 7a 3f be
       -0.9379498 0.9793127 0.8282714 -0.18699072
000030 ca da 1a 3f b4 fc aa 3f c3 1a d7 bf ff d5 9d 3e
       0.60490096 1.3358369 -1.6805042 0.3082733
000040 44 0d 3f 3e a5 33 0e c0 0e d4 4a be 25 4e 5f bf
       0.18657404 -2.2219021 -0.19807455 -0.87228614
000050 60 2e 62 bf 50 49 88 3f 84 13 89 bf bb 95 11 bf
       -0.8835201 1.0647373 -1.0709081 -0.56869096
000060 d4 dd 0f 3f b2 a9 33 bf 7e cd b1 3f 9e c4 0e 3f
       0.5619786 -0.7018081 1.3890836 0.55768764
000070 63 8c 22 3f 10 d2 73 3f 38 6b 44 be 69 1a 12 40
       0.63495463 0.95242405 -0.19181526 2.282862
000080 dd 01 87 bf 4b 56 ce be db cd 54 3f 32 2e 96 3f
       -1.0547444 -0.4030021 0.8312661 1.1732848
000090 8e cd a8 3e 41 16 b3 3f 64 b6 07 3f 0a 2f 30 3f
       0.32969326 1.3991166 0.5301268 0.68821776
0000a0 bf e9 10 bf f7 a6 ad bf 6f 70 d4 3e 08 a6 da bc
       -0.5660667 -1.3566579 0.4149203 -0.026690498
0000b0 9e 70 44 bf c0 1f 12 bf c1 49 fe bf 31 c2 b2 3e
       -0.7673434 -0.57079697 -1.9866258 0.3491378
0000c0 34 bd de bd 5a 83 e3 be 94 08 24 bf 4c 86 0c 40
       -0.108759314 -0.4443615 -0.6407559 2.1956968
0000d0 99 80 b6 be f9 75 af bf 59 85 7a be b4 2f 6f 3e
       -0.35644987 -1.3707877 -0.2446493 0.23358041
0000e0 4d 44 6c be 21 2b 04 3f 77 fa 2c 3f b2 18 b1 bf
       -0.2307293 0.5162831 0.6756968 -1.3835661
0000f0 0d e7 02 c0 fd a8 d1 3e 0d 12 f5 3e 70 4d 24 3d
       -2.0453522 0.4094924 0.47865334 0.040112913
000100 d2 6e 3e 3f 73 a2 f6 be ed ac 93 3f 09 99 1d 40
       0.7438785 -0.48170814 1.1537148 2.4624655
000110 64 c1 08 3f 33 6d ba be 5e bc 24 3d c6 01 c2 bf
       0.5342009 -0.36411437 0.040218703 -1.5156791
000120 ee 8d 25 3f fd c9 d9 3e 6c 29 f3 3f f8 03 36 3e
       0.6466969 0.42536917 1.8997016 0.17774951
000130 35 e2 84 3f ee d6 b1 bf dc 08 7f bf 8b a0 bb be
       1.0381533 -1.3893716 -0.99622893 -0.36645922
000140 b1 8b 86 3f e7 f7 fb bf 14 ad 96 bf ed fb 73 3e
       1.051138 -1.9685029 -1.1771569 0.23826571
000150 82 6e cb bc 94 74 d6 3e 50 ad 96 3f 20 49 c4 bf
       -0.024832968 0.41885817 1.1771641 -1.5334816
000160 76 de 62 3f 53 9c 54 3f bf d4 36 3f 65 b4 d3 3f
       0.886207 0.8305103 0.71418375 1.6539427
000170 0d f4 13 3f 9d bc 00 40 89 73 2c 3f 9f 36 45 3f
       0.57794267 2.011512 0.6736379 0.7703647
000180 a6 f1 d7 bf 12 81 28 bf 11 62 98 3e 81 68 40 be
       -1.687062 -0.65821946 0.2976232 -0.18789865
000190 03 12 d4 be 9d 2f 9a bd 76 56 39 3d cf 60 57 3e
       -0.41419992 -0.07528613 0.04524847 0.21033023
0001a0 79 86 cb 3d 68 d0 67 3f 61 b8 97 bf 95 fa ca be
       0.09937758 0.9055238 -1.1853143 -0.39644304
0001b0 2b ba 0b bf b6 cb e7 3f d6 d5 96 3f b8 43 56 bf
       -0.54580945 1.8109043 1.1784008 -0.8369708
0001c0 93 6d 22 3e 36 7d 3d c0 53 69 51 bf b6 6b e2 be
       0.15862112 -2.9607673 -0.81801337 -0.44222802
0001d0 de 2a 3e 3f 21 07 7e 3e a7 84 83 3f c1 ad 34 3f
       0.7428416 0.24807407 1.0274857 0.7057763
0001e0 da 15 d1 be 8e d7 80 3f 95 a7 fe 3f f0 2d 76 bf
       -0.40836984 1.0065782 1.9894892 -0.96163845
0001f0 15 1d c0 be 6e ac 69 be 77 78 70 bf e5 1d 38 be
       -0.37522188 -0.22819683 -0.93933815 -0.17980154
000200 10 ea 8e 3f 03 27 52 3f 39 f1 03 40 0a 31 cd 3e
       1.116518 0.8209078 2.061598 0.40076476
000210 cc 23 7e 3f 73 de d1 3e d7 b6 0b 3f c8 f7 5f bf
       0.9927337 0.40990028 0.54575866 -0.8748746
000220 d2 07 63 3f d5 94 87 3f 44 93 94 bf 1b ca e5 3f
       0.8868381 1.0592295 -1.1607442 1.7952303
000230 4d 7d 14 3f 52 45 05 3f 82 cc c9 bf a0 00 85 3f
       0.58003694 0.520589 -1.5765536 1.0390816
000240 b7 49 3d bd 51 2d 7c be 7a 06 0b bf 05 2b 93 3f
       -0.046212878 -0.24626662 -0.5430676 1.1497504
000250 4e 16 89 bf 1f 18 c4 3d 0e 80 df 3f 57 da ba 3e
       -1.0709932 0.09574913 1.7460954 0.36494705
000260 02 e3 f7 3f f3 8e 86 3e 29 cc 16 3f 20 ad 79 3f
       1.9366152 0.26280937 0.58905274 0.9752979
000270 88 f6 96 3f c1 db dc 3f 37 16 94 3f 0d f8 9b 3f
       1.1793985 1.7254564 1.156928 1.2185074
000280 ff 1d cc bf 74 d2 fc be 36 f9 19 bf b6 d0 a5 3f
       -1.5946654 -0.49379313 -0.6014589 1.2954319
000290 ea 3f 24 3f 37 3b ad 3d 4b 70 03 bf a1 c3 4a bf
       0.64160025 0.0845856 -0.5134322 -0.79204756
0002a0 08 a4 79 3f d0 be d6 3f aa 91 54 3f 54 0d b0 3e
       0.97515917 1.6776981 0.83034766 0.3438517
0002b0 f8 6f 29 bf 7e 6c 8b bf b5 a2 8f 3f a1 88 47 3e
       -0.66186476 -1.0892484 1.1221529 0.19485714
0002c0 84 ed b2 3c 27 c9 cf be 1a b8 e5 3f 35 b1 b1 3e
       0.021841772 -0.40583155 1.7946808 0.3470551
0002d0 6a 1a a0 3f bd d3 15 bf de 1a 0c 3f e1 1d fc be
       1.2508061 -0.5852621 0.54728496 -0.49241546
0002e0 ae 28 67 3e 92 16 44 40 01 7c 76 be 70 12 f8 bf
       0.22574112 3.0638776 -0.24070741 -1.9380627
0002f0 25 24 e7 be 69 4c a6 be 6e 05 37 bf 3a 28 c0 3e
       -0.45144764 -0.3248017 -0.7149266 0.3753069
000300 20 96 67 3f c8 b0 fa bf 0e 2e f5 bf 6f 47 d9 bf
       0.9046345 -1.9585199 -1.915468 -1.6974925
000310 c2 2c cf 3f 82 82 e2 3d 1f d5 12 bf 8f f1 68 bf
       1.6185534 0.11060049 -0.57356447 -0.9099359
000320 ea 33 5d bf 7d a5 a7 3f 5d a0 19 c0 70 09 ed 3e
       -0.8640734 1.3097378 -2.4004128 0.46296263
000330 98 98 2c be 3b e6 63 3d 06 b3 94 be be 0d 08 c0
       -0.16855085 0.055639487 -0.29042834 -2.1258388
000340 8e 69 30 3f f4 58 1d bf 8d ac 6f bf ac 33 4f bd
       0.68911064 -0.61463857 -0.93622667 -0.050586388
000350 aa e8 25 be 89 15 7e 3e 06 43 5c 3f 83 61 16 3e
       -0.16202036 0.24812903 0.8603977 0.14685635
000360 c4 91 b6 3e 03 e6 83 bf 60 c4 0a c0 af 98 50 bf
       0.35658085 -1.0304569 -2.1682358 -0.81482977
000370 86 2d 2c be 4c 8c 8f 3e 71 ed 84 bf 37 54 8a bf
       -0.16814241 0.28036726 -1.0384961 -1.080695
000380 87 fb 64 bf dd b8 03 c0 77 52 a7 3f 14 89 c2 be
       -0.894463 -2.0581582 1.3072041 -0.37995207
000390 7b 0c b1 3d a2 93 d9 be 59 9e d3 3f ea 39 13 3f
       0.086449586 -0.42495447 1.6532699 0.57510245
0003a0 ad 79 88 bf 5e 8e 81 bf 5d 6c 8b bf 8e 1a ae 3e
       -1.0662133 -1.0121572 -1.0892445 0.34004635
0003b0 c5 0a 52 bf d1 c3 6f 3f 6c 7d 9c bf de 17 7e bf
       -0.82047683 0.9365817 -1.2225776 -0.9925517
0003c0 7f 61 9b be ed 3f 8d 3f 22 d2 20 bf b8 99 c3 3f
       -0.3034782 1.1035134 -0.6282064 1.5281286
0003d0 56 06 0b c0 d1 db 55 be 1b 88 68 3f 2c 9c da be
       -2.1722617 -0.20884635 0.9083268 -0.42697275
0003e0 63 09 43 3f 6a d4 ef 3e 30 0f eb be 11 22 15 3f
       0.761862 0.46841747 -0.45910025 0.58255106
0003f0 65 d2 8a 3f 2f 6c 2f bf 32 f6 35 be 47 1c 09 3e
       1.0845457 -0.6852445 -0.17769697 0.13389693

season_emb.weight f4 [3, 64]
000000 30 87 9d 3f 75 1b 03 bf 39 ab c8 3f ee 8e c8 bf
       1.2306881 -0.5121377 1.5677253 -1.5668619
000010 1b ed b6 3e 81 a9 a8 be 19 4e a5 3f 27 a8 0b 3f
       0.35727772 -0.3294182 1.2914459 0.54553455
000020 a7 eb bc bf 8b b1 70 3f 6f 11 bf bf 77 d9 87 3f
       -1.4759415 0.9402091 -1.4927195 1.061324
000030 87 df 06 3f 50 9f 78 bf 67 04 5b 3f 55 8c 37 bd
       0.52684826 -0.9711809 0.8555359 -0.044811565
000040 20 59 ea 3e cb d8 5a be bf 45 f4 bf b6 99 6b 3f
       0.45771122 -0.21371762 -1.9083785 0.9203142
000050 9c 6b ac bf 89 5a b0 3f 93 25 0b 40 15 2b 17 40
       -1.347034 1.3777629 2.1741683 2.3620045
000060 de f9 90 3f ea 87 5d 3f 7e 18 00 be 5b 07 be 3f
       1.1326253 0.86535513 -0.12509343 1.4845995
000070 6a 49 6c 3f cb 6c 1e 3d da 4d 40 be 2b cd 76 bf
       0.9229952 0.03867797 -0.18779698 -0.9640681
000080 b0 fc a8 3f fb 7d 21 3f 00 d4 3f 3f 5c 1b 78 3f
       1.3202114 0.63082856 0.7493286 0.9691675
000090 9e 00 ab 3f 2f d7 24 bf 61 46 d8 3e 57 52 b2 bf
       1.3359563 -0.64390844 0.42241195 -1.3931378
0000a0 a9 d8 18 3f ef c6 1e be 45 aa 05 bf 4d 35 a0 bf
       0.597056 -0.15505575 -0.52212936 -1.2516266
0000b0 2b 6d a2 3b 90 86 0e bf e5 74 f6 bf bc 00 93 3e
       0.0049568615 -0.55674076 -1.9254423 0.28711498
0000c0 53 be c9 bf b2 1b 82 be 5d b9 4f 3f 6e 89 77 3f
       -1.5761207 -0.25411755 0.81142217 0.96694076
0000d0 ed 0b c1 bf 67 c1 6e 3e 5b 0b 15 bf 43 b4 86 3f
       -1.5081764 0.23315965 -0.5822045 1.0523762
0000e0 61 5d cf bf f3 3d fa 3e 38 57 ad 3f 70 77 f4 3e
       -1.6200372 0.48875389 1.3542242 0.47747374
0000f0 85 b1 81 3f 94 36 7f bf a8 22 3f 3f 6b 68 cd bf
       1.01323 -0.99692655 0.74662256 -1.6047491
000100 a4 b1 6d 3d db 44 45 3f f2 d2 75 3f 16 33 8f bf
       0.05803074 0.7705819 0.96025 -1.1187465
000110 58 fd 23 40 15 7b 1f bf c2 96 0f 3f 32 01 9a 3f
       2.5623379 -0.62297183 0.56089413 1.2031615
000120 3d 3d dd 3f 37 7b 41 3e d7 af cf bf dd 8c 80 3f
       1.7284313 0.18894659 -1.6225537 1.0042988
000130 83 5e 1c 40 f0 c8 22 bf 96 f7 43 bf fc f0 44 bf
       2.4432685 -0.63587856 -0.7654966 -0.7693021
000140 01 36 56 3f b3 5d eb 3e 32 2a 3b bf ed bd f6 bf
       0.83676153 0.45969924 -0.7311126 -1.9276711
000150 0a db 0f c0 09 89 85 3f 15 1b c3 3f 54 09 18 3f
       -2.247744 1.0432445 1.524264 0.59389234
000160 c5 64 cb 3f 30 4c 9a 3f c3 6a b9 be 58 e7 18 be
       1.5890127 1.20545 -0.36214265 -0.14932
000170 ff 76 66 3f 2a 8f 2d c0 8c ee a3 3e a5 b0 8f bf
       0.90025324 -2.711863 0.32017934 -1.1225783
000180 95 50 c6 be 9c 8e e0 bf 44 d5 53 3e 67 20 ba bf
       -0.38733354 -1.7543521 0.20686823 -1.4541138
000190 a0 fc 98 3e cc d4 67 3f 4e f0 7d 3d 65 ff 03 bf
       0.29880238 0.9055908 0.06199675 -0.51561576
0001a0 a4 1d ce 3f 5a da e4 bf e1 18 95 3f 40 4e 8e 3e
       1.6102796 -1.7879136 1.1648217 0.27794075
0001b0 16 7b e9 3e 6a e9 c1 bf 5f bd af 3f f9 c2 51 bf
       0.4560172 -1.5149357 1.3729666 -0.8193813
0001c0 1e d9 ac bf cc 5b 22 bf ce 0d aa be d4 e7 1f be
       -1.3503759 -0.6342132 -0.33213657 -0.15615779
0001d0 fe c8 36 3f ce 78 53 3f f8 fa 39 3f 8e 70 0d bf
       0.7140044 0.8260621 0.7264857 -0.5524987
0001e0 29 c7 0f 3f a2 dd ec 3f b2 da ac bf 8a b9 b7 3f
       0.5616327 1.8505137 -1.350424 1.4353497
0001f0 41 e6 ba bf 4a ad 4b bf 34 4d 25 3e 90 23 1b be
       -1.4601518 -0.79561293 0.16142732 -0.15150285
000200 da 5a 9c 3f a6 be b1 be 52 8e 0b 40 9c 7f bb bf
       1.2215226 -0.34715766 2.1805615 -1.4648318
000210 82 82 84 bf f0 3c cb bf 6f a2 37 3e 61 56 63 3f
       -1.0352328 -1.5877972 0.17933057 0.8880368
000220 df ea dd bf bb 64 31 3f f9 5f 10 c0 60 25 a5 3f
       -1.7337302 0.6929433 -2.2558577 1.2902031
000230 d9 91 d7 3f 0a a5 41 3d fe a0 ec 3f 0a 0d 45 bf
       1.6841384 0.047276534 1.8486631 -0.7697302
000240 ec 43 5c 3f a9 d5 af bf fb d8 f4 bf a1 c1 2e bf
       0.8604114 -1.3737079 -1.9128717 -0.68264204
000250 29 3b c2 bf 47 e1 35 bf a0 b8 a3 3e 9d b7 9b 3f
       -1.5174304 -0.7104687 0.31976795 1.2165409
000260 bb 9d 6d bc 39 0a 94 3f 4e 20 09 40 2b 05 80 be
       -0.014502938 1.156562 2.1425967 -0.25003943
000270 b3 2a 08 bf 4a b8 98 3f 62 04 7a bf cd 95 09 c0
       -0.53190154 1.193124 -0.9766294 -2.149768
000280 64 d0 f9 3f 30 b3 53 3f b4 c8 ba 3f 1b 53 e0 3f
       1.9516721 0.82695293 1.45925 1.7525362
000290 62 86 f3 be 4e 3f 25 bf 6b bf da 3f 4e b8 07 3f
       -0.47563463 -0.6454972 1.7089666 0.530156
0002a0 ab de 83 3e be 94 db bf 3d 4a 9a bf 4e 24 f0 be
       0.2575582 -1.7154768 -1.2053906 -0.46902698
0002b0 1b 70 95 bf 03 57 95 bf 13 16 86 3e 1d 2a 00 40
       -1.1674837 -1.1667179 0.26188716 2.0025704
0002c0 a7 d1 c2 bf 69 bf d8 3f de 0e 4e 3f cd f0 f0 3f
       -1.5220231 1.6933414 0.80491436 1.8823487
0002d0 d7 9c 08 bf b0 d9 ad 3f 90 87 69 bf f9 a9 f1 3f
       -0.5336432 1.3582058 -0.91222477 1.8879997
0002e0 4c cc bb be 20 9a 2e 3f f7 f8 b0 3e 93 a8 ae 3f
       -0.36679304 0.68203926 0.34564945 1.3645195
0002f0 a1 16 b1 3f 4a 8c a8 bf de 0d 06 bf 1f 84 80 be
       1.3835031 -1.3167813 -0.5236491 -0.251008

inflow_layer.0.weight f4 [8, 2]
000000 a8 ae cc be 5e de d4 be 01 59 ca 3e c5 78 15 bd
       -0.39977002 -0.41575903 0.3952103 -0.036492128
000010 c7 40 15 3f e4 e3 49 bd 7e eb 91 3e d7 fe 5d 3f
       0.5830197 -0.0492896 0.2849998 0.8671698
000020 78 b6 10 bf 36 ed c8 bd e4 b2 95 bd 8c 4f bc be
       -0.56528425 -0.098108694 -0.07309511 -0.3677944
000030 50 e8 17 3e f5 7a 39 3f de 99 56 3f 82 92 23 3e
       0.14834714 0.7245324 0.8382853 0.15973857

inflow_layer.0.bias f4 [8]
000000 7b e9 d9 3e c1 70 db 3f 4c 83 d3 3f d8 bd 03 bf
       0.42560944 1.7143785 1.6524444 -0.51461554
000010 9a bb c9 3e 68 32 1f 3f 99 c9 03 bf 8f c9 03 bf
       0.3940094 0.6218629 -0.5147949 -0.5147943

inflow_layer.2.weight f4 [16, 8]
000000 71 4a 86 3f 09 8f a4 3e af 1f 4c 3c 11 f9 62 bf
       1.0491468 0.32140377 0.012458726 -0.88661295
000010 0b a7 4e 3f 5c 5a 3a 3f 04 6d 91 bf d7 35 1b be
       0.8072364 0.7279413 -1.1361394 -0.15157257
000020 02 b5 20 bf 65 ae ca 3e 5e 8f 72 3d 79 9c 6a be
       -0.62776196 0.39586177 0.059218757 -0.22911252
000030 ec 8b 2d bf ab fa 80 bf e7 a9 79 bd b1 d7 04 3f
       -0.6779163 -1.0076498 -0.060953047 0.5189162
000040 bd d7 93 3f de ee 8e 3e 4e 14 55 3d a9 0c de be
       1.1550213 0.27916616 0.052021317 -0.43369034
000050 5e b2 8f 3f ad 5b 84 3f 61 8e 49 be b3 e9 4c be
       1.1226308 1.0340477 -0.1968322 -0.20011024
000060 06 ec 56 3f 38 73 89 3e e2 51 b8 bd 46 5c 76 bf
       0.83953893 0.26845717 -0.08999993 -0.9623455
000070 f1 c9 25 3f 05 da 2c 3f b9 a0 ed be f2 2e a9 bb
       0.64761263 0.6752017 -0.46411684 -0.005163067
000080 1a b3 72 3f 34 83 17 be d2 2f a1 3e 5c 09 dd be
       0.9480454 -0.14796144 0.31481797 -0.43171203
000090 f3 e2 54 3f 86 67 97 3f 2a aa 8d bf d8 ce de bd
       0.831588 1.1828468 -1.1067555 -0.10879296
0000a0 f3 f4 3e bf 98 ea 9c 3c b1 2f 15 3f 5e 43 85 3b
       -0.7459251 0.019154832 0.58275896 0.0040668687
0000b0 98 79 e2 be 42 48 82 bf b7 32 b8 be 42 48 ee 3e
       -0.44233394 -1.0178301 -0.35976192 0.46539503
0000c0 f4 48 57 3f 6e b6 2b 3e e2 24 c1 3c 00 d7 5e bf
       0.8409569 0.1676881 0.023577157 -0.87046814
0000d0 f0 cf 92 3f e1 15 39 3f 03 81 a3 bf f0 fb 78 bd
       1.1469707 0.7229901 -1.2773746 -0.06078714
0000e0 67 15 86 3f f2 7d c2 3d 35 7e d5 bd ef 36 5c bf
       1.0475281 0.094966784 -0.10424463 -0.8602132
0000f0 11 00 87 3f f5 fb 67 3f 17 e8 86 bf 6d 31 90 bc
       1.0546895 0.9061883 -1.0539578 -0.017601693
000100 49 87 55 3f c9 b0 be bc 1a 94 af 3e d0 7d 84 bf
       0.83409554 -0.023277657 0.3429268 -1.0350895
000110 f3 7c 69 3f e6 86 2d 3f cc 68 15 bf 7f 54 59 be
       0.9120628 0.67783964 -0.5836303 -0.21223639
000120 f4 ab 48 3f 1e da c8 3e 8b 52 ef 3c cd 8d a2 bf
       0.7838738 0.3922891 0.029214164 -1.2699524
000130 3c 6a 95 3f 9e 0d 64 3f d5 93 22 bf 3b 47 53 be
       1.1673045 0.8908328 -0.63506824 -0.20632641
000140 23 7f a2 3f 2a 88 85 3e 1a ae 3f 3e 9f 65 7b bf
       1.2695049 0.26080447 0.18718758 -0.98201936
000150 38 a8 32 3f 85 51 8c 3f 64 a4 80 bf 39 37 90 be
       0.6978793 1.0962378 -1.0050168 -0.28167132
000160 73 d4 97 3f 7a fc 61 3d 8a 6c a1 3e 2a 86 24 bf
       1.1861709 0.05517242 0.3152812 -0.6426722
000170 2a f3 6f 3f d0 d9 3c 3f 6c 99 bc bf 31 84 2c be
       0.93730414 0.73769855 -1.4734321 -0.16847302
000180 ed 49 54 3f d6 b6 28 be e1 81 ca 3e c0 16 f6 be
       0.829253 -0.16475996 0.39552215 -0.48064232
000190 a5 c3 41 3f d2 6f 85 3f 2c 7b 83 bf 58 6c 0f be
       0.75689155 1.042475 -1.0271964 -0.14006174
0001a0 8e 51 9a 3f 5d 7b 8c 3d d3 f9 a3 3e 70 5d 93 bf
       1.2056139 0.06859467 0.32026538 -1.151289
0001b0 b2 0c 83 3f d4 6a 9d 3f ec 97 f6 be d4 b7 4f be
       1.0238249 1.2298226 -0.48162782 -0.20284969
0001c0 aa dd ec be 7c da 82 bc 30 0a 1d 3f dd f6 d0 bc
       -0.46262866 -0.015973322 0.6134367 -0.025508339
0001d0 0b 3a 25 bf 31 2a db be a9 87 6c bd c4 c8 4d 3f
       -0.6454169 -0.42805627 -0.057746563 0.8038447
0001e0 a8 db 8f 3f 60 b7 75 3e 28 cf 85 3d 46 94 36 bf
       1.1238909 0.23995733 0.065336525 -0.7132
0001f0 f4 1d 10 3f 6c 28 89 3f 1a 2b df be 8d a1 06 be
       0.56295705 1.0715461 -0.4358757 -0.13147564

inflow_layer.2.bias f4 [16]
000000 b5 00 09 3f 06 35 3d bf 7b 3e 1b 3f ac 2d 3b be
       0.53516704 -0.7390903 0.6064221 -0.18279141
000010 02 95 5b 3f bc e2 3f be 91 b4 5d 3f 49 d4 57 3f
       0.8577424 -0.18738836 0.8660365 0.84308296
000020 f5 07 c7 3e 27 36 bc 3e 70 bb 4c 3f b0 0b 59 3e
       0.38873258 0.36760065 0.79973507 0.21195865
000030 0d d8 dc 3e 5d aa 7c 3f af 4e 10 be 03 1a 04 3f
       0.43133584 0.98697454 -0.14092515 0.5160219

inflow_layer.3.weight f4 [16]
000000 08 f7 be 3e 45 0f 34 40 85 85 bc 3e c6 93 b6 3e
       0.37297845 2.813432 0.36820617 0.35659617
000010 7d 4f c5 3e 30 ee 33 40 40 4b c1 3e 98 29 bd 3e
       0.38537207 2.8114128 0.37752724 0.36945796
000020 25 13 c3 3e f5 ce bf 3e 9b e8 bf 3e 0b 9e c9 3e
       0.38100544 0.37462583 0.3748215 0.3937839
000030 c6 5d cc 3e 42 2d be 3e 21 b3 34 40 fa 0a b3 3e
       0.39915293 0.37143904 2.8234332 0.34969312

inflow_layer.3.bias f4 [16]
000000 4c 53 6e 3f f4 21 1f bd b3 28 80 3f 7e f8 5e 3f
       0.9309585 -0.03885074 1.001242 0.8709792
000010 73 8e 52 3f c8 3e 05 bc ad 74 6d 3f a6 27 76 3f
       0.8224861 -0.008132644 0.9275616 0.9615425
000020 e7 87 78 3f 32 70 77 3f f9 da 73 3f 22 e3 58 3f
       0.9708237 0.9665557 0.95256 0.8472158
000030 eb 47 58 3f 7c 62 6d 3f 1d 20 7e 3c 15 b9 4e 3f
       0.8448474 0.927284 0.015510586 0.8075116

inflow_layer.3.running_mean f4 [16]
000000 00 12 db c5 17 e6 f2 44 7a 1f 22 c5 c6 9b 9d c5
       -7010.25 1943.1903 -2593.9673 -5043.4717
000010 a8 86 9a c5 fe 74 18 45 22 16 e1 c5 98 22 d3 c5
       -4944.832 2439.312 -7202.7666 -6756.324
000020 99 3b bb c5 98 58 df c5 67 09 e2 c5 c9 41 d4 c5
       -5991.4497 -7147.074 -7233.1753 -6792.223
000030 3c 21 98 c5 f4 24 bc c5 54 5d 92 45 a2 0f 82 c5
       -4868.1543 -6020.619 4683.666 -4161.954

inflow_layer.3.running_var f4 [16]
000000 d4 23 4a 4c 4c 07 80 4b 33 c2 dd 4a 99 2f d1 4b
       5.2989776e+07 1.6780952e+07 7.2665855e+06 2.7418418e+07
000010 d0 45 ca 4b 49 af c5 4b 15 97 55 4c 43 b5 3b 4c
       2.6512288e+07 2.591093e+07 5.599138e+07 4.920654e+07
000020 f7 97 13 4c f2 18 52 4c 7b 25 57 4c 84 57 3f 4c
       3.869078e+07 5.5075784e+07 5.639934e+07 5.015912e+07
000030 19 8b c4 4b 68 0b 15 4c 82 40 61 4c 79 68 8e 4b
       2.576133e+07 3.9071136e+07 5.9048456e+07 1.8665714e+07

outflow_layer.0.weight f4 [64, 208]
000000 18 01 89 be cf 0c 43 bd 09 aa fb bd 1e c2 f1 3d
       -0.26758647 -0.047619637 -0.12288291 0.11804603
000010 6f 88 be 3e 80 d2 05 bf 88 12 14 3d 7b 1e d4 3e
       0.37213466 -0.5227432 0.036150485 0.41429505
000020 d1 11 4a 3f 9d 48 ed bd 4e 0f 38 be c0 1d 55 bd
       0.78933436 -0.115861155 -0.17974588 -0.052030325
000030 bd 0b 80 3e b6 b2 84 3e f1 69 d8 3e b6 13 b3 3d
       0.25008956 0.25917596 0.42268327 0.08743994
000040 d7 86 9d be 1a df 48 3e 3b 6b 1d bf 61 e5 a3 3e
       -0.30766937 0.19616356 -0.61491746 0.3201094
000050 0f 92 9b be 99 69 b4 3e fa 2d cd 3e b0 49 09 3f
       -0.3038487 0.35236815 0.4007414 0.53628063
000060 f2 c8 d4 be 68 bb 9a be 48 f5 44 be b3 f5 f6 be
       -0.4155956 -0.30221105 -0.19234192 -0.4823433
000070 c6 3f 20 3f 86 e6 be 3e 15 cd 03 bf 1d 97 8e be
       0.6259731 0.3728525 -0.51484805 -0.27849665
000080 83 c1 98 bc ae 03 7e 3e 50 98 02 3f 19 7a 0b 3f
       -0.018646961 0.24806091 0.5101366 0.5448318
000090 a8 af e2 3e 1c 81 08 be 8b 0d 9f 3e ae 52 74 be
       0.4427464 -0.13330501 0.3106502 -0.23859665
0000a0 85 4c e5 be 9a c3 a7 bd 8c 67 fb be 41 c3 be 3e
       -0.44784942 -0.08191605 -0.49102437 0.37258342
0000b0 33 34 d9 be 96 24 88 be 7a fb aa 3e 0a dd 1f 3f
       -0.42422637 -0.26590413 0.33394986 0.62446654
0000c0 cc db c3 be f2 22 ba be c6 bb ea 3e 5f cb bb be
       -0.3825363 -0.36354786 0.45846385 -0.36678597
0000d0 eb fa 23 be b5 3d 25 be f3 78 09 3f 8c fa 45 be
       -0.16013686 -0.1613682 0.5370018 -0.19333857
0000e0 ec c9 33 be 86 94 ff be e9 94 ae be 72 aa 9b 3e
       -0.17557496 -0.49918002 -0.34097984 0.30403477
0000f0 88 94 05 3f f6 f1 2b 3e a1 ef 91 be 32 2b 82 3e
       0.52179766 0.1679152 -0.28503135 0.2542358
000100 a3 3b 14 3e 3f 7d 86 be 0b e1 83 be 8a 63 a7 bc
       0.14475875 -0.2626743 -0.25757632 -0.020433206
000110 78 15 1e bc 2f 9f 30 3e 3d 39 99 bd ec 9c 69 be
       -0.009648673 0.17248224 -0.074816205 -0.22813767
000120 5d 60 a1 bd 17 cc 9d 3c 3a c8 22 3e aa 18 c3 bd
       -0.07879708 0.019262357 0.15896693 -0.09526189
000130 03 84 db bd 8d 53 a3 bd 64 72 fd bd 32 ad 82 be
       -0.107185386 -0.079749204 -0.12375334 -0.25522763
000140 53 8f bb 3c 2b ae a3 bd 4b a6 38 3e 34 42 83 ba
       0.02289549 -0.07992204 0.18032186 -0.0010014237
000150 f4 91 ba 3d 90 9c 19 3e 36 54 dc 3d 79 85 1f bd
       0.091098696 0.1500113 0.107582495 -0.03894565
000160 8f aa 2a 3e 09 ee 91 3e 4a 8c d2 3d 7b 86 9e be
       0.16666625 0.2850192 0.10280664 -0.30961975
000170 c5 cd e2 3c 02 b4 85 bd f3 5f d6 bc 89 5b b3 3d
       0.02768601 -0.065284744 -0.026168799 0.08757693
000180 22 cd a7 be 56 98 26 3d ee 0b 75 3d 07 63 11 be
       -0.3277369 0.040672623 0.05982583 -0.14197932
000190 cf 7f 1a 3e 17 66 6e be 4e 0c b7 3e 80 2a d8 3d
       0.15087818 -0.23281132 0.35751575 0.10554981
0001a0 2b c9 3f bd 85 09 b7 3d 97 c3 42 3e 09 10 02 3e
       -0.046822708 0.089373626 0.19019924 0.1270143
0001b0 6a 04 77 3e d1 6f b7 be 74 cd 7a bd 5a 44 57 3e
       0.24122778 -0.35827497 -0.06123109 0.21022168
0001c0 4f 89 83 3e 8f fc 2d be 29 a2 94 bc bf 37 c5 bd
       0.25690696 -0.16990875 -0.01814373 -0.09629773
0001d0 34 67 4a be e9 11 67 be f9 33 ec bd 24 bc 0d 3c
       -0.19765931 -0.22565426 -0.115333505 0.008650813
0001e0 24 39 b0 3d 5e 8b 52 3e ae 9d b2 3d 44 10 0d be
       0.08604649 0.20560977 0.08721481 -0.13775736
0001f0 96 44 2d 3e 5a 45 77 be c6 5b 98 3d 64 9e c4 3d
       0.16920695 -0.2414755 0.074393794 0.09600523
000200 c5 38 bf 3e 38 06 91 be a8 f8 bd 3e b3 9b 97 be
       0.37348 -0.28325057 0.37103772 -0.29610977
000210 93 89 3e be e6 c0 cc be 11 44 cf 3e bc 0b 90 3e
       -0.18607168 -0.3999092 0.40481618 0.28133953
000220 67 3c b2 be 21 2a b5 3e b3 45 dd be bb ff a5 3e
       -0.34811708 0.35383704 -0.4321724 0.3242167
000230 40 28 91 3e c7 3c bc be 7a d1 c8 3e e5 93 c5 bd
       0.2835102 -0.3676512 0.39222318 -0.09647349
000240 fa 3b 87 3e 4d f1 a8 be 82 23 e1 be b2 e2 ea 3d
       0.26412946 -0.32996598 -0.43972403 0.1146902
000250 8f 6e 91 be d9 04 8e 3e 70 02 c3 3e 0a 58 e3 3e
       -0.28404662 0.27738073 0.38087797 0.44403106
000260 2f d7 96 3e 3e 8a ca 3e 10 09 86 3e 35 52 b9 3e
       0.29461047 0.39558595 0.2617879 0.3619553
000270 a6 d6 35 3e a5 4f 4d 3e 0c 2d 7e be 87 7d c8 be
       0.17757663 0.20049913 -0.24821872 -0.3915827
000280 ff 15 bb 3e 46 61 b3 3e c8 e3 8d 3e 3d e5 9d 3e
       0.3654022 0.3503515 0.27712846 0.30838957
000290 15 92 be 3e 42 30 b5 be fb 15 a7 3e 05 c4 b0 be
       0.37220827 -0.3538838 0.32633957 -0.3452455
0002a0 d1 35 71 3e 60 b9 8b be 49 bf aa be e5 6d c0 be
       0.23555686 -0.27289867 -0.33349064 -0.37583843
0002b0 1a f2 61 be 86 9f bd be 8b b6 c1 be 15 08 bc 3e
       -0.2206501 -0.3703577 -0.37834582 0.36724916
0002c0 04 fd ac be 1f ae 71 3e 81 93 cc 3e d9 01 d1 3e
       -0.33786786 0.23601578 0.39956287 0.40821722
0002d0 6a 34 bc be db 0d b0 3e e7 28 c7 be 25 2d a9 3e
       -0.3675874 0.3438557 -0.38898394 0.33042255
0002e0 80 15 b9 be 1f b9 a7 3e f4 1f d4 3e 55 74 a4 3e
       -0.36149216 0.32758424 0.41430628 0.32120004
0002f0 39 6a b7 3e 63 5b a4 be 0d 04 00 3e 63 de a4 be
       0.3582323 -0.32100973 0.12501545 -0.32200918
000300 22 31 af bf 86 ff cd 3f cf c8 a9 bf 83 54 9c bf
       -1.3686869 1.6093605 -1.3264407 -1.2213291
000310 66 40 99 bf eb 0e cd 3f 47 9e ac bf b1 5d b4 bf
       -1.1972778 1.6020178 -1.3485802 -1.4091092
000320 15 20 b6 bf 17 07 b4 bf 8a 04 b8 bf 15 62 99 bf
       -1.4228541 -1.4064664 -1.4376385 -1.1983057
000330 d0 8f 9e bf 02 48 ad bf 7a 74 c7 3f 1b ba 92 bf
       -1.2387638 -1.35376 1.5582421 -1.1463045
000340 40 48 98 be d6 47 24 3e 99 5a 1b bc d8 15 c4 bd
       -0.29742622 0.16043028 -0.009482049 -0.09574479
000350 41 79 83 3e 5c c5 14 bf 07 33 27 bc 54 91 13 3f
       0.25678447 -0.58113647 -0.010205037 0.5764363
000360 b4 37 58 3f 53 9b 21 be 38 3d be be 61 16 1f 3e
       0.84459996 -0.15781908 -0.3715608 0.1553588
000370 fa 24 7b 3e 52 10 b8 3e d0 38 b0 3e 78 41 1f 3e
       0.24525824 0.3594995 0.34418344 0.15552318
000380 a2 b5 98 be 44 6e a7 3d 52 80 4f bf 3b 14 a1 3e
       -0.29826075 0.081753284 -0.81055176 0.31460747
000390 04 8d 31 be 3f 65 08 3f 71 01 03 3f f3 b9 0a 3f
       -0.1733895 0.5327949 0.51174074 0.54189986
0003a0 a7 97 1e bf c6 f5 9b be e8 44 96 bd 51 d5 fd be
       -0.61950153 -0.30460948 -0.073373616 -0.4957681
0003b0 ee ea 33 3f 13 cd 08 3f c0 4a 15 bf 59 47 5f be
       0.7028035 0.5343792 -0.58317184 -0.2180456
0003c0 5e c4 e5 bc 99 11 74 3e 47 d8 17 3f 55 7d 14 3f
       -0.028047737 0.23834838 0.5931439 0.5800374
0003d0 ae af ff 3e 21 f1 a6 bd 2b eb 9e 3e b6 a1 df be
       0.4993872 -0.081514604 0.31038794 -0.43678063
0003e0 64 0e d9 be e7 19 f3 3d 65 df 23 bf 24 cb da 3e
       -0.42393792 0.11870175 -0.6401275 0.4273311
0003f0 fd fa d4 be f2 26 4b be ea c3 d9 3e 29 17 35 3f
       -0.4159774 -0.19839075 0.42532283 0.70738465

outflow_layer.0.bias f4 [64]
000000 2f 9e ba 3e a9 fa a0 3e 95 93 27 be 1c 09 99 be
       0.3644881 0.3144124 -0.16364892 -0.29889762
000010 b9 5c 2f be 05 8e 5c be f8 b4 a8 3e 37 31 4d be
       -0.17125215 -0.21538551 0.32950568 -0.20038305
000020 f1 52 ab 3e 1d ac eb bd c4 3d f2 3e 4a de c8 bd
       0.33461717 -0.115074374 0.47312748 -0.09808023
000030 9e c2 0a be 39 0e 33 be b8 15 c7 bd 31 7f 28 be
       -0.13550803 -0.17485894 -0.097209394 -0.1645477
000040 cf 70 97 bd b7 66 1c be e4 95 be 3e e1 ca 00 3f
       -0.073945634 -0.15273558 0.37223732 0.5030957
000050 13 d8 03 3f 85 e6 e3 3e 21 22 cc 3e 8a 57 f7 3d
       0.5150158 0.4451181 0.39869788 0.120772436
000060 ce 1a 2a be 33 2c 11 be b2 ba 7f 3d 90 f7 09 3f
       -0.16611788 -0.14177017 0.062433906 0.53893375
000070 31 20 1f be ee c1 cd 3e e0 c8 dc 3e 75 c6 0f 3f
       -0.15539624 0.4018702 0.43122005 0.56162196
000080 e0 fe c3 be 2b fa 00 be 5a ec 02 3f c9 cd 01 be
       -0.38280392 -0.12595432 0.51141894 -0.12676157
000090 cb 46 4d be 24 46 c2 3e 66 be e2 3e bc cc ed 3e
       -0.20046537 0.37944138 0.44285887 0.46445262
0000a0 15 65 c3 3e d4 78 43 be c4 ac c9 3e dc 20 28 be
       0.38163057 -0.19089061 0.39389622 -0.16418785
0000b0 70 78 cb 3e 23 59 8c bd 04 fc ed bd 4d 97 63 be
       0.39740324 -0.06852939 -0.11620334 -0.22225685
0000c0 14 2f 78 be af b2 2f be a6 12 82 be 82 44 f1 3e
       -0.24236709 -0.17158006 -0.25404853 0.4712258
0000d0 5e 76 2d be 1c 6e 0d bd 00 b1 1b be dd b7 f2 3e
       -0.16939685 -0.034528837 -0.15204239 0.47405902
0000e0 94 c7 0d be 1a 6c 87 3e 76 41 7d be da 0e 57 be
       -0.13845664 0.26449662 -0.24732003 -0.21001759
0000f0 a4 be 37 be fe 65 3c 3e 2e 6e a8 3e a5 e4 75 be
       -0.17943817 0.18398282 0.3289656 -0.24013002

outflow_layer.2.weight f4 [16, 64]
000000 cd 3e 10 3f 87 dd 15 3f e5 f2 04 c0 67 5a e2 bf
       0.56345826 0.5854115 -2.077325 -1.7683839
000010 47 4f ea bf b4 3e 05 c0 6b 3b 25 3f c7 d5 19 c0
       -1.8305444 -2.081952 0.6454379 -2.403673
000020 ee fa 4a 3f 96 32 0e c0 1f 72 1f 3f ae dc fa bf
       0.7928914 -2.2218375 0.6228351 -1.9598596
000030 fd 40 03 c0 5d fb f1 bf 22 d6 00 c0 ab 59 eb bf
       -2.0508416 -1.8904835 -2.0130696 -1.838674
000040 ec d7 02 c0 b7 ce e9 bf 99 9f 24 3f c9 93 14 3f
       -2.0444288 -1.8266209 0.64306027 0.58038
000050 17 48 36 3f 23 11 35 3f 94 da 2b 3f 25 9d 22 3f
       0.7120375 0.70729274 0.671304 0.63521034
000060 8e 97 00 c0 9e ed 02 c0 8a 17 56 3f 2a fe 45 3f
       -2.0092502 -2.045753 0.8362967 0.7734095
000070 f3 3d fb bf b5 fe 1c 3f 3e e8 20 3f 41 23 3c 3f
       -1.962828 0.6132615 0.62854373 0.73491293
000080 1c 07 c3 3f 95 0e 04 c0 ee ec 42 3f a7 66 f9 bf
       1.5236545 -2.06339 0.76142776 -1.9484452
000090 13 3a ea bf 17 85 28 3f c7 6d 35 3f 36 20 36 3f
       -1.8298973 0.6582808 0.7087063 0.711429
0000a0 a8 cb 2b 3f 6c 3b 01 c0 81 aa 4a 3f 89 14 f9 bf
       0.6710763 -2.0192518 0.7916642 -1.9459392
0000b0 bc c9 47 3f 6d 53 e2 bf ca 3a f1 bf 0d 72 e7 bf
       0.780422 -1.768171 -1.8846066 -1.808168
0000c0 72 aa e8 bf 90 32 05 c0 37 a7 ae 3f f6 e9 30 3f
       -1.8177016 -2.081211 1.364478 0.69106996
0000d0 29 cd e7 bf bc 8b 01 c0 1d 99 01 c0 27 7a 1d 3f
       -1.8109485 -2.0241537 -2.0249703 0.61514515
0000e0 15 fd 07 c0 ae 28 2c 3f c4 d1 00 c0 d7 2e f0 bf
       -2.124822 0.6724957 -2.012803 -1.8764294
0000f0 34 d0 ff bf d6 95 3d 3f e5 36 3c 3f 2f 83 f3 bf
       -1.9985414 0.74056756 0.7352126 -1.9024409
000100 a6 09 b5 bc 64 33 96 3d 22 f5 1f 3e 9a ad a7 3a
       -0.022099327 0.07334021 0.15620854 0.0012792826
000110 65 c5 93 3e df bf 31 3e 93 d2 51 bd 51 1d 6c 3e
       0.28861538 0.1735835 -0.05122621 0.23058058
000120 76 de 47 bd d2 ca eb 3d ee f9 c1 bd 0b cc 9f bc
       -0.04879614 0.11513294 -0.094714984 -0.019506475
000130 a6 a7 c7 3e df a1 8d 3d 51 5f f8 3c bc f6 e7 3d
       0.38995093 0.0691564 0.030318888 0.11326358
000140 78 a0 48 3e a5 c4 8b 3e 75 6f b8 3c bc 27 00 be
       0.19592464 0.27298465 0.022514084 -0.12515157
000150 20 dc e9 bd b4 40 26 be af 3f 39 be 8c 34 9d 3c
       -0.11418939 -0.1623562 -0.180907 0.019190095
000160 b2 f7 9a 3e 2f 93 b9 bc 19 2d 3d 3e cf 56 9c bd
       0.30267102 -0.02265319 0.18474235 -0.07633745
000170 c2 a2 25 3e 6e 8f 07 bd 83 36 64 3d ed 04 ec bd
       0.16175368 -0.03309577 0.05571605 -0.11524377
000180 95 af c1 3d b5 9a 09 3e 7b 87 c1 bd c1 03 55 3e
       0.09457318 0.13437922 -0.09449669 0.20802213
000190 8f e0 4e 3e 80 ac 01 be e9 14 4b be 3f da 58 bd
       0.2020285 -0.1266346 -0.19832195 -0.05294251
0001a0 9d bb 19 be 8a b8 95 3e fa a6 7f bd 6f 10 11 3e
       -0.15012975 0.29242355 -0.0624151 0.14166425
0001b0 1a 96 a3 bc d6 ce f5 3e 48 db 19 3e 83 32 35 3e
       -0.019969035 0.48009366 0.15025055 0.1769505
0001c0 b6 9c 84 3e 15 14 8c 3e 71 88 9b bd 61 ef 29 be
       0.2590081 0.2735907 -0.075943835 -0.16595222
0001d0 9b fc 60 3e 1d 77 cc 3c 1c 2d 89 3e ec d3 0f bd
       0.21971361 0.024959141 0.26792228 -0.035114214
0001e0 6a e3 22 3e 71 2e 00 bc d8 d4 85 3e 4b f8 aa 3e
       0.15907064 -0.0078235725 0.2613895 0.33392558
0001f0 f3 c2 9c 3e 61 1a 16 3e d1 4d 7e bd 12 21 f8 3d
       0.30617484 0.146585 -0.06208593 0.12115683
000200 7b 55 2f 3f 86 37 24 3f c8 29 db bf 4c 37 bf bf
       0.6848981 0.6414722 -1.7122126 -1.493875
000210 25 97 dc bf d5 e4 db bf 90 15 30 3f 59 22 10 c0
       -1.7233626 -1.7179209 0.687829 -2.2520964
000220 a8 0b 22 3f 3b e9 fa bf 0e 11 15 3f 02 56 e1 bf
       0.63299036 -1.9602426 0.5822915 -1.7604373
000230 43 da d3 bf f1 88 f7 bf 4b 8f f0 bf b4 28 cb bf
       -1.6550983 -1.9338666 -1.879373 -1.5871797
000240 2c 89 de bf 38 cc ed bf 2c 0d 3c 3f ca 21 43 3f
       -1.7385612 -1.8577948 0.734576 0.76223433
000250 e3 82 1b 3f 9f 31 3f 3f 0f d6 12 3f d0 09 53 3f
       0.6074659 0.7468509 0.5735788 0.8243685
000260 87 45 e6 bf a6 66 d7 bf a3 b1 35 3f 90 2b 3c 3f
       -1.7989968 -1.6828201 0.7097418 0.7350397
000270 36 72 d5 bf a7 a3 31 3f bc 21 44 3f 34 60 2c 3f
       -1.667548 0.6939034 0.76613975 0.67334294
000280 63 89 bc 3f 07 6f f0 bf b8 3f 2d 3f 33 ba dc bf
       1.4729427 -1.8783883 0.6767535 -1.7244323
000290 58 ee d7 bf ae 6c 3f 3f 94 40 26 3f 45 53 26 3f
       -1.6869612 0.7477521 0.6494229 0.6497081
0002a0 48 59 33 3f 28 c9 e9 bf 93 eb 4b 3f 9a c7 c6 bf
       0.7005811 -1.8264513 0.7965633 -1.5529664
0002b0 4d 7c 1a 3f eb fe d3 bf e5 58 e7 bf 3d 03 d6 bf
       0.6034592 -1.656217 -1.8074003 -1.6719738
0002c0 ad 6c d8 bf b2 fb ea bf 69 ff c4 3f c9 af 46 3f
       -1.6908165 -1.8358061 1.5390445 0.77611977
0002d0 3f cc dd bf a5 97 e0 bf 96 e6 d3 bf 1b 2b 3e 3f
       -1.7327956 -1.7546278 -1.6554744 0.74284524
0002e0 b1 c5 ff bf a2 d6 4b 3f 97 c1 ec bf 93 9c d3 bf
       -1.9982206 0.7962438 -1.8496579 -1.6532158
0002f0 bc a0 df bf d9 d4 52 3f 08 e3 2f 3f 14 49 e2 bf
       -1.7470927 0.8235603 0.687058 -1.7678552
000300 33 5e 26 3f e1 7c 0a 3f 7a 46 fa bf 2c 1a d8 bf
       0.64987487 0.540968 -1.9552758 -1.6882987
000310 c9 18 eb bf 0c 8d e6 bf d5 a2 26 3f cd 2b 15 c0
       -1.8366939 -1.8011794 0.6509221 -2.3307984
000320 35 55 4f 3f b3 db 00 c0 e3 0f 23 3f f5 c9 f2 bf
       0.8098939 -2.0134094 0.63696116 -1.8967882
000330 7a 47 e8 bf ff 97 f0 bf 3f 76 f8 bf 0c 6b e6 bf
       -1.8146813 -1.8796386 -1.9411086 -1.8001418
000340 01 d7 e7 bf 75 ec ea bf 4c 02 4e 3f 8e 6f 4d 3f
       -1.8112489 -1.8353411 0.80472255 0.80248344
000350 cb 38 47 3f e4 8a 30 3f 47 5c 2e 3f c4 bc 52 3f
       0.77821034 0.6896193 0.68109554 0.82319283
000360 76 ca ec bf 91 38 f4 bf 51 cb 5c 3f 62 1e 35 3f
       -1.8499286 -1.9079763 0.86247736 0.70749485
000370 4d b8 cd bf 38 54 32 3f 5d 87 15 3f c8 87 49 3f
       -1.6071869 0.6965976 0.5840967 0.7872281
000380 c3 19 b0 3f b4 7f e6 bf f7 e1 23 3f 33 a8 e8 bf
       1.3757862 -1.8007722 0.6401667 -1.817633
000390 ba ce cb bf 52 03 44 3f d3 53 32 3f 68 61 2e 3f
       -1.5922463 0.76567566 0.69659156 0.6811738
0003a0 05 f9 31 3f fd 54 d2 bf 2c 38 38 3f d7 44 e2 bf
       0.695206 -1.6432186 0.7196071 -1.7677258
0003b0 c7 05 38 3f f6 8c e1 bf 68 4f e8 bf ed af ed bf
       0.71883816 -1.7621143 -1.8149233 -1.8569313
0003c0 a7 bd db bf cb d5 e9 bf 14 71 ad 3f 93 12 40 3f
       -1.7167252 -1.826837 1.3550134 0.7502834
0003d0 4c 1b e4 bf a7 e5 f9 bf 14 da e5 bf a1 2b 41 3f
       -1.782083 -1.9523209 -1.7957177 0.754572
0003e0 a5 18 00 c0 52 18 3b 3f 57 51 f6 bf 23 08 d7 bf
       -2.0015042 0.73083985 -1.9243573 -1.6799358
0003f0 93 28 d8 bf 62 b8 55 3f 36 94 1a 3f 12 66 dc bf
       -1.6887382 0.8348447 0.603824 -1.7218649

outflow_layer.2.bias f4 [16]
000000 74 5e 86 3f 5f f5 09 bf bc 06 46 3f 23 68 4e 3f
       1.0497575 -0.5389003 0.77354026 0.8062765
000010 6c c8 8b 3f c2 2b 6d 3c f3 31 01 3f f5 8b 80 3f
       1.0920539 0.014475765 0.5046684 1.0042711
000020 45 5a 80 3f 2b 69 8c 3f 15 3d 92 3f 9f 79 8a 3f
       1.0027548 1.0969595 1.1424891 1.0818366
000030 05 f3 80 3f 5b 1c 73 3f ad 7d c6 3d 56 d1 83 bd
       1.0074164 0.9496514 0.096919395 -0.06436412

outflow_layer.4.weight f4 [1, 16]
000000 27 e0 5f 3f 8a b0 8c bf d4 6a 60 3f 55 16 62 3f
       0.87451404 -1.0991375 0.87663007 0.88315326
000010 9d 73 75 3f 26 df f7 bf aa a6 a0 bf 8d 7c 4d 3f
       0.95879537 -1.9364974 -1.2550862 0.80268174
000020 69 1f 59 3f 80 fc 50 3f 89 c6 60 3f 63 9c 5d 3f
       0.84813553 0.81635284 0.8780294 0.8656675
000030 82 d7 80 3f 5e 27 74 3f df 04 ea bf d4 9d ff bf
       1.0065768 0.9537257 -1.8282737 -1.997004
