client/backend/wri-w2wh-back/python_scripts/training/KRS/outflow_bestmodel.pth (torch, 76015 bytes, 16 tensors)

month_emb.weight f4 [12, 64]
000000 5a 5d 8d be 8d b5 a8 3d b1 f6 72 3f 42 1a c6 be
       -0.27610284 0.08237753 0.9490767 -0.38691908
000010 0e d9 28 c0 2f 03 1a bf 4b 32 9e 3d 69 d9 b5 bf
       -2.638248 -0.6016111 0.07724436 -1.4206973
000020 2d 83 b7 be ac 15 9d 3f c4 dd e8 bd b3 c2 01 bf
       -0.35842267 1.2272239 -0.113704234 -0.5068771
000030 cb 19 5b 3f e5 35 db be c9 24 ef be d7 62 34 bf
       0.8558623 -0.42814556 -0.46707752 -0.7046332
000040 d2 14 a7 3e 6b d0 69 be 35 77 c7 3e 77 54 f1 3f
       0.32633072 -0.22833411 0.38958135 1.8853902
000050 6f a4 6e bf a8 e9 94 bf 08 7c 75 3e d2 82 31 bf
       -0.93219656 -1.1633806 0.23973095 -0.6934024
000060 ef e5 8f 3e fa 9c d1 3e 2e 1a fe 3f 9e 93 90 3f
       0.28105113 0.40940076 1.985174 1.1295049
000070 ca 19 97 bf c8 d9 ef 3e ea 66 c4 3e e8 e3 50 bf
       -1.1804745 0.4684584 0.38359767 -0.8159776
000080 ec 06 4b bf cc de 86 bf ce e1 fd be 66 57 8e 3e
       -0.79307437 -1.0536742 -0.49586338 0.27801055
000090 0c a2 db be 25 75 0d 3f c8 e2 a1 bf f6 4a a0 3e
       -0.4289707 0.55256873 -1.2647333 0.3130719
0000a0 e2 61 a6 bc d4 87 a0 be 5f 53 81 bf 24 50 81 be
       -0.020310346 -0.3135363 -1.0103568 -0.25256455
0000b0 09 14 9d 3e 07 a2 06 40 6c 3d 53 3e e4 4f 38 bf
       0.30679348 2.1036394 0.206289 -0.71996903
0000c0 29 91 18 3f 1b dd 2e 3f 70 13 d9 3f 92 d1 f9 be
       0.59596497 0.6830613 1.6959057 -0.48792702
0000d0 94 57 50 bf b6 20 8c 3e 99 43 0c bf 1f ab e2 be
       -0.81383634 0.27368706 -0.54790646 -0.4427118
0000e0 3c 76 ac bd 1a 61 9f bd 2a b6 ab 3f 8d d6 b3 bf
       -0.08420989 -0.077821925 1.3414967 -1.4049851
0000f0 7f 14 ab be c7 7c 5b bf b2 d4 95 bc 90 e4 3b be
       -0.33414075 -0.8573727 -0.018289898 -0.18348908
000100 aa 37 bc bf 86 a7 59 bf 18 33 1c bf 4a aa b7 bf
       -1.4704487 -0.85021245 -0.6101546 -1.4348843
000110 50 dd a5 be b8 be 0e bf 1f 3c bf bf c6 9e c5 3e
       -0.3239541 -0.55759764 -1.4940223 0.38597697
000120 ef 87 8b bf 59 41 04 c0 5d cf a0 3f 11 80 30 bf
       -1.0900859 -2.0664885 1.2563282 -0.68945414
000130 17 3c a7 3f 8d 95 3c be ae 05 04 bf 80 c0 ab bc
       1.3065213 -0.18416424 -0.51571167 -0.020965815
000140 6c dd b8 bf b5 f7 66 3f 7b 42 08 bf 23 c4 16 bf
       -1.4442573 0.9022172 -0.5322644 -0.5889303
000150 5f 75 33 c0 29 dc d5 bf f4 d5 bc bf 85 59 4d 3f
       -2.8040388 -1.6707813 -1.4752793 0.8021472
000160 ef ea a9 3d 78 28 c0 be a3 cf 11 c0 4f ff a5 3e
       0.08296763 -0.37530875 -2.2782981 0.32421347
000170 e8 31 93 bf e3 f0 db bf 51 80 53 3d 9c fd 9c 3f
       -1.1499605 -1.7182888 0.051636044 1.2264895
000180 91 08 94 bf 40 47 04 3f 4c 47 04 3e 4a 88 86 bf
       -1.1565114 0.5167122 0.12917823 -1.0510342
000190 a0 c1 18 3f 12 4d 18 bf 65 ac 3d be 83 14 2d bf
       0.5967045 -0.594926 -0.18522795 -0.67609423
0001a0 ed 43 c3 bf f6 58 06 3e 7e 7e dd bf ac 93 39 bd
       -1.5255104 0.13119873 -1.7304227 -0.045306846
0001b0 22 08 4d 3f d0 25 a4 3f 4f b4 33 3f c7 df 48 3e
       0.80090535 1.282404 0.70197004 0.19616614
0001c0 2f f0 43 be 03 df a5 be 4c b8 9c 3f 54 ba 0b 3f
       -0.19134592 -0.32396707 1.2243743 0.5458119
0001d0 ef 56 f2 3f 21 8b 49 3f 4c 0a c4 be 50 7e 04 3f
       1.893278 0.7872792 -0.38289106 0.5175524
0001e0 dd dc 93 3f d9 8a 2d bf 58 58 f3 3f 12 44 0d 3f
       1.1551777 -0.6778999 1.9011335 0.5518199
0001f0 dc 6a 77 be 22 39 e4 3d 9f b0 53 3f c1 9f d8 be
       -0.24161857 0.1114371 0.8269138 -0.42309383
000200 4c 94 28 3e 15 85 0e 40 8f f1 20 40 27 a7 d3 be
       0.16462821 2.2268727 2.5147436 -0.41338465
000210 87 59 8b 3f 4a 83 c1 bf 4e ef 05 3f 13 c2 a8 bf
       1.0886697 -1.5118191 0.52318275 -1.3184227
000220 89 9b ca 3e 4a 3f a0 bf 71 8a 8a 3f 88 b9 b4 bf
       0.3957179 -1.2519314 1.0823499 -1.411912
000230 e1 0f a2 be b6 e1 29 be 3d b5 02 c0 3a 71 5b 3f
       -0.3165274 -0.16590008 -2.042312 0.85719645
000240 0c 71 a4 bf 1d 45 bb bf 7f 15 64 bf c6 17 b6 3f
       -1.2846999 -1.4630467 -0.890953 1.4226005
000250 3f 3d c2 bf 7d 4a a6 bf 4b 57 3e bf 68 e3 10 3e
       -1.5174941 -1.2991482 -0.7435195 0.14149249
000260 4d b1 12 bf 8a f8 53 bf a3 f7 ae 3f d8 e5 00 40
       -0.5730179 -0.82801116 1.3669323 2.0140285
000270 08 10 49 be 65 df ae 3e aa 2c d7 bf d5 bb 0b 3f
       -0.19635022 0.34154812 -1.6810505 0.54583484
000280 7f 9f 7b bf 85 79 8a bf 2a ee eb 3e 49 04 70 bf
       -0.98290247 -1.0818335 0.46080142 -0.9375654
000290 8f ca df 3e 7c cb 00 c0 ba e4 b1 bf 22 91 13 3f
       0.43709227 -2.0124197 -1.3897927 0.5764333
0002a0 88 fa b0 3f 22 f4 12 bf e9 d3 08 c0 d8 7f ab bf
       1.3826456 -0.5740377 -2.137934 -1.339839
0002b0 2c a1 a8 3e 13 a6 f7 3f 49 2e b8 be 17 32 62 be
       0.32935464 1.9347557 -0.35972813 -0.2208942
0002c0 89 08 13 3f 79 f2 ac 3f c4 fb d1 be da 3e 81 3f
       0.574349 1.3511497 -0.41012394 1.0097306
0002d0 d9 b5 1b 3e 14 b2 d5 3e e7 99 c6 be db 91 a5 3f
       0.15206088 0.41737425 -0.38789293 1.2935137
0002e0 08 d7 06 3f 9b 9a 3f 40 ab 2c 0a c0 ea e9 97 bf
       0.5267186 2.9938114 -2.1589763 -1.186826
0002f0 1c b8 d9 bf 61 85 fd bf 7a b9 2c 3f 4a 3d 52 3f
       -1.7009311 -1.9806329 0.67470515 0.8212477
000300 73 5f 43 bf 84 45 f1 3d 3a c8 de 3f c8 9e 16 bf
       -0.7631752 0.11780837 1.7404854 -0.5883603
000310 e1 8c cd 3d f7 6d be bf ce cb bb 3e 42 c6 0a 3d
       0.10036636 -1.4877309 0.36678928 0.03388048
000320 68 e6 57 bf a1 a5 25 c0 87 69 a7 3f e2 f7 ae bc
       -0.8433595 -2.5882342 1.3079079 -0.021358434
000330 a5 7f 33 3e 76 52 a1 3d 6b 1b 3a bf 3f 85 94 bf
       0.17529161 0.07877056 -0.72698087 -1.1603163
000340 ef 13 bc bf a2 9c 2f 3f 9d d6 c3 be ea ed 95 3e
       -1.4693583 0.6859838 -0.38249674 0.29283077
000350 85 76 e5 bf 1c 2b 8d bf 0f aa d4 bf 82 ad 9a be
       -1.7926794 -1.1028781 -1.6614398 -0.302105
000360 46 1e 0c c0 36 27 9c be d8 38 a2 bd ac d5 4f 3f
       -2.1893477 -0.30498666 -0.07920998 0.8118541
000370 e7 eb 80 3d 76 ff aa bf 8e b7 2c 3f 0e fc f5 3e
       0.06294995 -1.335921 0.6746758 0.48043865
000380 71 9c 62 3f e7 91 0e 3f 76 99 10 c0 30 25 21 bf
       0.8851996 0.5569138 -2.2593665 -0.6294737
000390 0d b2 81 3e a9 9f d1 bd 97 21 91 bf 3c 9f cc bf
       0.25331154 -0.10235531 -1.1338376 -1.5986094
0003a0 ee f8 c3 3f 0f 47 e6 bd 39 43 85 bf 99 b8 c1 be
       1.5310342 -0.11244022 -1.041114 -0.3783615
0003b0 9a a2 12 be f5 27 2e 40 65 00 3d 3f d9 f3 56 3f
       -0.1431984 2.7211888 0.73828727 0.8396583
0003c0 91 87 9c 3f b5 13 9d 3f 84 aa f1 3e 42 a2 f1 3f
       1.2228872 1.2271639 0.47200406 1.8877642
0003d0 b0 af a7 3d b1 67 c8 bd 9c c4 93 be 53 1a 53 be
       0.081878066 -0.097854026 -0.2886094 -0.2061551
0003e0 90 c4 0d 40 92 e5 55 3f 99 6a ed 3f b9 f2 8b bf
       2.2151222 0.8355342 1.8548156 -1.0933448
0003f0 83 03 14 bf 3d e2 df be cc 6b 22 be 6a 17 45 bf
       -0.5781786 -0.43727294 -0.15861434 -0.7698885

date_emb.weight f4 [31, 64]
000000 28 ec 95 3f c6 b2 b7 3e 18 42 9f bf ff 89 90 3f
       1.1712694 0.3587858 -1.2442045 1.1292113
000010 d4 0a 8a bf 2e 8d c9 be 5a 4d 77 3f 58 b3 87 3f
       -1.0784554 -0.39365524 0.96602404 1.0601606
000020 64 e3 c7 be 53 33 5b be 81 9a ae bf 0b 0e a4 be
       -0.39040673 -0.21406297 -1.3640901 -0.32041964
000030 5a 4a b7 3f 72 0e 77 bd 86 ff 9c bf 05 7e 0b 3f
       1.4319565 -0.06031651 -1.226548 0.54489166
000040 53 3b a2 be fe b7 85 bf 11 d3 d1 3e bf 60 4d 3f
       -0.31685886 -1.0446775 0.40981343 0.8022575
000050 ee 33 93 3e e5 c2 15 bf c2 89 af bf f7 19 fa bf
       0.28750557 -0.5850051 -1.3713915 -1.9539174
000060 5a 69 aa bf c8 07 a7 3f 4e 65 d2 3e a4 93 70 bf
       -1.3313401 1.304925 0.41092914 -0.9397528
000070 e3 2d bb bd 44 ee 9d bf 5e ca 83 bf 32 0d 73 bf
       -0.091396116 -1.2338338 -1.0296133 -0.9494201
000080 46 00 d5 be 1f 9a 20 bd 79 5e 64 bf a5 05 93 3f
       -0.4160177 -0.03920948 -0.89206654 1.1486098
000090 25 90 7d 3f d6 09 01 bf 90 4d c8 3e 7f 80 c4 bf
       0.9904807 -0.50405633 0.39121675 -1.5351714
0000a0 41 5f ca 3e e9 49 da be 64 aa 78 3f ab 67 94 3e
       0.39525798 -0.42634514 0.97134995 0.28985342
0000b0 67 64 52 3e 43 ad 25 3f 83 04 07 c0 b0 a4 4c bf
       0.20546113 0.647175 -2.1096504 -0.79938793
0000c0 9f c9 c8 bf d1 8d 92 be df 70 9c 3e 72 4c d8 3e
       -1.568653 -0.28623822 0.30554864 0.42245823
0000d0 e8 c6 bf 3f e5 ec 25 3f b0 14 85 bf 33 bc ea bd
       1.4982576 0.648146 -1.0396938 -0.114616774
0000e0 fa 58 63 be 5e ff 8f 3e 14 98 8a 3f cd 41 50 3f
       -0.2220191 0.28124517 1.082766 0.81350404
0000f0 ec 34 23 bf ac fc b8 bf 0c 4b 87 bf 0f fc 11 3d
       -0.6375263 -1.4452109 -1.0569777 0.035640772
000100 60 fd c9 bd 1d 35 da 3e 28 60 dd be ea 2c b6 be
       -0.098627806 0.42618647 -0.43237424 -0.35581142
000110 3f 3e 5a bf dd 7d 18 bf 99 cf 9b bf 08 b8 a3 3d
       -0.8525123 -0.5956705 -1.2172729 0.079940856
000120 62 28 05 c0 43 5a 3c bd f1 0c 14 3d a1 f7 9b bf
       -2.0805898 -0.045984518 0.036145154 -1.2184945
000130 cd 05 00 bb 53 19 b7 3f 31 0e ff bf 97 ba 97 bf
       -0.0019534708 1.4304603 -1.9926206 -1.1853818
000140 23 53 38 3f 08 2c 87 bf 7b 24 47 bf 97 ca 09 40
       0.72001857 -1.0560312 -0.7779004 2.15299
000150 fd 1d de 3d 53 83 a3 3f 29 9a 54 3f 82 bf 0a 3e
       0.108455636 1.2774452 0.8304773 0.13549617
000160 36 56 7d bc 26 85 c6 3f 05 a3 22 bf 0f e1 84 3d
       -0.015462449 1.5509384 -0.6353 0.06488239
000170 d1 68 bc 3f a2 fc a3 bf 0f 84 24 bf 5b b7 52 bf
       1.4719487 -1.2811472 -0.64264005 -0.8231103
000180 7d b6 07 3f c2 bf 56 bf f7 50 ea be 94 8b 30 3f
       0.5301283 -0.8388635 -0.45764896 0.6896298
000190 82 9f 9d 3f 24 ce 3f 3e b4 d9 38 bf 03 24 20 3f
       1.2314303 0.1873098 -0.7220719 0.6255495
0001a0 5e c8 80 be 01 59 90 bf 05 a1 92 3f 8d cc 3d 3f
       -0.25152868 -1.1277162 1.1455389 0.74140245
0001b0 ad fb 16 3f 55 c2 27 3f bd c9 02 bf cb 96 62 bf
       0.58977777 0.655309 -0.5108908 -0.8851134
0001c0 8e 42 e7 bf a7 10 80 be be 95 9f bf 45 cc b8 bf
       -1.8067186 -0.25012705 -1.2467573 -1.4437338
0001d0 ce bd 99 be 94 af 15 3f c9 f6 ae 3f 6a 0b a7 3f
       -0.30027622 0.58471036 1.3669063 1.3050358
0001e0 1c 10 c3 bd 80 e5 ab bf 46 bd b5 3e 20 67 54 bf
       -0.09524557 -1.3429413 0.35495967 -0.82969856
0001f0 83 9a 7b bd 9e ff 8f be 27 11 78 3f 35 f1 a0 3e
       -0.06142665 -0.28124708 0.9690117 0.31434026
000200 a8 a1 82 3f 4e 33 9f 3f 37 74 97 3b 8a 1e 8c bf
       1.0205584 1.2437532 0.004622008 -1.094682
000210 9b 4c 36 be 12 be dc bf 51 88 83 bf d1 b7 b5 bd
       -0.1780266 -1.7245505 -1.0275975 -0.08872951
000220 59 ee 8a be ee 40 68 3f ef 9c 91 3f a2 81 33 bf
       -0.2713497 0.90724075 1.1376017 -0.7011968
000230 b6 4f e0 bf 63 2c 3b bf 57 9f 7e bf 7a 79 89 3e
       -1.7524326 -0.73114604 -0.99461883 0.26850492
000240 ce 86 12 bf 0a 6f bb 3f 56 1c bd 3d a4 40 c9 be
       -0.57236946 1.4643261 0.0923392 -0.3930713
000250 6d c1 7f bf fc be 31 3e a9 39 b7 be 2c 77 01 3d
       -0.9990452 0.17358011 -0.3578618 0.03160779
000260 96 73 87 3f 4e 46 71 3d 42 f3 1a be 87 a8 75 bf
       1.0582149 0.05890494 -0.15131858 -0.9596028
000270 b7 27 13 bf 71 b5 a0 bf e9 4c f9 3e 3e 0d cf bf
       -0.57482475 -1.2555372 0.4869149 -1.6175916
000280 ef cc 17 3f cc 74 22 3e 35 e1 3e bd 22 1e 16 c0
       0.5929708 0.15864867 -0.046601493 -2.3455892
000290 97 16 44 3e 5c 15 2d bf bf 04 aa 3f 8e 26 70 be
       0.19149242 -0.67610717 1.3282698 -0.23452207
0002a0 09 f2 99 bf 10 d6 43 bd 3b 52 0a bf 8f d5 c3 3f
       -1.2026988 -0.047811568 -0.54031724 1.5299548
0002b0 40 41 af bf 69 9e 84 3f f2 d3 c2 3f 53 74 05 c0
       -1.3691788 1.0360843 1.522093 -2.0852249
0002c0 da 9b 92 bc 97 de 7e 3d fd 87 a1 bf 03 ea 67 be
       -0.017896581 0.062223997 -1.2619625 -0.22647862
0002d0 df 08 54 bf 47 12 a7 3f 1c 0f 36 bf 31 33 4e 3f
       -0.82826036 1.3052453 -0.71116805 0.8054686
0002e0 ec 3d cf 3d ce 32 6b bf 50 e8 35 3f 06 9b a3 be
       0.101192325 -0.91874397 0.71057606 -0.3195421
0002f0 f9 ec 10 3f d9 66 5d bd 6f 2b e8 3f a3 f1 b9 be
       0.5661159 -0.05405316 1.8138255 -0.36317167
000300 f0 34 49 3f 00 0b 9b 3f 05 8a 7c bf a9 c3 32 3f
       0.785964 1.2112732 -0.986481 0.69829804
000310 13 a0 5d bf da 08 c6 bf 80 75 95 bf c6 e0 a7 bd
       -0.8657238 -1.5471451 -1.1676483 -0.08197169
000320 8b cd 02 40 dc 45 6e bf 17 51 1f 3f 8a fc 6a be
       2.0437953 -0.93075347 0.6223311 -0.22947899
000330 a5 24 70 bf d6 eb 23 c0 44 9a e3 3f bb f8 3b bf
       -0.93805915 -2.5612693 1.7781453 -0.7342641
000340 a7 01 e4 be b2 41 38 3f 9d c5 b8 be 34 4e f5 3e
       -0.4453251 0.71975243 -0.36088267 0.47911227
000350 78 ca 89 bf 98 af 21 bf 08 49 e2 bf e8 de 88 3f
       -1.0764914 -0.6315856 -1.7678537 1.0693026
000360 4a be 80 be 43 35 e1 be fc c6 6c 3f d6 73 bb bf
       -0.2514518 -0.43985948 0.92491126 -1.4644725
000370 6b 30 96 3f cf ba 1f bf 74 aa c5 bf ba 45 7b 3f
       1.1733526 -0.6239442 -1.5442643 0.9815327
000380 54 ba db be ab 26 c8 be 62 e7 8f 3e 44 45 f0 3d
       -0.42915595 -0.39092 0.2810622 0.11731961
000390 4d 1f 77 3f 56 14 b0 bf 79 19 84 3d db e5 1f bf
       0.96532136 -1.3756206 0.06450171 -0.62460107
0003a0 40 71 8f bf 83 31 a7 3f 02 8f 72 3e 3f b0 d9 be
       -1.1206436 1.3061985 0.23687366 -0.42517278
0003b0 0f a7 6e bf 57 5f b0 3f 19 03 01 3e be af 18 bf
       -0.9322366 1.3779095 0.12598838 -0.5964316
0003c0 6c 84 b5 3f 2a e8 c4 3e be 93 3b 3e 0e 63 e5 bf
       1.4181037 0.38458377 0.18318078 -1.7920854
0003d0 29 8c ae bf 27 2c 68 3f 24 56 82 3d d1 2d d0 bf
       -1.3636523 0.9069237 0.06364086 -1.6263982
0003e0 38 47 44 bf 69 85 f5 3e 29 72 84 bf 3d ae c2 bc
       -0.7667117 0.47953346 -1.0347339 -0.023764724
0003f0 c1 4d e2 3f e2 2c 02 3f 85 c9 78 bf 0a ee ed 3e
       1.7679979 0.50849736 -0.97182494 0.46470672

season_emb.weight f4 [3, 64]
000000 b1 2d 98 be 38 23 f6 bf 22 fd d3 bf ac 86 93 bf
       -0.2972236 -1.9229498 -1.6561625 -1.1525474
000010 56 e2 c5 3e e7 de 0f 3f 06 bf 0d 3f 76 3f 49 bf
       0.38649243 0.56199497 0.55369604 -0.7861246
000020 cf a5 bb bf 0e ed 0e 3f 15 ea f0 3f af 53 81 bf
       -1.4659976 0.55830467 1.8821436 -1.0103663
000030 93 80 85 bf 3b 9d 47 3d eb ac f8 bd ac 39 1b bd
       -1.0429863 0.04873393 -0.121423565 -0.037896797
000040 0a 87 06 bf 2f f0 ac bf 8e fb dc 3f e7 89 eb bf
       -0.52549803 -1.3510798 1.7264268 -1.840146
000050 08 f5 81 3f 77 51 1b 3f b9 a8 fd be 48 78 e2 3f
       1.0152903 0.6067118 -0.49542788 1.7692957
000060 18 ef 37 bf 2c 4a cc 3e cd 84 b5 bf 60 af 81 bf
       -0.71849203 0.3990034 -1.4181153 -1.0131645
000070 07 fc 41 3f ea 34 ba bf b6 b8 97 bf d2 bd 0b c0
       0.7577519 -1.4547398 -1.1853244 -2.1834607
000080 80 26 08 3f b0 b5 e6 3f 48 46 db 3e 9a f8 8c bf
       0.53183746 1.8024197 0.42827058 -1.1013367
000090 aa e3 98 bf 68 e7 fe 3e 33 5b f5 be b6 37 a4 3e
       -1.1944478 0.49785924 -0.47921142 0.32073754
0000a0 a1 df 7a 3f ab 00 96 bd 78 7c 9c bd 24 0f a5 3c
       0.9799748 -0.07324346 -0.07640928 0.020148821
0000b0 a4 7a c9 bf 9e 79 3a 40 64 f1 db be b9 f7 2e bf
       -1.5740552 2.913673 -0.42957604 -0.68346745
0000c0 ff a4 52 3f aa 30 d5 be 13 ae 39 bf 6d 19 23 be
       0.82283014 -0.4163869 -0.7253124 -0.15927668
0000d0 07 7d 19 3e 1c fb 58 bf a4 5f 09 3e 71 2e e1 3f
       0.149891 -0.8475816 0.1341539 1.7592298
0000e0 75 4b 17 bf 41 2a a3 3e bf e6 86 3f 9d 00 5b 3e
       -0.59099513 0.31868175 1.0539168 0.21386953
0000f0 e0 a8 04 bf bf 83 0f 40 f4 b0 84 be 3e 91 9d 3f
       -0.5182018 2.2424161 -0.25916255 1.2309949
000100 ef 1a 1c bf f7 7e 66 3f 1b c7 ab bf f4 07 81 bf
       -0.609786 0.9003748 -1.3420137 -1.0080552
000110 2f a6 21 bf 7f d7 16 3f 91 df 53 bf fc d1 0e 3f
       -0.631442 0.5892257 -0.8276301 0.5578916
000120 ad 09 e6 bf 0b 5b 84 3e 3e dc aa bf 6c 30 de bf
       -1.7971703 0.2585071 -1.3348463 -1.7358527
000130 c7 45 74 be a3 43 d2 3f 43 9b 6b 3f b3 74 2b 3f
       -0.23854743 1.6426891 0.92033786 0.66974944
000140 54 f5 2f bf 6c 8f 35 bf 30 e0 dc 3e cb 62 56 bf
       -0.68733716 -0.7092197 0.4313979 -0.83744496
000150 c1 73 26 3f ea 7a 8d 3f ab 0e cf bf 88 a7 7c 3f
       0.65020376 1.1053135 -1.6176351 0.9869313
000160 e5 60 a7 3f df 8c 52 3f a8 9d 24 3e 18 ab f5 3e
       1.3076445 0.822462 0.16075766 0.47982097
000170 35 2c 76 3f 19 67 40 bf 27 db 92 bf e6 04 32 3f
       0.96161205 -0.75157315 -1.147313 0.69538724
000180 5c 52 81 bf 1e 2f 3f bd 01 e6 1b bf 89 7d 06 be
       -1.0103259 -0.046675794 -0.60897833 -0.13133825
000190 df b8 14 3f 48 30 7d 3f 33 0d a8 bd 48 df 95 3f
       0.5809459 0.98901796 -0.082056426 1.1708765
0001a0 ba fb fc bb 2f bf 2d bf 6e 27 d2 3c c6 17 4e bf
       -0.007720438 -0.6786985 0.025653567 -0.80505025
0001b0 2c eb c8 bf b9 f1 54 3f b7 85 06 bf 64 17 88 3f
       -1.5696769 0.8318134 -0.5254778 1.0632138
0001c0 83 4d 26 bf 15 9c 87 bf 17 92 34 be 60 17 e8 be
       -0.64962023 -1.0594507 -0.17633854 -0.45330334
0001d0 60 b5 df 3e af 7a 7f be a4 27 28 bf 16 59 99 3f
       0.43693066 -0.24949144 -0.65685487 1.1980312
0001e0 69 ef 9b 3e 42 76 18 bf 21 d9 c7 3f 58 ba 80 3f
       0.30456093 -0.5955545 1.5613137 1.0056868
0001f0 7d 38 70 bf 9e 21 53 bf a4 f8 e5 3f 56 97 e5 bd
       -0.93836194 -0.8247317 1.7966504 -0.11210506
000200 aa 7a b7 3f 9e ed ea bf 88 17 75 bf 92 d4 10 bf
       1.4334309 -1.8353765 -0.9573903 -0.56574357
000210 f5 0f 99 be 27 83 39 3f eb 35 78 3f 2a 60 ea 39
       -0.29894987 0.7246575 0.9695727 0.00044703606
000220 4d 93 25 bf ef 29 13 c0 88 04 1c 3f 2d e6 14 3d
       -0.6467789 -2.2994344 0.60944414 0.036352325
000230 81 69 08 3e 90 17 70 c0 5a 0e f6 3f 75 05 24 bf
       0.13321497 -3.7514381 1.922313 -0.64070827
000240 a8 ce 1b bf f9 e7 d5 be 02 03 80 3e f3 ad 5c bf
       -0.6086221 -0.41778544 0.25002295 -0.86202925
000250 7c bf 8f 3f d6 1c b6 3f d0 dd a2 3d d7 c1 6f bd
       1.1230311 1.422755 0.079524636 -0.05853447
000260 9b af 71 bf a6 e6 20 c0 53 71 cb bf a1 8a 87 3e
       -0.9440858 -2.5140777 -1.5893959 0.26472953
000270 1b 41 cb 3f 75 0b 95 bf 12 15 a7 3d ca d3 d1 3d
       1.5879244 -1.1644121 0.08158316 0.10245474
000280 f7 f3 08 3f c4 c9 10 40 5b 7b 86 3f 55 cd 4d bf
       0.5349726 2.2623148 1.0506395 -0.80391437
000290 da 77 45 be 32 09 ef 3e 2c 5a ce be b5 9e 0d 40
       -0.19284001 0.46686703 -0.4030317 2.2128117
0002a0 91 e3 b8 3e ad 0e 47 3f 78 89 13 bf f3 9c 0c 3f
       0.3611112 0.7775677 -0.57631636 0.54926986
0002b0 cc 05 ad 3f d0 e9 c2 3f 66 51 67 bf d0 5c 49 bf
       1.3517394 1.5227604 -0.9035858 -0.78657246
0002c0 00 33 9a 3f 93 52 91 bd a9 82 3c 3e b6 39 00 bf
       1.2046814 -0.07095828 0.18409218 -0.5008806
0002d0 d0 fc 7d 3f 42 14 84 bf 6e 24 01 3f f2 e5 50 3f
       0.99213886 -1.0318682 0.5044621 0.8160087
0002e0 90 91 37 bf 64 e7 75 3f 16 72 b7 3f a4 58 d8 3e
       -0.71706486 0.960562 1.4331691 0.42255127
0002f0 6d f5 09 c0 94 f0 e9 3f ea 65 df 3f f4 52 43 3e
       -2.1556046 1.8276544 1.7452977 0.19074613

inflow_layer.0.weight f4 [8, 2]
000000 29 85 f1 be 07 11 50 be 92 0d 06 3f b0 de 68 bc
       -0.47171906 -0.20318995 0.52364457 -0.014213249
000010 7b b8 07 bf f9 87 b5 be 0e 7e 12 3f 9f 2a 94 3e
       -0.5301587 -0.354553 0.57223594 0.28938767
000020 84 f0 8d 3e ac 26 e8 be 78 f6 04 bf f7 ba 17 3f
       0.2772256 -0.45342004 -0.5193858 0.5926966
000030 73 48 8d bd 78 39 63 be e9 21 29 3e eb ca 17 be
       -0.06898584 -0.22189891 0.16516842 -0.14823501

inflow_layer.0.bias f4 [8]
000000 2a 00 54 3f f7 80 33 3d 2d 60 89 3f 71 d9 96 be
       0.8281275 0.043824162 1.0732476 -0.2946277
000010 db 3f e3 be 0a 68 6e bd 2d 9e 6f 3f 43 ac 13 be
       -0.44384655 -0.058204688 0.9360073 -0.14421181

inflow_layer.2.weight f4 [16, 8]
000000 f0 44 cf be 66 f4 31 3e ad 93 d4 be 7d 7f 85 3f
       -0.40482283 0.17378387 -0.41518918 1.0429531
000010 b1 13 f1 bc 78 5f 32 3d 06 19 96 bd d8 ad 02 bd
       -0.029428335 0.043548077 -0.073289916 -0.03190407
000020 36 7c 33 bf 3b 2d 97 3e 64 70 4f bf 6e bc b2 3e
       -0.70111406 0.29526696 -0.8103087 0.34909385
000030 48 e1 0b be 8b dd 13 bf 99 85 a3 be 45 1f a9 3a
       -0.13660157 -0.5775992 -0.31937864 0.0012902996
000040 93 4d 96 bd 19 94 80 be 3e a7 4f be f8 3c d3 3e
       -0.07339015 -0.2511299 -0.20278642 0.41257453
000050 09 66 97 3e 12 5d 40 3f 43 80 68 be 55 d7 8b 3c
       0.29570034 0.75142014 -0.22705178 0.017070452
000060 12 0d a4 3f f9 c9 af be 3d 11 4f 3f 9e 26 82 3d
       1.2816489 -0.3433378 0.8088568 0.06355022
000070 b7 93 ac 3d 35 1b 45 3f a5 b3 f4 3e a9 24 3f 3e
       0.08426612 0.7699464 0.47793308 0.18666328
000080 ed 7a 8e 3f f5 21 16 be f7 fb 3b 3f cc 6c 8c bd
       1.1131264 -0.14661391 0.7343134 -0.06856689
000090 24 2a 3b 3e 96 15 41 3f 0a e9 2a 3f 1e d5 94 3e
       0.18277794 0.7542356 0.6676184 0.29068846
0000a0 16 5b 52 be 22 66 31 3e 79 cf 00 bf da 82 2b 3f
       -0.20542559 0.17324117 -0.5031658 0.6699654
0000b0 8e a6 d0 bc bc 40 db 3e cc cd ae be 82 ca 32 3e
       -0.025470044 0.42822826 -0.34141386 0.17460063
0000c0 db af 2d 3f 9a 2d ec 3e 45 9f 1f 3f 25 61 0a 3f
       0.6784646 0.4612854 0.623524 0.5405448
0000d0 d8 c5 04 3f 0e d2 af 3e 81 fe 5f 3e af 53 8f 3e
       0.51864386 0.34339947 0.2187443 0.27993533
0000e0 dc 33 c1 be ee ca 04 3f 6d cf ab be 9f 2d bf ba
       -0.37734878 0.51872146 -0.3355669 -0.001458574
0000f0 63 97 13 be 84 e1 c5 be 5a 66 75 be c0 28 89 be
       -0.14413218 -0.38648617 -0.23964825 -0.26788902
000100 5a b7 85 3f cc 2b 97 be 16 a4 91 3f f9 fc c4 bd
       1.044658 -0.29525602 1.13782 -0.09618563
000110 d7 5a 15 3f 80 be 82 3f 0f 4e 16 3f 95 d8 73 3e
       0.58341736 1.0214386 0.5871286 0.23813088
000120 11 50 ae be ea e8 90 3d 4a 3d dd be 49 7e de 3c
       -0.3404546 0.07075675 -0.43210822 0.027159827
000130 d4 48 2f 3e 20 41 29 3f 16 bb 75 be 46 b1 a3 3d
       0.17117625 0.66115 -0.23997149 0.079927966
000140 9a d8 ae bf 24 69 06 3e 22 6e ad bf b2 81 af 3e
       -1.3659852 0.13126045 -1.3549235 0.34278637
000150 8d 47 06 be b4 05 3d bf 9c 77 0b bf 13 30 ca bd
       -0.13113232 -0.7383683 -0.54479384 -0.09872451
000160 7a 7a 3a bf 3f f5 f4 3e 06 3c 82 be d6 57 29 3e
       -0.72843134 0.47843358 -0.2543642 0.16537413
000170 98 39 9e be c3 35 26 bf 45 b0 3d bf 24 2a 2f 3e
       -0.30903316 -0.64925784 -0.7409709 0.17105919
000180 f9 c5 f6 3d 22 83 4b be 52 7e fc be 83 26 5e 3e
       0.12049479 -0.19874242 -0.49315125 0.21694379
000190 9d 0f d4 3e e4 89 47 3f c9 d1 98 be 5a 17 bf 3d
       0.41418162 0.7794478 -0.29847553 0.09330626
0001a0 79 85 48 3f e3 fa a7 3d ba 96 53 3f bd db 39 be
       0.78328663 0.0820215 0.82651865 -0.1815023
0001b0 ec 3a 57 be 2a 5e 27 3f 56 db 84 3e 1f da cf 3e
       -0.2101857 0.6537806 0.2594859 0.405961
0001c0 e8 09 58 3f b7 55 a6 3e b3 c2 8a 3f 9f d5 96 be
       0.84390116 0.3248727 1.0840667 -0.29459855
0001d0 94 59 a1 be 1a bb 40 bf c9 eb 11 3f 81 43 b8 bd
       -0.31513655 -0.75285494 0.57000405 -0.0899725
0001e0 58 eb 94 3f a2 2f 45 be d7 17 79 3f 68 26 6a bd
       1.1634321 -0.19256452 0.97302 -0.057165533
0001f0 76 29 18 3e ac 55 5a 3f 83 95 f0 3e 5b a1 fc 3e
       0.14859566 0.85286975 0.46989068 0.49341854

inflow_layer.2.bias f4 [16]
000000 c8 a7 16 be 94 4c 66 3e e5 21 cc 3d 00 63 d4 be
       -0.14712441 0.2249015 0.09967402 -0.4148178
000010 b1 80 35 bf f7 78 da be 89 d8 35 3f 8b b4 c9 3c
       -0.7089949 -0.42670414 0.7103353 0.024622222
000020 cc 5f 52 bf 74 72 34 bf d6 44 cf bc b7 58 09 be
       -0.82177424 -0.7048714 -0.025301378 -0.13412748
000030 5f 25 69 bf c7 e1 1a be ee ed 16 be 2e b8 13 bf
       -0.9107265 -0.1512519 -0.147392 -0.5770291

inflow_layer.3.weight f4 [16]
000000 88 73 11 40 09 22 15 40 09 3a 15 40 3e 05 91 3f
       2.2726765 2.3302023 2.3316672 1.1329725
000010 93 8e 9c 3f 24 8e 13 40 c1 35 34 3f 16 7c 19 40
       1.223101 2.3055506 0.7039452 2.3981986
000020 73 e9 88 3f e5 0e 14 40 7a cc 18 40 4c 0d 18 40
       1.0696243 2.313409 2.3874803 2.3758116
000030 ee 05 18 40 84 a8 2e 3f 9d 44 03 3f a7 43 bb 3f
       2.375362 0.68225884 0.5127657 1.4630021

inflow_layer.3.bias f4 [16]
000000 2b d8 a8 3e 2f e5 94 3e d0 35 ba 3e e7 a4 08 3f
       0.32977423 0.29081103 0.3636918 0.5337662
000010 6d 3c 08 3f 61 71 b8 3e e7 06 90 3e e8 58 5d 3e
       0.532172 0.36024 0.28130266 0.21615946
000020 01 ae 1a 3f 11 b5 b4 3e 37 84 37 3d bc ad 60 3e
       0.6042176 0.35294393 0.044803824 0.21941274
000030 d7 a1 c7 3e e4 8f 2d 3f be c4 f8 3e 24 92 fb 3e
       0.38990662 0.67797685 0.48587602 0.49134934

inflow_layer.3.running_mean f4 [16]
000000 96 f6 82 45 5b 96 90 44 87 ca f5 44 2c 1f ff 43
       4190.823 1156.6986 1966.329 510.24353
000010 06 5b ea 43 ab 73 51 45 1b b1 5c 45 e7 0b fa 43
       468.71112 3351.2292 3531.069 500.093
000020 b6 b6 e9 43 5b 53 8a 44 9b 59 10 44 11 02 43 44
       467.42743 1106.6049 577.4001 780.0323
000030 db 8a b4 44 f2 ee ab 43 10 9a b0 c4 83 5c 10 44
       1444.3392 343.86676 -1412.8145 577.4455

inflow_layer.3.running_var f4 [16]
000000 03 19 af 4b 55 28 b8 4a 54 d1 29 4a 1d 5c f5 49
       2.2950406e+07 6.0344745e+06 2.782293e+06 2.0099876e+06
000010 41 3c a8 49 3a 72 33 4b 4c 08 8d 4b bc 94 12 4a
       1.3781841e+06 1.1760186e+07 1.84854e+07 2.401583e+06
000020 eb 31 31 4a 07 fd 7f 49 3d 07 70 4a 65 6c ab 4a
       2.9031628e+06 1.04852844e+06 3.9326232e+06 5.6172025e+06
000030 0b fd df 49 46 be 55 49 60 41 d6 49 5d c7 cf 49
       1.8349134e+06 875492.4 1.75518e+06 1.7021236e+06

outflow_layer.0.weight f4 [64, 208]
000000 a8 66 81 be ea fd 0c 3e 2a 29 7a 3f 48 f0 57 be
       -0.25273633 0.13768736 0.9771906 -0.21087754
000010 89 df f8 bd c5 33 b5 be 93 ee 07 bf ce 55 03 bf
       -0.12152011 -0.3539106 -0.5309841 -0.513028
000020 7f 58 31 be 41 63 c8 be 36 12 ec 3e 4e 91 9a be
       -0.17318915 -0.39138225 0.46107644 -0.30188984
000030 ed 88 ea 3c 96 b6 1d 3e fb ce 0f bf 30 8d 56 3e
       0.028629744 0.15401682 -0.561752 0.20952296
000040 5d ed 3e bf 75 56 92 be 2c 5e cb be 83 b0 01 bc
       -0.7458094 -0.28581586 -0.39720285 -0.007915619
000050 a2 12 23 bf f2 e0 54 bf 64 1e cc be d4 9b 35 3e
       -0.63700306 -0.8315574 -0.39866936 0.17735225
000060 08 bb 32 bf 82 13 8a be 9a 95 de 3e 6f d3 e8 3e
       -0.6981664 -0.26968008 0.43473512 0.4547381
000070 4e 50 85 3e 96 df 76 3d de 4d 0c bf 21 06 c4 bc
       0.2603783 0.060271822 -0.54806316 -0.023928704
000080 d4 5c b2 bd 2f 09 15 be 86 e1 13 bf 7e 75 d2 be
       -0.08709112 -0.14554285 -0.57765996 -0.41105264
000090 0a a7 6c 3e 8d f7 c5 be cc c5 b4 be f4 1a c7 bd
       0.23110595 -0.3866543 -0.35307157 -0.09721938
0000a0 c5 53 c7 3e 93 b3 31 be 64 59 2b bf a7 f1 9d be
       0.389311 -0.17353658 -0.66933274 -0.3084843
0000b0 71 7a 90 3e 31 24 45 3f 14 fe 04 3e 2a c4 c9 3c
       0.28218415 0.7700835 0.12987548 0.024629671
0000c0 13 54 c6 3e 20 9f 15 3e f9 e7 3d 3d 69 91 42 3e
       0.3873602 0.14611483 0.046363804 0.19000782
0000d0 f2 f8 d6 3e dc 09 75 3d 53 b4 04 3f 84 ca a8 3e
       0.41986805 0.059823856 0.5183765 0.32967007
0000e0 65 3c 35 3f ca ec ad 3e cf 80 1a 3f 23 99 d0 be
       0.7079528 0.33969718 0.60352796 -0.40741834
0000f0 9e 68 31 bf e7 9d 00 bf 11 ea 07 bf 4f 8b 8e be
       -0.6930026 -0.5024094 -0.5309153 -0.2784066
000100 90 38 b3 bd a6 80 33 3e 66 bf 52 3e 27 20 ec bd
       -0.08751023 0.17529544 0.20580825 -0.1152957
000110 88 2a c9 bd ad bf cb 3c 75 b6 b2 bd cd 90 63 3b
       -0.09822565 0.024871672 -0.08726207 0.003472376
000120 25 a6 25 3e 9c 33 1d be 42 18 81 3d 69 2d 23 3e
       0.1617666 -0.15351719 0.06303455 0.15935291
000130 80 8d 7b 3e 7c e9 23 be b0 d3 84 be 90 d1 64 bd
       0.24565697 -0.16007036 -0.25942755 -0.055863917
000140 f3 ce 0a 3d bd 44 c5 3d 1b e0 70 be 30 99 41 be
       0.03388877 0.096322514 -0.2352299 -0.18906093
000150 33 d7 1e bd 30 b1 b8 bd ba 4b 18 3e 3a bc 1b 3e
       -0.03877945 -0.09018171 0.14872637 0.15208521
000160 79 85 56 3d ea 33 80 be 60 50 98 bd cc 83 ac bd
       0.052373383 -0.25039607 -0.07437205 -0.08423576
000170 54 3f a5 3e ab 2f 42 bd 2f 47 86 3d 19 d2 85 3d
       0.32274878 -0.04740874 0.06556546 0.065342136
000180 39 f0 39 3e 06 95 e8 3d 1a b3 88 3d 8a 14 6b be
       0.18158044 0.11356549 0.06674786 -0.22957054
000190 8e cc 8c be 1f 0a 6c 3e 73 c3 5b 3e 20 7a f8 bd
       -0.27499813 0.23050736 0.21461277 -0.121326685
0001a0 39 44 4c be 8b 6b 88 bd f1 f1 33 bd 31 8a 4d 3e
       -0.199479 -0.06661137 -0.043931905 0.20072247
0001b0 e6 f2 25 3e 27 10 16 3e 14 74 4e be d6 96 c9 3d
       0.1620594 0.14654599 -0.20161468 0.09843223
0001c0 0f f6 43 be 94 39 41 3c a5 25 88 3d 13 93 2a bd
       -0.19136833 0.011793513 0.06647805 -0.041644167
0001d0 7e b1 8f 3e 40 b2 57 3d f3 93 08 3e c2 47 a5 be
       0.28065103 0.052660227 0.13337688 -0.3228131
0001e0 2b 47 7c bd df 21 61 bd 24 ae 08 3e 3d f3 84 3e
       -0.06159131 -0.054963943 0.1334768 0.25966826
0001f0 d8 88 d3 be 53 27 ec be aa 62 4f be 1e d8 0d 3e
       -0.4131534 -0.46123752 -0.20252481 0.13851973
000200 f3 f1 9f 3d 93 44 b6 be e6 01 bb be 71 cf 88 be
       0.0780982 -0.35599193 -0.36524886 -0.26720765
000210 5c d7 b0 3c 91 57 88 3e 43 ae a9 3e 62 31 40 be
       0.021587066 0.26629308 0.33140764 -0.18768838
000220 c9 24 ba be 94 50 89 be 6e 85 b9 3e df 33 a1 be
       -0.3635619 -0.2681929 0.3623461 -0.31484887
000230 ed 73 77 be 4b ff cb be fb 2f b6 3e 87 26 8c bd
       -0.24165316 -0.3984321 0.3558348 -0.06843286
000240 92 99 8e be 78 41 87 be 4f f8 89 3e a1 5c af be
       -0.2785154 -0.26417136 0.26947257 -0.34250358
000250 2e 32 83 3e fb 5d 82 3e 4f 1b 51 be 6f da b8 3e
       0.25624222 0.25462326 -0.20420574 0.36104152
000260 1c 9b 99 be bc 77 ad be 5c 6b bd be bf 58 8d be
       -0.30001152 -0.33880413 -0.3699597 -0.2760677
000270 23 3a 9c 3e 50 03 8c be d5 6c b1 be 25 b6 87 be
       0.30513105 -0.27346277 -0.34653345 -0.26506153
000280 3e da 55 3e 67 f1 8a 3e c0 d7 86 3e 5b b0 73 be
       0.20884034 0.271373 0.2633648 -0.23797743
000290 99 37 74 be 89 8f 7a 3e ad c4 70 be b7 81 94 3e
       -0.23849334 0.24468817 -0.23512526 0.29005215
0002a0 8e 35 72 3e 5d a0 9e 3c 3e e2 0b bd 16 5a 3b 3d
       0.23653242 0.019363577 -0.03415131 0.04574021
0002b0 78 5e 3c be e4 3b aa 3e 8f d3 8d be 11 f0 99 be
       -0.18395412 0.33248818 -0.2770047 -0.3006597
0002c0 4d 8f 7d 3e 7e c9 83 be 4b 0d 7d be 95 9a f5 bd
       0.24761696 -0.25739664 -0.24712102 -0.11992375
0002d0 b1 0b 43 3e 70 47 a7 be 29 24 fc 3d f1 e0 82 3e
       0.19047429 -0.3267169 0.123115845 0.25562242
0002e0 24 f7 a2 be a3 80 81 3e 6a 62 89 3e 16 49 ef 3d
       -0.31829178 0.25293455 0.26832896 0.11683862
0002f0 dd 43 80 be ab 8a b5 3e 2a 10 a6 3e 45 dc ac 3e
       -0.25051776 0.35457358 0.32434207 0.33761802
000300 96 72 95 3f 60 2c 98 3f 6a c1 9b 3f 92 f9 54 bf
       1.1675594 1.1888542 1.21684 -0.83193314
000310 1e 34 88 bf c5 51 a0 3f db d0 ef be 9b 22 ab 3f
       -1.0640905 1.2524954 -0.46839032 1.3369936
000320 d1 e9 84 bf 7a 6e a7 3f ce 1d b0 3f 09 95 98 3f
       -1.0383855 1.308059 1.3759096 1.1920482
000330 4c 93 a6 3f 27 f5 88 bf 96 26 79 bf 29 f8 80 bf
       1.3013701 -1.0699815 -0.973245 -1.0075732
000340 01 12 80 3e 4b af eb 3e 00 4f 43 bf a8 ff 28 bd
       0.25013736 0.46032175 -0.7629242 -0.041259438
000350 00 1e 83 3e 17 4b 96 3e e5 14 df 3b 87 17 fd 3e
       0.25608826 0.29354164 0.0068079107 0.49432012
000360 a6 8b 54 3e 33 69 40 bd 4d c1 05 bd a5 80 61 3e
       0.20756397 -0.046975326 -0.03265505 0.2202173
000370 17 8f f6 3e 7d 0f 1f bf dc de 8e 3f e5 6e d8 3e
       0.48156044 -0.6213301 1.1161761 0.42272106
000380 dc 9c 1c 3f 0b 1f 12 bd de 13 46 3e 17 03 19 3e
       0.6117685 -0.035674136 0.19343516 0.14942585
000390 64 16 54 3f a3 1f 15 3f 9d 90 f2 3e b3 f6 4b 3e
       0.82846665 0.582514 0.47375956 0.19918327
0003a0 72 66 8c bc 01 20 e2 3d 3a 33 16 bf 44 01 90 be
       -0.017138693 0.110412605 -0.58671916 -0.28125966
0003b0 19 a3 a7 be 9b a2 b4 3e a3 c7 92 bd 5e 2a ab 3d
       -0.3274162 0.35280308 -0.07166984 0.0835769
0003c0 6e ff b9 3e 64 fd 45 be 86 4d 27 3f 44 2a 81 3c
       0.3632769 -0.19334942 0.65352666 0.015767224
0003d0 0b 16 34 3c f8 68 f9 3d e3 95 f6 3e 02 20 89 be
       0.010991584 0.12178224 0.4816123 -0.26782233
0003e0 d5 59 ca bd a8 87 86 3e 2a 14 4c 3e d5 ed a0 3e
       -0.09880415 0.26275373 0.19929567 0.3143145
0003f0 75 8e 92 3b db a9 e4 be ae 57 3e be 2b 0d 55 bf
       0.0044725486 -0.4466084 -0.18588135 -0.8322322

outflow_layer.0.bias f4 [64]
000000 2f e0 ae 3e a8 38 5a bd 8d 94 26 bd 48 9e c7 3e
       0.34155414 -0.053276688 -0.040669013 0.38987947
000010 d0 10 04 3e 1c c0 8c 3e 42 17 9d 3e aa e8 94 3e
       0.12897038 0.27490318 0.30681807 0.2908376
000020 55 b7 a1 3e bc c9 ac 3e 0c 1b aa 3e 83 03 c7 3e
       0.31585184 0.3374766 0.3322376 0.38869867
000030 a4 d9 6e bd 01 0f a5 bd e5 9e c1 3e 3f e2 22 3d
       -0.058313027 -0.080595024 0.3781654 0.039766546
000040 ea f6 b3 3e a0 6c c3 3e 85 39 d9 bc 9e 12 99 3e
       0.35149318 0.38168812 -0.026516685 0.29897016
000050 1a ba 9e 3e ed 37 92 3e 1b bb 66 bb 8c 65 d0 3e
       0.3100136 0.28558293 -0.0035206738 0.40702474
000060 9a 28 39 bd 8e ba 97 bc c2 49 a9 3e 4e 0c 9d 3e
       -0.045204736 -0.018521573 0.33064085 0.3067345
000070 b3 70 85 bd c0 5f c4 bd f5 64 66 3e 7f f2 90 3e
       -0.06515636 -0.09588575 0.2249945 0.2831001
000080 4f cd 8e 3c e1 e8 be 3c bd 8d b2 3e 2c d9 21 bd
       0.017431883 0.023304405 0.34873763 -0.039513752
000090 66 82 ca 3e 28 a9 ed bc 62 dc c1 3e 82 14 f0 bc
       0.3955261 -0.029011324 0.3786345 -0.029306654
0000a0 92 b5 85 3e e3 7e 11 bb 48 48 aa 3e 3d 68 69 bd
       0.2611509 -0.0022200875 0.3325827 -0.056984175
0000b0 b8 8c b1 3e ca c5 b7 3e 3e c5 d4 3e d8 70 a0 3e
       0.34677672 0.3589309 0.41556734 0.31336093
0000c0 e3 83 b7 3e 9d b3 ae 3e 2e b8 cb bd 84 35 cb 3e
       0.3584281 0.3412141 -0.09947239 0.39689267
0000d0 2d 09 ca bc 04 8f 13 bd d9 66 b9 3e 43 c5 62 3e
       -0.024662578 -0.036025062 0.3621128 0.22145562
0000e0 13 b4 ab 3e c5 96 d1 3e 19 80 b5 3e 4e 26 8f 3c
       0.33535823 0.4093534 0.35449293 0.01747432
0000f0 32 e5 0d be ff c9 b2 3e 76 0d bb 3e 00 7b 9f 3e
       -0.13856962 0.34919736 0.36533707 0.3114853

outflow_layer.2.weight f4 [16, 64]
000000 9e 5a b1 be 4c 8e ca 3e 35 3e 08 be 20 8d 89 be
       -0.34639448 0.3956169 -0.1330498 -0.26865482
000010 18 75 08 3e 22 26 db be 71 43 80 be 77 71 8f be
       0.13325918 -0.4280253 -0.25051454 -0.28016254
000020 ff 5d b8 be e7 07 a1 be 5f 25 47 be 3a 33 b8 be
       -0.36009213 -0.31451342 -0.1944785 -0.35976583
000030 2a 67 d5 3e e7 24 20 3f ca da f0 be 6f 9b 2d 3f
       0.4168027 0.6255631 -0.47041923 0.678153
000040 8e f4 89 be 36 21 ea be fb ba 02 3f fd d5 bf be
       -0.26944393 -0.45728463 0.5106656 -0.37467948
000050 c1 88 b1 be 2c 6c 2d be 09 c2 d1 3e 2c 95 9c be
       -0.34674647 -0.16935796 0.4096835 -0.3058256
000060 be 3f d7 3e 81 8c 96 3e 45 8f f4 be d9 c7 e2 be
       0.4204082 0.2940407 -0.47765556 -0.44293097
000070 1b 52 b1 3e 17 e4 4e 3f 81 ee 31 be 07 5b e2 be
       0.34632954 0.8081679 -0.17376138 -0.44210073
000080 1b 66 a0 3e 88 03 a4 3e 5a ce f4 be 67 49 88 3e
       0.313279 0.32033944 -0.47813684 0.26618502
000090 1e 2c c2 be f1 77 93 3e cc 8a be be c1 91 a1 3e
       -0.37924284 0.28802446 -0.3721527 0.31556514
0000a0 3a 0c 88 bc bf 76 d2 3c 0a 7b 39 be 0a db 05 3f
       -0.016607393 0.025691388 -0.18113342 0.5228735
0000b0 8d 9b cb be 8b a1 a3 be a9 96 05 bf c7 5c a3 be
       -0.39767113 -0.31959185 -0.52183014 -0.3190672
0000c0 64 35 8a be 92 17 97 be 9d dc 37 3f 9c 9d 8d be
       -0.2699386 -0.2951017 0.71821004 -0.2765931
0000d0 72 d6 ca 3e 20 dc b9 3e 39 94 42 be ce 95 cd bd
       0.39616734 0.36300755 -0.19001855 -0.100383386
0000e0 f4 bc da be 5b 32 a7 be ea 04 a9 be 6e 6c 19 3f
       -0.42722285 -0.32655606 -0.33011562 0.59931076
0000f0 fb dc 1c 3f be 50 f9 be 90 f8 01 bf 48 63 e4 be
       0.6127469 -0.48694414 -0.507699 -0.44606996
000100 5a f5 7b be ba 88 c4 3e 45 d9 58 be df e6 a8 be
       -0.24605313 0.38385564 -0.21176632 -0.3298864
000110 55 34 00 3e 97 5c be be 38 58 ac be d2 eb d9 be
       0.12519963 -0.37180015 -0.33661056 -0.4256273
000120 58 fd a3 be b2 4a c0 be 20 a5 4c be 94 38 16 be
       -0.32029223 -0.37556988 -0.19984865 -0.1467002
000130 77 e1 12 3f dc 9e ce 3e 17 8d db be b1 20 e0 3e
       0.5737528 0.40355575 -0.4288108 0.43774942
000140 01 d8 ab be b1 1c 8d be 0d c8 3f 3e 1e 04 23 be
       -0.33563235 -0.27560952 0.18728657 -0.1591954
000150 33 7d bd be b8 2b 6c bd 56 8d ff 3d 75 0c c8 be
       -0.37009582 -0.05765888 0.124781296 -0.39072004
000160 db b5 08 3f e5 14 c4 3e b8 53 75 be e0 19 6d be
       0.5340249 0.3829719 -0.23957717 -0.23154402
000170 16 cc ee 3e 32 cd 1a 3f 63 b6 bc bc 7b fd 3c be
       0.4664008 0.60469353 -0.023036188 -0.1845607
000180 f9 b4 ec 3e 97 de 54 3e a4 3a e2 be 5e 33 ec 3e
       0.4623182 0.20788036 -0.44185364 0.4613294
000190 6c 5f ae be 4a 41 b1 3e 10 72 a7 be b3 6b b8 3e
       -0.34057176 0.34620124 -0.3270421 0.36019668
0001a0 e5 6d 01 be 58 3f dd be 01 4a 93 be 69 46 fc 3d
       -0.12639578 -0.4321239 -0.28767398 0.12318117
0001b0 01 a2 92 be 65 0d 6e be 02 15 fd be 64 59 40 be
       -0.28639224 -0.23247297 -0.4943009 -0.187841
0001c0 12 89 bb be 65 a3 d3 be 60 e6 1f 3f 8c 20 af be
       -0.36628014 -0.41335598 0.624609 -0.3420452
0001d0 2c 49 d0 3e 86 1a d0 3e 01 3b e6 bd 00 2c 26 3c
       0.40680826 0.40645236 -0.11241723 0.010142326
0001e0 18 2b 92 be bc d8 b7 bd 47 2b d5 bd 6b 2e cc 3e
       -0.28548503 -0.08976886 -0.10408645 0.39879164
0001f0 48 ef ec 3e 25 76 2c be 10 4e dc be ab a1 22 be
       0.46276307 -0.16841944 -0.43028307 -0.15881984
000200 ca b9 5a be ef 5e b8 3e 08 95 87 be 87 33 7e be
       -0.21359935 0.3600993 -0.2648089 -0.24824344
000210 6e 9d 64 3e da bd 5e be a1 68 a0 be 6b 11 de be
       0.2232568 -0.2175211 -0.31329826 -0.43372664
000220 d7 15 1c be 24 2f 9f be be 2d 4f be 0d 31 46 be
       -0.15242706 -0.31090653 -0.20232293 -0.19354649
000230 4b 44 74 3e aa 62 e3 3e d3 93 a5 be ba 3d af 3e
       0.23854177 0.44411212 -0.32339343 0.3422678
000240 55 05 53 be dd 87 93 be f4 05 cc 3e 9b af 54 be
       -0.20607503 -0.28814593 0.39848292 -0.20770113
000250 09 aa c8 be 2f dc 28 be a5 88 dc 3e d5 8b 52 be
       -0.39192227 -0.16490243 0.43073002 -0.20561154
000260 4e c6 98 3e aa 90 13 3e 2f 58 98 be 24 d3 a6 be
       0.29838794 0.14410654 -0.2975478 -0.32582963
000270 23 7a 86 3e a8 ae 28 3f 8d d1 58 3d e8 f0 b8 be
       0.26265058 0.65891504 0.05293422 -0.36121297
000280 6f 86 3a 3e 04 db bf 3e 10 28 8e be 41 d6 2d 3e
       0.18215345 0.37471783 -0.2776494 0.16976263
000290 2b 17 d5 be f9 31 83 3e 68 a2 bb be 9c fe 08 3e
       -0.41619238 0.25624064 -0.36647344 0.13378376
0002a0 12 9b e8 3d 94 58 49 be e9 ff 34 be 47 05 ab 3e
       0.11357702 -0.19662696 -0.17675747 0.33402464
0002b0 4f c6 b7 be 47 ea c1 be 33 84 e8 be 8e 57 b9 be
       -0.35893485 -0.37874052 -0.4541336 -0.3619961
0002c0 d5 75 8b be 21 cb ac be 84 51 e8 3e ed 2a af be
       -0.27238336 -0.33748725 0.4537469 -0.34212437
0002d0 46 38 9b 3e e8 ee 8c 3e 8f 1f 06 be 36 c1 2e 3e
       0.3031637 0.2752602 -0.13097976 0.17065892
0002e0 2b 0d bb be 3b 41 49 be 42 f9 85 be 69 09 91 3e
       -0.36533484 -0.1965379 -0.2616673 0.28327492
0002f0 7a 75 ec 3e 9b ee 34 be 20 bb 73 be 53 ec 0e be
       0.46183378 -0.17669146 -0.23801851 -0.13957338
000300 c4 79 36 be 7b 76 93 3e 8a 01 da be 0e cd 52 be
       -0.17819887 0.2880133 -0.425793 -0.20586035
000310 6f d5 32 3e cd 0d 2d be 8a b3 47 be 8c 45 99 be
       0.17464231 -0.16899796 -0.19502082 -0.29935873
000320 82 af c7 be 63 ff 74 be b8 e3 13 be 14 04 10 be
       -0.3900109 -0.23925547 -0.14442337 -0.14064056
000330 c8 2d 89 3e 68 f0 ae 3e 55 72 7e be dd bd fe 3e
       0.2679274 0.3416779 -0.24848302 0.4975423
000340 08 ed c6 be a5 ee a0 be 90 ac e1 3e 7f 44 5a be
       -0.38852715 -0.3143207 0.44076967 -0.21315192
000350 8e eb 8c be c7 bd 7a bd e5 c2 9d 3e 66 25 83 be
       -0.27523464 -0.061216142 0.30812755 -0.2561447
000360 61 2b b9 3e fa 98 c5 3e d4 76 4c be 6d 97 a7 be
       0.36165908 0.38593274 -0.19967204 -0.32732716
000370 8f 7b cb 3e a1 ef dd 3e e8 f0 6a 3d b9 77 37 be
       0.39742705 0.43346885 0.057358652 -0.17916764
000380 f7 8d 49 3e 70 b9 b4 3e 25 4d 5b be 03 87 51 3e
       0.19683062 0.35297728 -0.21416147 0.20461659
000390 19 be 88 be 09 21 be 3e 62 9c 3a be 06 8c 5e 3e
       -0.26707533 0.3713458 -0.18223718 0.21733102
0003a0 12 43 05 3e c9 c4 81 be c1 29 22 be 08 d1 7f 3e
       0.13013867 -0.25345448 -0.1583624 0.24982083
0003b0 5f ee 9f be f0 05 8f be d4 5c ba be 3d 99 69 be
       -0.3123655 -0.27934217 -0.36398947 -0.22812362
0003c0 2b 33 92 be 1f f4 66 be c5 14 11 3f 80 e2 af be
       -0.28554663 -0.22554062 0.56672317 -0.34352493
0003d0 ee ef 88 3e 2e 90 bf 3e 68 89 a3 be 20 ee b0 3d
       0.26745552 0.37414688 -0.3194077 0.08639169
0003e0 45 99 b7 be 3e 1b b3 be 88 34 99 be be b5 d8 3e
       -0.35859123 -0.34981722 -0.2992289 0.42326158
0003f0 48 ce 0f 3f fe 43 98 be 66 ec b9 be 18 73 93 be
       0.56174135 -0.29739374 -0.3631317 -0.28798747

outflow_layer.2.bias f4 [16]
000000 b8 ab ec be 10 7a e9 be 76 03 dc be 40 8f ef be
       -0.4622476 -0.4560094 -0.4297139 -0.4678898
000010 ea 9a 17 bf af 62 a3 be 00 dc f0 be cd c4 d8 3e
       -0.59220755 -0.31911227 -0.47042847 0.42337647
000020 00 bc be 3e f7 8b ab be af 79 ea be 5e 00 f0 3e
       0.37252808 -0.33505222 -0.45795962 0.4687528
000030 71 38 b4 3e a9 d2 0b bf be e5 b4 be b5 1b 85 3e
       0.3519931 -0.54618317 -0.3533153 0.259977

outflow_layer.4.weight f4 [1, 16]
000000 c0 ab f7 be 0c 5e 26 bf 0d 7a 88 be c2 c9 48 be
       -0.48373222 -0.64987254 -0.26655617 -0.19608214
000010 db 26 fe be bf 0a 38 bf 33 9b ed be 03 f9 66 3f
       -0.4963902 -0.718914 -0.4640747 0.9022371
000020 19 c2 6a 3f 16 2b a4 be f3 30 06 bf 1f fb 57 3f
       0.9170242 -0.32064122 -0.5241844 0.84367555
000030 29 66 6a 3f 91 5d dd be 9e 36 eb be ae 77 52 3f
       0.91562134 -0.43235448 -0.45940107 0.82213867
